model_store/MLP_epoch2.pt (torch, 41323 bytes, 18 tensors)

time_mlp.1.weight f4 [36, 9]
000000 b5 4c 31 3d 1b a0 11 3e 69 ab 06 be 31 ac 16 3e
       0.043286044 0.14221232 -0.13151325 0.14714123
000010 c4 fc af 3d 72 f0 0f 3e fc 72 34 3e bc 2c 13 be
       0.08593133 0.14056566 0.17621988 -0.14372534
000020 88 31 0e bd b7 b4 b2 3c f2 0e 3f be 23 7d b7 3e
       -0.034715205 0.021814687 -0.18658045 0.3583766
000030 cb 4d d4 3d b1 25 90 be 04 00 70 be e8 49 77 be
       0.103664 -0.28153756 -0.23437506 -0.24149287
000040 e9 d5 31 3d cb 8f 0d be b5 e2 81 be a4 5d 1e be
       0.04341689 -0.13824384 -0.25368276 -0.15465409
000050 ef 00 aa bd 20 18 0d 3d fc a0 7e 3c 52 a5 4b 3e
       -0.08300959 0.034446836 0.015541311 0.19887283
000060 1f e2 84 be 6c c1 6f be f0 4d 7d be f5 6a a5 bd
       -0.25953767 -0.23413628 -0.24736762 -0.08077041
000070 5a 51 46 be fc 6c e7 3e 99 5c 97 bd e8 44 17 3e
       -0.1936697 0.45200336 -0.073907085 0.1477238
000080 4f 68 27 3d 2b 7e 11 be 50 20 c4 3e 45 a9 9c 3e
       0.04087096 -0.14208286 0.38305902 0.30597892
000090 a6 a0 3c be ad 59 a4 bd 84 a5 08 3d 7b 0b fe bc
       -0.18420658 -0.08024917 0.033360973 -0.031011334
0000a0 32 98 4a bd ab 5f a8 bb 28 b8 c1 bd 7f ed 04 3f
       -0.04946155 -0.0051383576 -0.09458953 0.5192489
0000b0 38 c2 33 bd b1 2b f2 bd 12 f0 93 be 57 41 e3 bd
       -0.043886393 -0.1182474 -0.28894097 -0.11096447
0000c0 b4 ab 89 3e 9e 6d 4b bd e1 98 ce 3d 28 1e 78 3e
       0.26888812 -0.049665086 0.10087753 0.24230254
0000d0 50 00 7b be 2e 78 5f be 45 5d 46 3e 9b 71 b3 3d
       -0.24511838 -0.21823189 0.19371517 0.08761903
0000e0 45 bf a4 be 77 36 40 3e de 2e 8d be 72 19 a3 3d
       -0.32177177 0.18770777 -0.2757482 0.07963838
0000f0 ad a3 4f 3d 9f c8 10 bd 14 7f e7 3d 3e 66 98 3e
       0.050693203 -0.035347577 0.11303535 0.29765505
000100 b8 09 41 3d 76 e0 c3 bc 12 2d 69 3e a8 2a 8f be
       0.04712841 -0.023910742 0.22771099 -0.27962232
000110 60 07 77 3d 7c 4b 0f 3e 10 30 71 3e 58 ae 5f be
       0.060309768 0.13993639 0.2355349 -0.2184385
000120 6a 4f 1a 3e 3c 77 49 3e 1a 2b e6 be 22 64 f0 be
       0.15069357 0.1967439 -0.4495476 -0.46951395
000130 44 18 1a be 9e 57 0b be 21 f6 38 be 29 c5 e2 bc
       -0.15048319 -0.13607642 -0.1806264 -0.027681904
000140 4c 72 bb bd fe 4c f5 3d c8 51 96 be 6e d8 fc bd
       -0.0915266 0.11977576 -0.2935927 -0.12345968
000150 57 5f c2 3d f8 67 56 3e b4 da c1 bd 34 c1 81 3e
       0.09490841 0.20938098 -0.094655424 0.25342715
000160 72 a2 80 be a2 91 36 3e b8 31 19 3e 13 e0 0b 3d
       -0.25123936 0.17828992 0.14960372 0.03414924
000170 c7 a9 fe 3e a2 ca c8 3e 9c 7a 00 3e 22 a1 36 3e
       0.49738905 0.39217097 0.12546772 0.17834905
000180 6d a0 3a 3d cf 8f ac 3d 80 85 64 be e8 7c 33 be
       0.04556315 0.08425867 -0.22316551 -0.17528117
000190 37 1a 2b 3e 81 ba 85 3e 26 9d eb bd 9a 32 23 3e
       0.16709219 0.26118854 -0.11504583 0.15937272
0001a0 73 25 29 be 11 05 a1 bd ac 7c 03 3c 80 49 1d bc
       -0.16518192 -0.078622945 0.00802533 -0.009600043
0001b0 95 83 2a 3d ba b0 94 3e d8 50 09 ba 9b 3f 77 bd
       0.041629393 0.29041082 -0.0005238182 -0.060363393
0001c0 84 9a f2 3d 55 30 13 be 33 58 15 3e 64 76 dd 3e
       0.11845878 -0.14373906 0.14584427 0.43254387
0001d0 50 2e ed 3c ae c7 27 3e e4 33 2e be db 95 57 3e
       0.028952748 0.16384766 -0.17011982 0.21053259
0001e0 42 b6 50 bd cd 65 aa 3d 32 c4 ea 3d 7a 65 90 be
       -0.050955065 0.08320198 0.114632025 -0.2820242
0001f0 07 c5 88 bd fa fb 53 3e 2b 26 47 be 59 9d 7b 3c
       -0.06678205 0.2070159 -0.19448154 0.015357339
000200 a7 6c 83 be 3b e9 86 be 5f 64 d0 bd 5f 67 86 be
       -0.25668833 -0.26349816 -0.10175394 -0.2625074
000210 bc b9 97 bc d6 2d 2c be ae a5 1c 3e 02 87 80 be
       -0.018521182 -0.1681436 0.15297577 -0.25103003
000220 11 05 5a 3e da 47 55 3d f6 5c 56 3e ff d7 03 3e
       0.21290995 0.052070476 0.209339 0.12875365
000230 e2 15 58 3e 9d dc e2 bd d4 78 20 3e 3c 15 de bd
       0.21102098 -0.11077235 0.15671092 -0.10843894
000240 3b ad 61 3e 26 61 52 bc 1d dc 46 3e 59 c4 bd be
       0.22038738 -0.012840545 0.19419904 -0.37063864
000250 9e ba dc bd 9b be 8d be 32 df 53 be de 61 52 be
       -0.10777782 -0.27684483 -0.20690611 -0.20545146
000260 dc 91 ea bd fd 42 de bd 8d bd f8 3d d2 df cb be
       -0.11453602 -0.10852621 0.12145529 -0.398192
000270 47 33 87 be 4f 35 b8 3d 19 c4 ea bd f9 6b b9 bd
       -0.2640631 0.08994543 -0.11463184 -0.09053797
000280 ce 71 c4 bd 72 32 63 3e 48 30 09 be 46 b0 22 be
       -0.09592019 0.22187212 -0.13397324 -0.15887555
000290 c4 25 ac be 19 24 98 be 48 be 1f bd 4a 98 1c bb
       -0.33622563 -0.2971504 -0.038999826 -0.0023894482
0002a0 7c 06 79 be b5 28 cc be 50 11 e4 bc d6 cd 42 3e
       -0.2431888 -0.39874807 -0.027840286 0.19023833
0002b0 69 39 3c be 7d 32 db 3e 0b 52 c8 bd f9 11 a0 3e
       -0.18381275 0.42811957 -0.097812735 0.31263712
0002c0 85 1d f2 3d 8b 8a 94 be e8 39 ff bd a0 12 fe bd
       0.11822037 -0.2901195 -0.124622166 -0.12405896
0002d0 54 14 82 3e fb 92 20 be ca 62 cb 3e 46 e3 e4 3c
       0.25406134 -0.15681069 0.39723808 0.027940404
0002e0 66 1a 9b be 6e 60 15 3e 47 da 55 bd b0 19 58 be
       -0.30293578 0.14587566 -0.05221012 -0.21103549
0002f0 7d 68 8e 3e b5 46 af bd 3c 8b ac 3c 9a 33 25 be
       0.27814093 -0.08558408 0.021062486 -0.16132966
000300 d7 d6 a3 be 83 69 b5 bd 40 b0 c6 bb d2 2b e3 3d
       -0.31999847 -0.088580154 -0.006063491 0.110923424
000310 d7 28 7b be 13 a9 02 be 3c ab 58 3e ba 68 b2 bd
       -0.24527298 -0.12759809 0.2115907 -0.08711381
000320 68 30 0a be f7 f0 ac 3e 60 d9 a1 3e fd 63 09 be
       -0.13495028 0.33777592 0.31611156 -0.13417049
000330 d3 01 fc bd 81 d3 5a 3d 2c 57 f5 bd 8d df 23 be
       -0.123050354 0.053424362 -0.11979517 -0.16003247
000340 9e d5 40 be f1 47 07 be 79 27 e7 3e 33 9a 30 3d
       -0.18831488 -0.13211037 0.45147303 0.043115806
000350 bb 5d ce bc d3 1c 9a 3e 32 48 ae 3e 50 24 af 3d
       -0.025191179 0.30100116 0.34039456 0.08551848
000360 78 cc 84 bc 9f e3 c6 3d f7 48 d7 3e e8 94 df 3e
       -0.01621078 0.09711384 0.42047855 0.43668294
000370 93 a1 5c be 67 de 54 3e 1f 6f 2c 3e 90 08 c1 3e
       -0.2154601 0.20787965 0.16839264 0.37701845
000380 d8 2c 68 be e2 9a bd bd 85 59 04 3e 6a d6 61 bd
       -0.22673357 -0.09258057 0.12924774 -0.05513612
000390 dd 3b a5 be b9 5c c8 bb be b9 11 bd de 68 1b be
       -0.32272235 -0.006114569 -0.03557753 -0.15176722
0003a0 93 91 ab 3d 9a 80 35 3e 1c 4f 55 3e ea b7 50 3d
       0.083773755 0.17724839 0.20830959 0.050956644
0003b0 d6 58 2d 3e b8 bf a3 3e 76 d2 f5 bd 8c 2a a4 bd
       0.1692842 0.31982207 -0.12003033 -0.08015928
0003c0 b3 c2 24 3e a8 c8 a7 3e b9 bf 86 3e b4 6f 81 bd
       0.16089897 0.32770276 0.26318148 -0.06320134
0003d0 a5 a0 65 be db 10 83 3e c7 f8 19 be 52 43 36 be
       -0.22424562 0.25598797 -0.15036307 -0.17799118
0003e0 31 46 8e be e6 e8 aa 3e ca 90 b5 bd d0 cd 05 3e
       -0.27787927 0.33380812 -0.08865507 0.13066792
0003f0 33 d9 87 bc c0 2f ef 3d 54 47 af bd 20 d9 c0 3c
       -0.01658306 0.116790295 -0.08558527 0.023541033

time_mlp.1.bias f4 [36]
000000 55 0e 51 be 63 23 2a 3e 4c 6e c4 bc 3c 03 d1 3e
       -0.20415623 0.16615061 -0.023978375 0.4082278
000010 25 11 6b 3e d1 09 3f 3e a1 31 5a 3e 3d 25 30 3d
       0.22955759 0.18656088 0.21307994 0.043004263
000020 e5 23 7c bd fa d9 64 be 9c f9 b2 3e 65 a0 f7 3e
       -0.06155767 -0.22348776 0.34956062 0.4836456
000030 c8 d1 bd 3d 55 a2 b7 be 81 1d e2 bd fc 10 b0 be
       0.09268528 -0.35866037 -0.11040784 -0.34387958
000040 cd 99 9f bd 58 5f 56 be 1d c0 8d 3c 8f 42 c7 3e
       -0.07793007 -0.20934808 0.01730352 0.38917968
000050 f8 25 52 3d 33 88 4a be c4 00 5f 3e 28 b2 e2 3d
       0.05130574 -0.19778518 0.21777636 0.11069137
000060 2f 24 df 3d a2 89 c1 be 98 a4 98 3e a2 74 3a 3e
       0.10895573 -0.37800318 0.29813075 0.18208554
000070 22 ea b9 bc bb b2 7d 3e 53 73 81 be 00 08 77 3e
       -0.022694651 0.24775212 -0.25283298 0.24124146
000080 5b cb 9e 3e cf db 22 3e 93 fc ea bd 91 c2 7a 3e
       0.31014523 0.15904163 -0.11473956 0.24488284

time_mlp.3.weight f4 [36, 36]
000000 69 86 b0 3d 84 1b 35 3c 31 1f 10 3c 69 17 32 3e
       0.08619387 0.0110539235 0.008796499 0.17391743
000010 10 20 40 3e 73 8f e7 bd fc 4c 27 3c a0 72 58 3d
       0.18762231 -0.11306658 0.010211226 0.05284369
000020 0a 29 1c 3d c7 ff 6a bc 3f 50 04 bd 11 d7 bb 3c
       0.038125075 -0.014343209 -0.03230309 0.0229297
000030 89 48 35 3e e0 85 47 be 89 09 21 3d da 1b 8d bd
       0.17703451 -0.19484663 0.039315734 -0.06890078
000040 9b 0a 27 bd 09 ff 2e be 3f c7 e6 bd 76 1d f9 3d
       -0.0407816 -0.17089476 -0.11268472 0.12163822
000050 fd 17 01 3e 99 9c 8c bd 26 32 d7 bc ef 41 a1 3d
       0.12606807 -0.06865806 -0.02626903 0.07873904
000060 e7 e0 7b bd b8 28 55 be 85 e8 6c 3d 82 47 ae bc
       -0.06149378 -0.20816314 0.057838935 -0.021274332
000070 f8 c1 16 bc 24 be 49 3d c0 4a 0f bd ed f9 27 3e
       -0.009201519 0.049253598 -0.034983397 0.16403933
000080 e5 27 a9 bd ae f7 9a 3d a9 c6 3d be cd 87 92 bd
       -0.082595624 0.075667724 -0.18532814 -0.07154808
000090 b3 fc 1e be 10 f0 a7 3d f6 fc f2 bd cf 6f 20 3e
       -0.15526085 0.08200085 -0.11864655 0.15667652
0000a0 3d c1 ba bd a4 7a 63 3d 98 f8 bc bc b9 3d db bc
       -0.091188885 0.05553688 -0.023067757 -0.02676283
0000b0 51 c6 9c 3d 92 96 88 3d 3f d4 22 3e 6d ca cb bd
       0.07655013 0.06669344 0.15901278 -0.09950719
0000c0 8b e9 8a 3d 6c 4a 25 be 6c 9a 3b be aa 5c 03 3e
       0.06782826 -0.16141671 -0.18320626 0.12828317
0000d0 8d 28 f0 3d 15 7f cc 3d 17 18 c7 bc 42 1e cb bd
       0.117264844 0.099851765 -0.02430348 -0.099178806
0000e0 3b 1d e5 bd c4 f5 bb bd 36 ee 84 3c 86 f8 8a 3d
       -0.11187216 -0.091777354 0.01622687 0.06785683
0000f0 a2 2c 2a 3e 80 3d c8 bd d6 3e 16 bd 53 41 a0 3c
       0.16618589 -0.09777355 -0.03668102 0.019562399
000100 65 c0 aa 3d da 1c 14 bc af 73 a6 3d 86 e2 05 3c
       0.083374776 -0.009040082 0.08127534 0.008171683
000110 22 63 44 bb b0 48 c6 bd ea fa 0d bc 5d 9f b3 bb
       -0.0029966314 -0.09681833 -0.00866578 -0.005481644
000120 68 52 26 3e ff a2 82 bd b9 1f d0 3d 1a d2 70 be
       0.16242373 -0.06378745 0.101623006 -0.23517647
000130 e7 92 72 be d3 0c 4c 3c 23 7a a1 3d 62 78 c3 3d
       -0.23688851 0.012454229 0.07884624 0.095444456
000140 84 c3 5d 3e 32 23 13 3e 6d 31 27 be af b0 c2 bd
       0.21656615 0.14368895 -0.16327448 -0.09506356
000150 7e e0 14 be e3 75 6f 3e bb 02 90 3d 54 b4 33 3e
       -0.14538762 0.23384814 0.07031771 0.17549258
000160 77 5a 03 3d 6a 1b 6c bd b3 03 30 3e 42 45 10 bd
       0.032068696 -0.05764333 0.17188911 -0.0352223
000170 52 50 09 bd 89 f2 3a 3c cb fd 1c bc 9b 62 66 3d
       -0.033523865 0.011410364 -0.009581993 0.05624638
000180 31 eb c9 bd cc ee 8d 3e 27 3c 54 be 94 a8 22 3c
       -0.09859312 0.2772125 -0.20726071 0.0099278875
000190 85 c1 6d 3d e2 28 d6 bb a7 10 02 3d 3e 21 c1 bc
       0.058045883 -0.0065356353 0.031754162 -0.023575421
0001a0 a3 86 01 be 39 c7 8e bd 3d ed 83 3d 33 84 6f bd
       -0.12649016 -0.069715925 0.06441734 -0.058475684
0001b0 34 68 19 3c fe f2 04 be a7 5e af 3b 7b 08 ac 3c
       0.009363223 -0.12983319 0.0053518596 0.021000138
0001c0 96 10 35 be 7f 6d 9f bd f8 a3 9b 3d 9a 06 57 be
       -0.17682108 -0.077845566 0.07599634 -0.20998612
0001d0 62 25 09 3e 14 6d 8c 3e 0c c0 f7 bd e2 4e 4a be
       0.13393167 0.2742697 -0.12097177 -0.19756654
0001e0 8b f3 99 bd 61 61 1d 3e c6 46 72 3e e6 20 74 bd
       -0.07517155 0.15369178 0.2365981 -0.059601687
0001f0 80 1c d3 3d 30 14 04 3e 2a ea 1c 3e b7 c9 59 be
       0.1030817 0.12898326 0.15323702 -0.21268354
000200 57 ef 2a 3d 42 1b 7a 3d 27 33 a3 bd 59 42 33 be
       0.04173216 0.06106115 -0.07968741 -0.17505778
000210 33 3f 87 be 6b 4e 29 bd ef 26 8f bb 2d a1 8e bd
       -0.26415405 -0.04133455 -0.004368655 -0.069643356
000220 a6 3f f1 3d 6b e4 27 be 97 8c 50 bd 7e a0 d1 bd
       0.11779718 -0.16395728 -0.050915327 -0.102356896
000230 9b d0 f0 3c 1a 29 41 be 03 32 61 3e ed 53 1f be
       0.029396346 -0.18863335 0.21991734 -0.15559359
000240 ff 76 fc 3d a5 8b c3 bd e9 50 20 3e 13 5d 1b be
       0.12327384 -0.095481195 0.15655865 -0.15172224
000250 11 cd 80 be 85 63 08 bd bd f9 e3 3d ba 1b b6 bd
       -0.25156453 -0.033298034 0.11131618 -0.08892007
000260 1d 73 1a 3d b6 01 e1 bc 16 25 0f 3c 65 25 3b be
       0.037707437 -0.027466636 0.008736869 -0.18275984
000270 17 31 70 be f4 7f b2 3d ae 3f a7 3d 2d e3 7d 3d
       -0.23456226 0.08715811 0.08166443 0.06198423
000280 1f ba 66 3d ff f9 99 3d d3 ea 56 3e e7 9e e3 bd
       0.056329843 0.07518386 0.20988016 -0.111142926
000290 bc cb 4b be cf b8 54 3d e5 07 61 be a3 f2 83 3d
       -0.19901937 0.05193406 -0.21975668 0.06442764
0002a0 83 4f 2d be 89 81 72 bd 8f 86 f0 3c 5d e1 0c 3c
       -0.16924863 -0.059205566 0.029361038 0.008598653
0002b0 ee 2a 82 3d 59 56 46 be 50 57 09 3e 64 6a 07 3e
       0.063558444 -0.19368877 0.13412213 0.13224179
0002c0 7a 5b 25 3d e6 ef 6c be 24 90 4b 3d 98 43 28 bd
       0.040370442 -0.23138389 0.04969801 -0.041080087
0002d0 40 db 06 be 7c df 13 3e f6 ab c4 bd 27 05 6f 3c
       -0.13169575 0.14440721 -0.096031114 0.014588631
0002e0 1e d2 7e 3d ad 85 b0 3d 42 97 3f 3d af 58 a6 3c
       0.062212102 0.08619247 0.04677511 0.02030596
0002f0 ff fe 13 3e 2e 12 91 bd e3 62 28 3e 06 e6 0c 3e
       0.14452742 -0.070835456 0.16443972 0.13759622
000300 d1 50 0d 3e af ba b0 bc e0 14 a2 bd db 54 10 3d
       0.1380036 -0.021573393 -0.07914138 0.035237174
000310 03 7a f2 bd ce 13 31 be bd 26 09 3e 26 70 75 bd
       -0.11839678 -0.17292711 0.13393684 -0.059921406
000320 d9 da 27 3e 67 80 33 be a5 21 a5 bc 36 fd fc bd
       0.16392078 -0.1752945 -0.020157645 -0.12352984
000330 05 99 b7 3c c4 0f b3 3b 47 a9 f7 bc aa 06 92 3d
       0.022411833 0.005464526 -0.030232085 0.07130177
000340 1d 2f 07 be 16 f2 0e be 3d db 4e 3d c6 f0 2e bc
       -0.13201566 -0.13959536 0.05050205 -0.010677522
000350 9e e0 f5 3d 8e 45 df bb fe f7 2e be f7 ed 88 3d
       0.12005733 -0.0068137115 -0.17086789 0.06686013
000360 00 fe 52 3d d2 c7 77 bc ff 9c 19 3e d1 cb 83 be
       0.051511765 -0.0151233245 0.15001296 -0.25741437
000370 db 26 58 be 16 a4 1b 3d 10 af 14 be 11 3a 0e bd
       -0.21108572 0.03799828 -0.14519906 -0.034723345
000380 ec bd 08 bd ee 6a b3 3d 85 e6 f2 bb f5 5e b6 bd
       -0.03338425 0.087606296 -0.007412734 -0.0890483
000390 40 13 7c be e3 be 79 bc 0b f0 0f bd ac 62 7c 3d
       -0.24616718 -0.015243265 -0.035141032 0.06161754
0003a0 41 f5 90 3c 92 61 55 bb a8 7f 41 bd 2b 04 7b bd
       0.017695071 -0.0032559377 -0.047240883 -0.06128327
0003b0 59 67 98 bd f3 3b 1e 3e dc e0 8e bc 2c 94 e4 bd
       -0.07441587 0.15452556 -0.017441206 -0.11161074
0003c0 43 cf 2e be 85 7f 1f 3e 75 c6 52 bd 3c 16 2d bd
       -0.17071252 0.15575989 -0.051458795 -0.042257532
0003d0 eb 80 fa bc a2 c5 53 3d 3f 04 03 3e 54 95 47 be
       -0.030579051 0.05170215 0.12794589 -0.19490558
0003e0 6f f5 97 bb 2e 75 07 be 74 8b 89 3e 12 28 22 be
       -0.0046374123 -0.13228294 0.26864207 -0.15835598
0003f0 42 ed b5 bc 64 be 49 3d c2 b1 b6 ba 7a 32 fa 3d
       -0.02220786 0.049253836 -0.0013938474 0.12216659

time_mlp.3.bias f4 [36]
000000 a4 2d dc 3d 15 23 5e bd d9 19 1a be 63 39 03 bd
       0.10750893 -0.054232676 -0.15048923 -0.03203715
000010 65 dc a2 bd 45 09 a1 bd 15 b6 8a be 4a 2b 3f bd
       -0.07952193 -0.07863096 -0.27092043 -0.046672143
000020 30 1c 74 3e b0 7c 39 3e 3d f2 0f be 1f f6 59 be
       0.23838878 0.18113971 -0.1405725 -0.21285294
000030 cc 5b 6e bd cf 27 86 3d c9 92 10 bd 0d 43 94 bc
       -0.058193013 0.06550562 -0.035296235 -0.018098379
000040 73 a5 ca 3c 06 86 bd bd e0 43 a7 3d 85 d2 9f 3d
       0.024737095 -0.092540786 0.08167243 0.07803825
000050 77 19 2f 3d d2 a2 17 3e 3a ac 4f bd 86 ef 13 bd
       0.042748895 0.14808205 -0.050701357 -0.0361171
000060 23 f2 54 3e d9 52 1d bd 5b 98 49 be a3 ba 0d be
       0.20795493 -0.038409088 -0.19687025 -0.13840728
000070 9a 5b 66 bd c1 18 36 be 11 da e8 bd e5 5a 1f be
       -0.0562397 -0.1778288 -0.11369718 -0.15562017
000080 35 3e 4e 3e 6b 1c 9b bd f5 42 7d be 84 da 7a 3e
       0.20140918 -0.0757378 -0.24732573 0.2449742

head.weight f4 [9, 128]
000000 d6 83 44 be 69 90 cf 3c 87 fa 4d bd 40 dc d1 bc
       -0.19190916 0.025337415 -0.05028775 -0.025617719
000010 65 23 0e be 4e 8f 56 be 49 f1 23 bd 58 d8 fd 3e
       -0.1388069 -0.20953104 -0.04002503 0.4957912
000020 76 07 a6 bb 97 f3 4d 3d 85 7a a5 be 83 af d1 3e
       -0.0050668074 0.050281134 -0.32320037 0.40954217
000030 08 cd 22 be a8 ad 87 3b ca 95 69 bd 42 fc 8d 3e
       -0.15898526 0.0041405745 -0.057027616 0.2773152
000040 7d d2 13 bd c4 d2 b8 3d 54 d7 5e 3d f1 31 d4 3e
       -0.03608941 0.09024575 0.05440457 0.41444352
000050 32 f1 1b 3e 45 60 62 3d 25 d0 5a 3e 1d 32 3e 3b
       0.15228727 0.05526759 0.21368463 0.002902157
000060 2f 35 8a be 75 6f 40 be a0 0a 88 bc 01 56 e1 bb
       -0.269937 -0.18792517 -0.016606629 -0.0068767075
000070 dd 0c 48 be 48 1d 8b be 48 8d 73 3c d2 8d c3 3e
       -0.19536157 -0.27170777 0.014865227 0.38194138
000080 45 ac ad 3e 42 6e 09 3a 9c 8b 01 bd d5 ff 96 3d
       0.33920494 0.0005242565 -0.031627283 0.07373015
000090 e3 7f 95 be ea 54 21 be 11 a5 ed 3d bd 4f d0 3d
       -0.29199132 -0.15755048 0.116037495 0.10171459
0000a0 00 3c 81 3e 09 e0 7c 3d 33 7d 12 be 30 d2 f9 bc
       0.2524109 0.061737094 -0.14305572 -0.030495733
0000b0 c2 14 e0 be f9 7c 8d 3d a7 2d ba 3d 2e 91 f6 3e
       -0.43765837 0.06908602 0.09090739 0.48157638
0000c0 5b a1 8c 3e 47 89 bd bd 40 87 7c bc d1 4f d4 3d
       0.27466854 -0.09254699 -0.0154131055 0.10366786
0000d0 b6 b0 93 be a3 6b f9 bc 6f 22 dc ba 64 83 98 3e
       -0.28845757 -0.030446833 -0.001679493 0.29787743
0000e0 21 28 6f bd 3c 8e c5 bc ad 62 b7 3e 99 d8 e4 bd
       -0.05838788 -0.024115674 0.3581747 -0.11174125
0000f0 30 02 2d 3e b9 d7 ee be c3 57 54 bc ac a7 86 3d
       0.16895366 -0.46648958 -0.012960377 0.065749496
000100 df fd 41 be 53 a4 a5 bd 5a fc ab 3e d7 8f cb 3e
       -0.189445 -0.08087983 0.33590966 0.3975818
000110 60 44 51 3d cd 9b 82 be b6 ab 57 bc 56 2d df bd
       0.051090598 -0.25509492 -0.013163498 -0.10897319
000120 05 d5 00 3e 80 a6 6f ba 9c b0 ce bd fb ab b5 bd
       0.1258126 -0.0009141937 -0.10092279 -0.08870693
000130 9e 9c f4 bd 7e ef 45 be 52 a8 a4 3e 42 94 01 bd
       -0.11943935 -0.1932964 0.32159668 -0.03163553
000140 8e d2 d4 bd d3 1b 1f 3e ca bc 96 3b d0 b0 d0 be
       -0.103917226 0.15537958 0.004600142 -0.40759897
000150 c5 d2 3c 3e c3 50 25 3e aa e3 85 3d 96 53 78 bc
       0.18439777 0.1614409 0.06537564 -0.015156647
000160 80 d5 1f 3d 8a cc 83 be 4f fb 86 3e 69 b0 07 3e
       0.03902197 -0.25741988 0.26363608 0.13250889
000170 48 d1 ce 3b 39 46 8f bc 57 51 c8 be 70 16 7d 3e
       0.0063115694 -0.01748954 -0.39124557 0.2471559
000180 ba 08 f6 39 f8 22 d2 3e 2b ac cc be 3e 12 53 bd
       0.00046927278 0.41042304 -0.39975104 -0.05153107
000190 43 0d e4 ba a9 97 17 3d a4 35 7e be e5 c7 9f 3d
       -0.0017398972 0.03700987 -0.2482515 0.07801799
0001a0 ef 5b 7e bc a0 47 a8 be 48 c7 a5 be bb db ab 3e
       -0.015524848 -0.32867146 -0.32378602 0.3356608
0001b0 f9 e0 2a bd bb e1 ca be bf 37 83 3e 93 12 a7 3d
       -0.041718457 -0.39625344 0.25628468 0.081578396
0001c0 05 4d 80 3e d1 4a 8d be b5 fc 2d 3e 02 0e 26 3e
       0.2505876 -0.27596143 0.16990931 0.16216281
0001d0 41 43 d4 3e c4 7e e4 3d 41 66 06 be 19 2c 9e bd
       0.4145756 0.11156991 -0.13124944 -0.07723255
0001e0 b7 04 b9 be cd 76 c3 bc 91 96 7d bd af fd 10 be
       -0.3613641 -0.02386036 -0.06191117 -0.14159273
0001f0 8f a2 7c 3e 6f 12 6f 3e 2f 8c 9f 3e cb b1 03 be
       0.24671386 0.23346876 0.3116164 -0.12860791
000200 de 06 3b be b6 af fe 3d d1 5c 5a bd 9b c1 a6 3e
       -0.18264338 0.12435858 -0.053311173 0.32569584
000210 e3 eb 85 3d b0 92 1c 3e 95 b1 92 bd c9 26 95 be
       0.065391324 0.15290332 -0.07162777 -0.29131153
000220 20 9c 71 bd fe fc c9 3d c2 06 d1 3d 08 b2 26 3c
       -0.058986783 0.098627076 0.10206367 0.010174282
000230 79 2c b2 bb 74 2a 8f 3d 47 19 2c bd 5d 91 9f 3e
       -0.0054374305 0.06990519 -0.042016294 0.3116559
000240 6e ce b6 3e b3 f5 34 be 1c ec 71 bd 04 af 64 be
       0.35704368 -0.17671852 -0.059063062 -0.22332388
000250 93 9e 8e 3e bd f0 2c 3d d8 98 a7 be 07 29 2c 3e
       0.27855358 0.042221773 -0.32733798 0.16812526
000260 27 df 89 bd 3a 7b 4b 3c 0d 25 83 3d eb d2 24 3c
       -0.06732016 0.012419516 0.06403551 0.010060052
000270 2a 80 9b be 2a ab 0b bc 81 74 27 3e 3d e6 e7 3d
       -0.3037122 -0.008524695 0.16353036 0.11323211
000280 f8 d6 71 be 09 45 b0 3e 6c f5 70 3e 59 2c 0b be
       -0.2361716 0.3442767 0.23531121 -0.13591136
000290 00 2c 29 be da 82 e2 bd 05 67 01 bb 88 a6 c6 bd
       -0.16520691 -0.11060114 -0.0019745242 -0.09699732
0002a0 a8 2b 93 3e 81 ca a8 bc d9 c6 3b be 3e ac 19 be
       0.28744245 -0.020604374 -0.18337573 -0.15007111
0002b0 64 54 b0 3d bc 4a b5 3d 39 f6 17 3e da d3 a0 3e
       0.08609846 0.08852145 0.1484002 0.3141163
0002c0 40 67 1e 3e 25 d9 ec 3e 45 9b 67 3d f5 02 33 bd
       0.15469074 0.46259418 0.05654456 -0.043703992
0002d0 29 e6 d2 be 65 ce db be b5 50 80 bd e0 a0 11 be
       -0.41191223 -0.42930904 -0.06265394 -0.14221525
0002e0 cb 05 75 3d c4 57 14 3d 82 5a c4 3e 20 e3 22 3e
       0.059819978 0.036216512 0.38350302 0.15906954
0002f0 30 9b 74 3e 61 96 b9 3e 00 66 e6 3d e7 8e cd bc
       0.23887324 0.36247543 0.11249924 -0.025092555
000300 24 c1 93 bd 95 79 e8 3c 70 f3 09 3e 73 4b 2d 3e
       -0.07214573 0.028378287 0.1347177 0.16923313
000310 ba 19 b6 3d 14 40 18 be 55 24 09 3e 35 6c a0 bc
       0.08891626 -0.14868194 0.13392766 -0.019582847
000320 ef 1f 46 bd a4 d4 90 3c ba 8f c9 3d e4 6c 27 3d
       -0.048370298 0.01767952 0.09841867 0.04087533
000330 2d 08 56 3e 90 70 f4 bd 34 fa 50 3e c8 49 44 bc
       0.20901556 -0.11935532 0.20407945 -0.011980481
000340 84 8b ce bc e4 15 39 3e 9d 81 bb bd 65 83 03 be
       -0.02521301 0.18074757 -0.09155581 -0.12843092
000350 04 bf 69 be a3 d1 b0 3d 9e 5d 0c bf e0 a6 f4 bd
       -0.22826773 0.08633735 -0.5483035 -0.119458914
000360 0b 3b 4a 3d cb 26 70 be a7 df 37 3e b0 a2 01 be
       0.049372714 -0.23452298 0.1795641 -0.12659717
000370 8a 45 bc 3b 4f eb f7 3d 8c a1 ac be 10 d2 ce be
       0.0057455944 0.121054284 -0.33717 -0.4039464
000380 bc fb 8b 3d c1 02 00 3f 4d 4a 47 be 39 83 ff 3d
       0.06835124 0.500042 -0.19461937 0.124762006
000390 a9 67 c7 bd 65 a3 2a 3e 6c 0a 8b bd 0d 21 c9 3d
       -0.097365685 0.16663893 -0.06789097 0.09820757
0003a0 29 cc 32 be f7 1b c7 be c1 85 09 be c2 14 24 be
       -0.17460693 -0.38888523 -0.1342993 -0.16023543
0003b0 5c a2 98 bd f1 c4 85 be d9 69 0d 3d 65 d9 be 3d
       -0.074528426 -0.26126817 0.034524772 0.093188085
0003c0 8c 0a 07 be 54 02 51 be 5c b8 21 3e a9 42 88 be
       -0.13187617 -0.20411044 0.15792984 -0.26613358
0003d0 0f df d3 be 90 af ed bc 18 b4 43 be 18 f3 98 3c
       -0.41381118 -0.029014379 -0.19111669 0.018670604
0003e0 e6 7a 8e be a3 ea fb 3b c5 29 bf bd 03 2b b8 3c
       -0.2782814 0.007687883 -0.09334139 0.022481447
0003f0 90 12 12 bd db 34 aa be 07 94 19 3e cd 5b 82 bc
       -0.035662234 -0.3324345 0.14997874 -0.015912915

head.bias f4 [9]
000000 47 96 8b bd cb ac 56 3d 07 a7 d3 3d 7d 27 48 3d
       -0.068157725 0.052410882 0.10334592 0.048865784
000010 01 3a 02 3d c9 39 b2 3c af ef ae 3c 9f 3f a8 3d
       0.031793598 0.02175607 0.021354524 0.0821526
000020 f2 1e 49 3d
       0.049101777

exp_avg f4 [36, 9]
000000 3c 64 94 b7 e5 79 d5 b7 34 1e a8 38 71 23 b2 36
       -1.768965e-05 -2.544834e-05 8.01649e-05 5.3089393e-06
000010 35 c9 f1 38 36 95 a5 b7 5c 2e 09 38 c9 12 bf 38
       0.00011529253 -1.9739015e-05 3.270652e-05 9.111089e-05
000020 00 00 00 00 b1 27 9f 38 0d ee 8d 38 02 97 d8 39
       0.0 7.589104e-05 6.767744e-05 0.0004131124
000030 28 52 0d 38 9d 16 0d b7 86 f4 dd b7 12 73 b4 37
       3.3693534e-05 -8.40952e-06 -2.6459118e-05 2.1511256e-05
000040 3b 40 03 3a 00 00 00 00 2d 6b 6c 36 a0 7d a8 37
       0.00050068245 0.0 3.5229125e-06 2.008566e-05
000050 b3 d0 07 38 ae 87 cc 35 15 83 40 37 94 01 5b 38
       3.2380874e-05 1.5238672e-06 1.1474612e-05 5.221514e-05
000060 6f a8 97 37 79 e8 ee 37 00 00 00 00 5d bb 71 b9
       1.8079036e-05 2.8480064e-05 0.0 -0.0002305335
000070 de c9 90 b8 1b 24 00 3a 4e cd d0 37 19 6e d4 b7
       -6.904056e-05 0.00048881926 2.4891135e-05 -2.5323638e-05
000080 76 b9 81 b9 cf 2e 85 39 ff fb 06 3a 00 00 00 00
       -0.00024742977 0.00025402612 0.00051492447 0.0
000090 d4 fc c5 b9 33 c1 11 39 eb 22 5a 39 e7 db 4b 37
       -0.0003776314 0.0001390025 0.00020803108 1.2150943e-05
0000a0 29 55 02 ba 24 b1 62 38 ff 80 28 b9 c8 11 94 37
       -0.00049717963 5.4047574e-05 -0.00016069783 1.7651255e-05
0000b0 00 00 00 00 1e b8 c0 38 19 47 3f 38 fe bf 0c b8
       0.0 9.189568e-05 4.5604163e-05 -3.3557408e-05
0000c0 64 7c 91 b3 50 a4 fe b8 9c ad 00 b8 e4 82 b8 38
       -6.774715e-08 -0.000121422694 -3.0679264e-05 8.798184e-05
0000d0 b0 7c c4 38 00 00 00 00 90 a7 be 37 12 8f 51 b8
       9.369233e-05 0.0 2.2727792e-05 -4.9962728e-05
0000e0 44 85 87 39 54 92 c9 37 0f e6 d3 37 b5 f4 42 39
       0.00025848497 2.4029207e-05 2.526029e-05 0.00018592442
0000f0 f7 a7 54 b9 c9 d6 2b 39 00 00 00 00 e5 89 60 38
       -0.00020280467 0.00016387845 0.0 5.3534186e-05
000100 22 40 2d 39 70 8d bc b8 79 1c eb b6 63 da a9 b8
       0.00016522457 -8.990883e-05 -7.0068604e-06 -8.099226e-05
000110 67 dc 3c b8 61 03 4c b8 6f b6 1a b9 00 00 00 00
       -4.502796e-05 -4.8640537e-05 -0.00014754546 0.0
000120 e3 e0 0a 38 0d c6 15 38 9d 72 c7 38 9a 07 e0 36
       3.3111206e-05 3.5708817e-05 9.510408e-05 6.676605e-06
000130 7d 21 82 b5 37 d0 02 37 92 55 36 b7 83 43 9e 38
       -9.695501e-07 7.797083e-06 -1.0867969e-05 7.546602e-05
000140 00 00 00 00 26 a4 05 39 51 43 1f 37 8d a1 8e b8
       0.0 0.00012745018 9.492812e-06 -6.801179e-05
000150 34 87 b8 b6 d7 3c 3b b8 34 75 a8 b7 87 17 2a 39
       -5.499367e-06 -4.4640936e-05 -2.0081738e-05 0.00016221228
000160 ab 4f 9b 38 00 00 00 00 c4 07 99 37 3b d8 a4 39
       7.405815e-05 0.0 1.8242637e-05 0.00031441622
000170 39 e2 dd 35 32 df 0e b6 15 6d d1 b9 e1 f3 35 39
       1.6531623e-06 -2.1289566e-06 -0.0003994486 0.00017352357
000180 c1 54 ff 37 77 d3 8b 37 00 00 00 00 d7 b6 58 b9
       3.0437835e-05 1.6668562e-05 0.0 -0.00020667478
000190 89 ac 54 39 14 28 d7 39 50 5e 1b 38 34 17 c2 b9
       0.0002028217 0.00041037856 3.7042715e-05 -0.0003701985
0001a0 f7 63 c8 39 11 80 3c b9 02 74 c8 39 00 00 00 00
       0.00038221452 -0.00017976786 0.00038233405 0.0
0001b0 fa 33 0e b9 31 3b 0a 3a a7 1d c5 39 39 4d f2 37
       -0.00013561538 0.00052731024 0.0003759686 2.8884608e-05
0001c0 9d 76 8a 39 27 08 6d 37 20 e6 9c b8 0c 1c b4 39
       0.00026409785 1.4128199e-05 -7.481524e-05 0.00034353172
0001d0 00 00 00 00 f5 55 cc 38 cc e1 e1 b7 df ae b9 b7
       0.0 9.743489e-05 -2.6927235e-05 -2.213515e-05
0001e0 4a 99 11 b6 74 82 62 38 73 66 d0 38 89 98 18 37
       -2.169591e-06 5.4004093e-05 9.9372955e-05 9.095421e-06
0001f0 0a f0 ec b7 00 00 00 00 ec 7b 08 b7 f7 e9 22 b8
       -2.824517e-05 0.0 -8.1350845e-06 -3.8841707e-05
000200 4a de 06 b8 b9 cb f3 b5 07 48 86 38 08 58 a2 b7
       -3.2155112e-05 -1.8164202e-06 6.403034e-05 -1.9352898e-05
000210 75 79 9f b7 d3 0b 2e b8 00 00 00 00 f0 6f 1f 39
       -1.9010835e-05 -4.1495845e-05 0.0 0.00015205122
000220 99 f1 29 39 d2 2b 79 b9 53 04 99 b7 d5 2a e4 36
       0.00016207098 -0.00023762815 -1.8241035e-05 6.799916e-06
000230 d7 9f 24 b8 d9 c8 07 39 3e 95 06 b9 00 00 00 00
       -3.924951e-05 0.00012949425 -0.00012834833 0.0
000240 b3 da 8e b9 fc fe e0 38 f8 72 85 b8 fb de 9b b6
       -0.00027247294 0.00010728647 -6.363349e-05 -4.6453183e-06
000250 e4 9d 39 b8 3f 82 52 37 b3 01 2a b7 a8 19 98 b8
       -4.4254484e-05 1.2547301e-05 -1.0133185e-05 -7.252704e-05
000260 00 00 00 00 52 fc 67 b8 2d 35 90 b8 a1 ba 31 b8
       0.0 -5.5309683e-05 -6.87636e-05 -4.23739e-05
000270 db 44 4a b6 40 1f 0d 37 ec 96 62 b7 3c a6 d1 36
       -3.0140425e-06 8.411531e-06 -1.3505789e-05 6.2480376e-06
000280 9d f0 1d b8 00 00 00 00 0b 62 ac 37 8f e1 12 38
       -3.7655805e-05 0.0 2.0549653e-05 3.501918e-05
000290 ee a5 11 b8 bc d7 64 b6 58 14 84 37 f7 d8 d3 37
       -3.4725228e-05 -3.4100221e-06 1.57451e-05 2.5254192e-05
0002a0 01 01 6d 37 48 b1 19 b8 00 00 00 00 1e 76 bd 37
       1.4126535e-05 -3.664315e-05 0.0 2.2585558e-05
0002b0 a5 a0 07 39 c8 e6 a6 39 ca f9 c9 37 6d bc 3f 39
       0.00012934448 0.00031833933 2.4077384e-05 0.00018285374
0002c0 53 b5 b3 b8 41 99 ae b8 14 00 88 39 00 00 00 00
       -8.5691594e-05 -8.325512e-05 0.0002594 0.0
0002d0 59 6d 8c 39 3c 8d 15 39 57 e0 d3 39 a6 04 17 38
       0.0002678435 0.00014262361 0.00040412202 3.6005535e-05
0002e0 83 c0 4b b9 82 fb 2f 39 5e d4 f5 b8 fa 63 dc 39
       -0.00019431305 0.00016782994 -0.00011722067 0.00042036158
0002f0 00 00 00 00 31 ab a1 b8 3d 35 29 b6 e8 ec 6d 38
       0.0 -7.708965e-05 -2.5213951e-06 5.672584e-05
000300 e2 24 50 36 7f 53 d7 37 ed ad a7 37 ed 57 42 b5
       3.1015884e-06 2.5668878e-05 1.9988942e-05 -7.239858e-07
000310 75 69 e8 37 00 00 00 00 31 c5 70 b9 99 ff db b9
       2.7705662e-05 0.0 -0.00022961643 -0.0004196137
000320 b8 1c 87 38 b2 7b 9e 36 35 8b 53 b8 1a 5a 34 b9
       6.442651e-05 4.723167e-06 -5.0435967e-05 -0.00017199703
000330 cb 8c 15 b9 3b 83 8b b8 00 00 00 00 83 ed 0d ba
       -0.00014262197 -6.65248e-05 0.0 -0.0005414115
000340 fb d3 94 b9 a4 d8 25 3a c0 20 5e 38 44 e2 58 38
       -0.00028386698 0.00063265325 5.2959425e-05 5.170914e-05
000350 4a 83 6f b9 69 fc a9 b9 12 60 f7 39 00 00 00 00
       -0.00022841725 -0.00032422252 0.0004718309 0.0
000360 06 dd a2 38 1c 35 ce 39 ee bb a0 39 39 ed a6 37
       7.765931e-05 0.0003933095 0.00030657597 1.9899207e-05
000370 c9 6b 1a b8 10 40 1c b9 02 d3 03 39 61 04 c6 39
       -3.6816844e-05 -0.00014901184 0.0001257174 0.00037768765
000380 00 00 00 00 08 3c ab 38 c8 19 f8 b7 ec 3d a4 b8
       0.0 8.165097e-05 -2.957591e-05 -7.831663e-05
000390 eb 3f af b6 d6 d6 98 38 fb a8 23 b7 b5 f6 95 37
       -5.2228474e-06 7.287941e-05 -9.754901e-06 1.7877066e-05
0003a0 e1 7e 58 b8 00 00 00 00 52 be d3 b9 55 f3 2d b9
       -5.161658e-05 0.0 -0.00040386856 -0.00016589214
0003b0 17 70 c3 b8 84 0c c4 b6 fb 12 84 38 f2 21 5f b9
       -9.319203e-05 -5.842712e-06 6.297786e-05 -0.00021279583
0003c0 9d 2b 11 b9 ec 86 44 b9 00 00 00 00 25 48 11 39
       -0.00013844525 -0.00018742279 0.0 0.00013855154
0003d0 5a 47 97 38 a4 cf d8 b9 de 7e ff b7 44 9e 94 38
       7.213531e-05 -0.00041353435 -3.0457446e-05 7.086669e-05
0003e0 56 0a fb b8 e8 42 26 b7 0c 17 d6 b9 00 00 00 00
       -0.00011970538 -9.909949e-06 -0.00040834432 0.0
0003f0 7e 37 dc b8 d4 4a a8 b6 73 d6 eb 39 e9 16 0d 38
       -0.00010500754 -5.0155013e-06 0.0004498247 3.3638356e-05

exp_avg_sq f4 [36, 9]
000000 a9 4e fb 32 ba fc 09 33 5e e7 02 33 5a 46 1d 2f
       2.9256016e-08 3.212765e-08 3.047841e-08 1.4304061e-10
000010 a7 81 0b 33 98 a0 05 33 8e c6 29 33 fc 30 a1 33
       3.2481378e-08 3.1112535e-08 3.9528963e-08 7.506057e-08
000020 00 00 00 00 a5 86 36 34 6f 48 40 34 0f 00 9f 34
       0.0 1.6999054e-07 1.7907745e-07 2.96161e-07
000030 66 a5 dc 30 44 53 38 34 51 61 4b 34 bb b6 d9 33
       1.6054116e-09 1.7166627e-07 1.8941252e-07 1.01380884e-07
000040 1a 78 d6 34 00 00 00 00 43 76 b3 32 b0 fa 89 32
       3.9947992e-07 0.0 2.0892122e-08 1.6062899e-08
000050 85 b6 e5 32 d1 27 35 2f 46 49 69 32 e5 fc a5 32
       2.6742109e-08 1.6476e-10 1.3579045e-08 1.9323531e-08
000060 c0 7f 29 32 13 a2 24 33 00 00 00 00 52 5b e4 34
       9.866142e-09 3.833163e-08 0.0 4.2534754e-07
000070 8b bf fd 34 25 f5 14 35 e0 be 4f 31 17 57 da 34
       4.7264288e-07 5.549103e-07 3.0230964e-09 4.066903e-07
000080 72 21 d9 34 8e 5f a9 34 69 72 70 35 00 00 00 00
       4.0443734e-07 3.1548228e-07 8.9573456e-07 0.0
000090 bf f0 b2 34 f3 0e a9 34 0f 42 f1 34 ac 46 34 31
       3.333025e-07 3.148958e-07 4.4937812e-07 2.623362e-09
0000a0 e1 42 b2 34 1a aa 9f 34 8a 5d 79 34 f8 f4 38 35
       3.3203744e-07 2.9739823e-07 2.3223961e-07 6.890182e-07
0000b0 00 00 00 00 46 40 d9 33 44 db b6 33 0a f0 cb 33
       0.0 1.0116541e-07 8.5149196e-08 9.496587e-08
0000c0 11 ca ea 2f a0 66 c1 33 f6 01 be 33 56 62 d4 33
       4.270793e-10 9.00593e-08 8.847921e-08 9.8899065e-08
0000d0 df 27 58 34 00 00 00 00 8d 4e b0 33 b2 12 c6 33
       2.0131073e-07 0.0 8.209927e-08 9.223494e-08
0000e0 7f 5c d4 33 c2 34 16 30 a6 dd ba 33 5a d7 c3 33
       9.888844e-08 5.4644655e-10 8.7016176e-08 9.119567e-08
0000f0 0c 89 a1 33 9d 4b 4c 34 00 00 00 00 c1 02 25 34
       7.5220754e-08 1.9026488e-07 0.0 1.5367824e-07
000100 52 a1 2d 34 87 91 44 34 3c 9c 7e 30 cf 3f 34 34
       1.6170569e-07 1.8306865e-07 9.2626684e-10 1.678702e-07
000110 b4 e6 32 34 d4 59 32 34 d5 37 c7 34 00 00 00 00
       1.6661471e-07 1.6610221e-07 3.7107262e-07 0.0
000120 80 35 a3 32 e6 a5 bb 32 a2 48 ae 32 8b 39 09 2f
       1.9000026e-08 2.1845107e-08 2.0289296e-08 1.2480521e-10
000130 81 e4 9a 32 e0 f8 8b 32 65 1f a6 32 53 b4 2a 33
       1.8031871e-08 1.6294905e-08 1.933922e-08 3.9745213e-08
000140 00 00 00 00 31 2b 32 33 93 e0 47 33 05 1a 22 33
       0.0 4.1483137e-08 4.6537547e-08 3.774223e-08
000150 75 80 25 2f 80 bc 4a 33 b5 0d 23 33 7c e9 7b 33
       1.50523e-10 4.720323e-08 3.796386e-08 5.8652844e-08
000160 f0 25 d8 33 00 00 00 00 b5 ae 8e 34 9f 81 95 34
       1.00651846e-07 0.0 2.6576677e-07 2.7847724e-07
000170 ce 19 07 35 62 cd 3a 31 c2 68 ac 34 54 6c b4 34
       5.032897e-07 2.718331e-09 3.2113718e-07 3.3606432e-07
000180 a1 a9 66 34 1b 04 4e 35 00 00 00 00 19 70 a6 34
       2.148213e-07 7.6746954e-07 0.0 3.100147e-07
000190 c2 8d 9c 34 82 14 ef 34 19 78 26 31 1f db 9c 34
       2.9160407e-07 4.453214e-07 2.4224447e-09 2.9216696e-07
0001a0 23 dc ad 34 a4 79 83 34 3a 43 3f 35 00 00 00 00
       3.2383932e-07 2.4489157e-07 7.125087e-07 0.0
0001b0 7d f2 90 34 ac 30 90 34 e3 12 ce 34 ef b6 02 31
       2.6998524e-07 2.6857504e-07 3.8384232e-07 1.9021476e-09
0001c0 f8 00 92 34 15 e8 99 34 a0 31 78 34 28 73 28 35
       2.7195324e-07 2.8667333e-07 2.3114853e-07 6.275245e-07
0001d0 00 00 00 00 12 59 01 33 a0 9c 14 33 0c 65 7c 33
       0.0 3.0116162e-08 3.4601385e-08 5.8765224e-08
0001e0 6a 78 d1 2f 15 0c 00 33 e3 e8 17 33 1d d2 82 32
       3.8102438e-10 2.981331e-08 3.5369236e-08 1.522954e-08
0001f0 ea 67 9f 33 00 00 00 00 55 ea 4e 32 4e 9d 2a 32
       7.422916e-08 0.0 1.2044059e-08 9.931069e-09
000200 ec 46 40 32 e1 b1 7e 2e f0 5a 2d 32 74 e6 42 32
       1.1191997e-08 5.7910902e-11 1.0090602e-08 1.1344685e-08
000210 0f 4e 3d 32 dd 77 bc 32 00 00 00 00 c1 63 ec 33
       1.1018996e-08 2.1940588e-08 0.0 1.10077515e-07
000220 32 8c e0 33 0b 22 14 34 e6 73 5a 30 d2 fa b8 33
       1.0456314e-07 1.3795959e-07 7.947264e-10 8.6137916e-08
000230 c2 c7 d8 33 b3 2a a0 33 6f 6f 73 34 00 00 00 00
       1.00946195e-07 7.4583475e-08 2.2671678e-07 0.0
000240 35 a5 99 33 11 4c 98 33 6c 10 e7 33 db 45 29 30
       7.154669e-08 7.091888e-08 1.0759763e-07 6.158111e-10
000250 ff b8 7e 33 06 91 ad 33 a8 22 33 33 4b df 2a 34
       5.9307236e-08 8.08232e-08 4.1708205e-08 1.5913717e-07
000260 00 00 00 00 c3 cd 11 32 66 55 29 32 0f 67 05 32
       0.0 8.486896e-09 9.856512e-09 7.765052e-09
000270 a3 20 42 2e 4c b4 15 32 34 e9 f4 31 f0 a1 20 32
       4.413948e-11 8.713936e-09 7.1278468e-09 9.350046e-09
000280 e7 d5 9b 32 00 00 00 00 24 33 b8 31 04 6e c3 31
       1.8141646e-08 0.0 5.360919e-09 5.6877543e-09
000290 71 18 d3 31 97 40 2c 2e 05 ac 5a 31 31 06 59 31
       6.143687e-09 3.916564e-11 3.1820957e-09 3.1581175e-09
0002a0 8f 63 56 31 75 b5 2a 32 00 00 00 00 24 50 fc 33
       3.119769e-09 9.936561e-09 0.0 1.1749242e-07
0002b0 88 e2 d8 33 c5 4d 33 34 cc 94 87 30 db 7f fd 33
       1.00994896e-07 1.6698966e-07 9.864833e-10 1.1804487e-07
0002c0 01 6f e9 33 bc d1 80 33 b8 79 73 34 00 00 00 00
       1.08700995e-07 5.998615e-08 2.267542e-07 0.0
0002d0 2f 18 39 34 e3 d8 57 34 1c 35 a7 34 2c 7c f2 30
       1.7238266e-07 2.0102338e-07 3.1144816e-07 1.7643109e-09
0002e0 b3 66 64 34 3c 22 38 34 2f 9b dd 33 10 ae e9 34
       2.1271516e-07 1.714879e-07 1.0319342e-07 4.352628e-07
0002f0 00 00 00 00 43 f9 86 32 d7 63 56 32 1c ef 28 32
       0.0 1.5713004e-08 1.247914e-08 9.833254e-09
000300 5a 24 2b 2e 28 d0 5f 32 58 b4 4a 32 67 e1 a7 32
       3.8913185e-11 1.3027638e-08 1.1798953e-08 1.954386e-08
000310 f7 84 07 33 00 00 00 00 85 ce 97 34 92 65 9b 34
       3.1553068e-08 0.0 2.8276204e-07 2.8944902e-07
000320 54 1d e6 34 c0 22 26 31 91 a5 91 34 5d b9 a4 34
       4.2862177e-07 2.4175932e-09 2.712882e-07 3.068225e-07
000330 e3 47 51 34 08 19 37 35 00 00 00 00 bf eb a9 34
       1.9490794e-07 6.820924e-07 0.0 3.165023e-07
000340 fb af ae 34 5d d9 cf 34 11 12 01 31 1e b3 a1 34
       3.2538068e-07 3.8714907e-07 1.878224e-09 3.0118912e-07
000350 25 10 a9 34 df 2f a9 34 18 b3 37 35 00 00 00 00
       3.149045e-07 3.1513534e-07 6.843343e-07 0.0
000360 69 f0 a6 34 9b 3e c7 34 61 0d fc 34 9a 74 2a 31
       3.109483e-07 3.711219e-07 4.6948392e-07 2.4804536e-09
000370 5f 5b b1 34 fe 3c c8 34 f0 e9 9b 34 34 bc 56 35
       3.30353e-07 3.729728e-07 2.9041212e-07 7.9995084e-07
000380 00 00 00 00 9d e0 d5 32 1a e8 e4 32 c3 4f 15 33
       0.0 2.4898606e-08 2.6648241e-08 3.476431e-08
000390 66 c1 66 2f 34 3e ca 32 11 76 a1 32 a5 a5 90 32
       2.0987087e-10 2.3544182e-08 1.8796557e-08 1.6839133e-08
0003a0 3e da 61 33 00 00 00 00 b8 ae b8 34 0c 70 9c 34
       5.2585385e-08 0.0 3.4399795e-07 2.913879e-07
0003b0 b1 e4 e9 34 21 8b 1f 31 9f cd a0 34 e1 16 9c 34
       4.3566027e-07 2.321663e-09 2.9951931e-07 2.907391e-07
0003c0 f6 a0 86 34 be f5 42 35 00 00 00 00 c0 3c 14 34
       2.507656e-07 7.2628234e-07 0.0 1.3805675e-07
0003d0 3b fe 18 34 39 7d 1f 34 20 b0 3d 30 a8 2d 04 34
       1.4248592e-07 1.4853585e-07 6.900809e-10 1.2310068e-07
0003e0 45 bc ff 33 6e 70 14 34 96 63 a0 34 00 00 00 00
       1.1908609e-07 1.3824476e-07 2.987478e-07 0.0
0003f0 7f 19 a1 33 03 e3 cf 33 39 6a ec 33 f9 9c 1e 30
       7.5017844e-08 9.680482e-08 1.1008928e-07 5.7703137e-10

exp_avg f4 [36]
000000 34 69 bf 38 cb 9a 03 3a c4 15 ef 37 65 1e 07 3a
       9.127185e-05 0.00050203194 2.8501156e-05 0.00051543704
000010 6d 3a 97 37 e6 a0 c4 38 9a f6 2c 39 d4 fe 1a b9
       1.802781e-05 9.375978e-05 0.00016495064 -0.00014781515
000020 e2 be 9e 38 18 d2 9a 38 2a c2 8a 37 9f 4d c9 39
       7.569582e-05 7.382425e-05 1.6541297e-05 0.0003839554
000030 3e b3 b4 39 56 cb ed b7 d4 3f 2e b8 cb 52 07 b9
       0.0003446582 -2.8347287e-05 -4.1544277e-05 -0.00012905446
000040 bc 73 98 b8 8f 68 1e b8 e9 56 1a b8 cc 7b 88 39
       -7.269482e-05 -3.7767513e-05 -3.6797403e-05 0.00026032177
000050 eb 33 dd 39 b6 fc e8 37 f3 1e 8b b8 6e 89 f8 39
       0.00042191087 2.7774233e-05 -6.633801e-05 0.0004740464
000060 91 59 c6 39 e7 3a 59 b8 b8 ae 44 b9 08 ab d6 b9
       0.00037832235 -5.179169e-05 -0.00018757104 -0.0004094469
000070 f6 3e 0c 3a cf 82 c0 b9 64 ae e2 b8 f4 bf 12 3a
       0.0005349958 -0.00036718554 -0.000108090026 0.0005598061
000080 14 97 2b 3a 9c cd 3b b9 c8 8c 2a b7 46 0d 63 39
       0.0006545645 -0.00017910305 -1.0165568e-05 0.00021653352

exp_avg_sq f4 [36]
000000 c9 86 a1 33 1b 56 d7 34 d2 5c 25 33 2f 47 71 35
       7.521664e-08 4.010952e-07 3.8501476e-08 8.988308e-07
000010 d0 aa 39 35 60 a2 58 34 e7 ed 4c 34 77 bf c7 34
       6.9166435e-07 2.017564e-07 1.9085529e-07 3.7205947e-07
000020 e7 3d 2b 33 bd 7e d8 33 bd c8 4e 35 1d ee 3f 35
       3.987034e-08 1.00813374e-07 7.703309e-07 7.1499545e-07
000030 6d f8 28 35 6e 3a a0 33 be f5 bc 32 d6 54 74 34
       6.2946384e-07 7.461209e-08 2.1997831e-08 2.2755134e-07
000040 03 90 2b 34 0d 3d 9c 32 ef 69 2b 32 51 89 74 34
       1.5978007e-07 1.8188553e-08 9.9775965e-09 2.2774226e-07
000050 d4 a8 ea 34 63 b6 07 33 0c ca 37 35 2e 31 38 35
       4.3708735e-07 3.1598017e-08 6.846683e-07 6.861691e-07
000060 6b 6f 57 35 62 c4 62 33 3d 9c 43 35 e0 c6 a0 34
       8.0255876e-07 5.2798335e-08 7.287052e-07 2.9947023e-07
000070 c5 82 51 34 51 54 cf 34 6b 60 77 34 2b 1d 0a 35
       1.9512215e-07 3.8618103e-07 2.3038744e-07 5.145145e-07
000080 2d 39 5e 35 24 1f aa 35 40 50 07 34 33 83 7b 35
       8.2784646e-07 1.267505e-06 1.260205e-07 9.3695706e-07

exp_avg f4 [36, 36]
000000 08 ae 29 b8 bd 0a 43 b8 e7 0c 66 b7 ec de 86 39
       -4.045482e-05 -4.6501624e-05 -1.3712072e-05 0.0002572456
000010 1c a4 b6 38 ee b4 d6 37 42 ef 00 b9 88 29 25 b9
       8.709004e-05 2.559504e-05 -0.00012296162 -0.00015751098
000020 7c b3 6c b7 48 2c 34 38 70 a7 95 b6 c5 07 6e 39
       -1.4108486e-05 4.2956584e-05 -4.4600383e-06 0.00022700343
000030 03 b5 d4 38 58 20 2e b8 42 9e 26 37 f3 bf 14 b7
       0.00010142664 -4.1514955e-05 9.931218e-06 -8.866179e-06
000040 c4 f4 4c 37 1b e2 3f b7 e9 d8 94 b7 09 53 f0 38
       1.22163365e-05 -1.1437131e-05 -1.7743982e-05 0.00011459558
000050 e4 53 63 b9 d8 a7 59 b7 fc d7 19 39 e0 06 5d 39
       -0.00021679659 -1.2973287e-05 0.00014671677 0.00021078764
000060 3f 21 2f b9 92 a5 c1 b7 da ab e1 36 65 b2 5e 39
       -0.00016701686 -2.3084493e-05 6.7255287e-06 0.00021238027
000070 23 2c 02 b8 33 be 35 b9 5b d0 8f b8 a1 ab 3b 36
       -3.103552e-05 -0.0001733236 -6.8575806e-05 2.7965073e-06
000080 aa 62 79 b9 ba f6 83 b8 40 c5 a5 b6 f4 8d 19 39
       -0.00023783246 -6.292523e-05 -4.940346e-06 0.00014644099
000090 a9 b7 18 38 34 04 84 38 45 20 87 b8 34 f4 5b ba
       3.641067e-05 6.2950334e-05 -6.443312e-05 -0.0008390576
0000a0 7c 5b a0 b9 90 e8 ab 38 ea a7 b7 39 30 f0 0c 3a
       -0.0003058574 8.1972335e-05 0.00035029586 0.0005376367
0000b0 5e 2b c6 38 62 15 b0 38 a4 12 05 ba 61 d4 08 ba
       9.4494535e-05 8.396317e-05 -0.0005076325 -0.0005219635
0000c0 b2 c6 11 38 3b 34 c9 b8 ab 1b 1c 37 27 75 66 b9
       3.4755743e-05 -9.5941556e-05 9.3047665e-06 -0.00021978152
0000d0 d2 04 e7 38 aa 93 9f 37 02 18 05 38 66 e9 3e ba
       0.00011015836 1.9023038e-05 3.173203e-05 -0.0007282704
0000e0 24 39 16 39 47 f3 3f 38 5b 10 c6 b8 96 59 e1 37
       0.00014326401 4.576452e-05 -9.444422e-05 2.6863807e-05
0000f0 d2 d7 fa b8 12 f5 10 b7 a8 ef c2 39 c1 31 ab 39
       -0.000119611286 -8.640129e-06 0.0003718112 0.0003265273
000100 1c 56 4b 39 32 0c c0 38 d2 05 7f 37 f8 8d 35 39
       0.00019391667 9.157545e-05 1.520054e-05 0.00017314393
000110 76 1e 3e b8 0b cd e1 37 f5 a3 07 39 aa da a9 37
       -4.53279e-05 2.691757e-05 0.00012935682 2.0248193e-05
000120 93 9d cb b6 12 4d be 36 56 4c ff b6 70 df 96 37
       -6.0682155e-06 5.6714134e-06 -7.608479e-06 1.798544e-05
000130 e2 53 d0 37 22 a7 d8 35 e0 70 81 37 7b e7 e9 37
       2.4834593e-05 1.6141896e-06 1.543056e-05 2.7883556e-05
000140 e7 4d 2d b5 01 7e 5f b6 02 8d 61 37 40 f9 8d 37
       -6.4560885e-07 -3.3302933e-06 1.3443876e-05 1.6924576e-05
000150 fd ae 1f 38 2c 09 46 b7 ad d3 a9 b6 de 9e 30 b7
       3.8071525e-05 -1.1803855e-05 -5.061235e-06 -1.0527407e-05
000160 14 ef 84 b6 fc c2 0d b7 bb b3 1d b7 49 8a 18 b7
       -3.961739e-06 -8.449653e-06 -9.399776e-06 -9.092103e-06
000170 5d ec 90 b6 9f 92 ee b6 0e 83 12 37 3b 70 e4 37
       -4.3190507e-06 -7.1100217e-06 8.732792e-06 2.723198e-05
000180 e8 5d 00 38 c7 df 0b b7 16 7c 4e 38 09 f8 dc 37
       3.0605035e-05 -8.337148e-06 4.922979e-05 2.6341544e-05
000190 21 b9 16 37 31 e3 dd 36 1f 97 87 b6 79 11 47 37
       8.9838e-06 6.612762e-06 -4.0409063e-06 1.18653925e-05
0001a0 fd ce bc 37 40 d3 04 38 98 6a 20 33 99 b8 b4 37
       2.2507733e-05 3.1667994e-05 3.734985e-08 2.1543632e-05
0001b0 c0 4c 17 b7 f4 f6 6a 37 90 45 f3 b6 b7 b7 83 38
       -9.018171e-06 1.4004985e-05 -7.2500625e-06 6.280786e-05
0001c0 1f 14 f9 37 d4 8a 29 b7 b0 b9 3e b7 1f 99 ce b6
       2.9692483e-05 -1.0105508e-05 -1.1368116e-05 -6.157104e-06
0001d0 de 75 b3 b6 20 ae 04 35 37 1a 07 38 b8 ff 65 38
       -5.3483373e-06 4.942722e-07 3.2210923e-05 5.483601e-05
0001e0 ad ba 45 38 54 34 b5 b6 53 b5 e2 b6 e3 04 b9 b6
       4.7142315e-05 -5.400312e-06 -6.756434e-06 -5.5139985e-06
0001f0 46 68 1e b6 fa 92 de b6 a7 a3 22 b7 9d cc 0d 38
       -2.360453e-06 -6.633226e-06 -9.694056e-06 3.380758e-05
000200 7f 85 38 b7 a6 a6 2e b7 8a be 0c 38 61 d7 a1 37
       -1.0998337e-05 -1.0410009e-05 3.3556054e-05 1.929299e-05
000210 13 54 9a 36 21 d3 e1 b6 48 d1 0d 38 62 ac 7d 37
       4.599345e-06 -6.730101e-06 3.3811928e-05 1.5120111e-05
000220 7a 33 de b6 4a 73 5a 36 1e eb 4a b7 91 9c 1e 36
       -6.6221082e-06 3.2551638e-06 -1.2094881e-05 2.3634968e-06
000230 0d 81 16 37 5a 4d c7 b6 00 5b 42 b7 ea b6 10 38
       8.970744e-06 -5.939667e-06 -1.1584489e-05 3.4502627e-05
000240 da 77 cf 35 36 4e b9 37 73 16 96 37 31 9d b4 b8
       1.5457583e-06 2.2090138e-05 1.7891847e-05 -8.612348e-05
000250 25 f3 9c b8 b8 ab 79 b7 70 84 08 37 e2 4e 8c 35
       -7.483949e-05 -1.4881538e-05 8.137067e-06 1.0453771e-06
000260 56 58 cb 37 fe a1 52 37 3a d8 80 b8 8f 06 9a b8
       2.424062e-05 1.2554692e-05 -6.143791e-05 -7.344514e-05
000270 e7 3b bf b8 1b 3b cc 37 cc c2 87 37 d1 58 30 b7
       -9.1187474e-05 2.4346218e-05 1.6183963e-05 -1.0511097e-05
000280 30 cf dc 37 24 58 80 37 7d fc c0 37 89 c1 bf b6
       2.6322523e-05 1.5299833e-05 2.3005758e-05 -5.714774e-06
000290 ff 51 ce 37 24 f6 93 37 97 16 71 b7 f6 d6 bf b8
       2.4595296e-05 1.7638384e-05 -1.4369979e-05 -9.147629e-05
0002a0 a7 1c 94 b8 05 9f 95 37 7b 28 62 b8 da e3 95 b7
       -7.062527e-05 1.7836233e-05 -5.39203e-05 -1.7868286e-05
0002b0 a7 ec 43 37 52 72 ad 37 ce 11 23 b8 6b a0 eb b7
       1.1678006e-05 2.0676442e-05 -3.887881e-05 -2.8088883e-05
0002c0 e9 ee 01 b8 55 fc c2 b8 36 30 58 37 a3 e0 0e b8
       -3.09785e-05 -9.2976414e-05 1.2885828e-05 -3.4064647e-05
0002d0 df 9b a7 38 fa 9d 82 b9 7f 10 f5 b8 de 0f 13 ba
       7.992214e-05 -0.00024913234 -0.00011685583 -0.00056099694
0002e0 cb 9c bc b9 9c d9 b7 b8 d3 ea 8e 39 f8 a3 d2 39
       -0.00035974974 -8.766653e-05 0.00027259308 0.00040176488
0002f0 8a 33 92 38 94 c2 43 35 7f a6 7a 38 58 b9 6e b9
       6.9714224e-05 7.292631e-07 5.9759706e-05 -0.00022766495
000300 d0 f8 91 39 cb 91 0a b8 2e 3f c9 b7 e7 0b e6 b8
       0.00027841935 -3.3037544e-05 -2.3990488e-05 -0.000109694716
000310 7f 8d b0 36 64 96 eb 36 59 7d 9e 36 d5 a8 44 b9
       5.261681e-06 7.0210535e-06 4.7233593e-06 -0.00018754911
000320 2d 5f dd 38 c8 0a e7 36 5b f5 ea 37 76 35 61 b9
       0.00010555829 6.8855916e-06 2.8009226e-05 -0.00021477588
000330 97 6f e2 37 bb e8 e9 33 e6 7a 90 39 c6 cf 68 b9
       2.6993263e-05 1.08922414e-07 0.00027557387 -0.00022202646
000340 c3 6a 36 38 52 e6 42 39 3a 4c fc 38 3d 50 26 39
       4.349161e-05 0.00018587083 0.00012030495 0.00015860885
000350 fe 59 5e 39 bc 3e 94 b6 91 b4 35 38 f5 8c 86 37
       0.00021205095 -4.418047e-06 4.332193e-05 1.6039683e-05
000360 ae fe 3a 36 6c ad 69 b7 e4 b6 96 b6 8a d0 4c 37
       2.7864403e-06 -1.392826e-05 -4.4916396e-06 1.2207902e-05
000370 15 0f 5c 36 a1 11 5b 36 87 a5 fb 36 48 c4 63 37
       3.2791334e-06 3.2643804e-06 7.499653e-06 1.3575955e-05
000380 18 d7 45 b6 b2 db 2a b4 08 22 d9 37 e3 fa b1 b6
       -2.9480489e-06 -1.5912408e-07 2.5884263e-05 -5.304218e-06
000390 7b 7a 44 37 71 3f e6 b5 9b 62 c4 b6 23 a2 96 b5
       1.1711028e-05 -1.7154799e-06 -5.8527344e-06 -1.1223059e-06
0003a0 73 1a a9 b6 9f ea ae b6 b5 d2 a0 b6 4d 85 90 37
       -5.0396716e-06 -5.2129176e-06 -4.792901e-06 1.722821e-05
0003b0 ca 81 22 b6 36 62 89 b6 81 58 35 37 87 95 41 37
       -2.4215428e-06 -4.0943514e-06 1.0809047e-05 1.1538511e-05
0003c0 24 b6 67 37 86 7b a5 b6 6e a9 8e 37 f4 ae 20 b7
       1.3811081e-05 -4.931763e-06 1.7006616e-05 -9.577478e-06
0003d0 b8 95 b0 b6 67 2d c2 34 5f b3 82 37 91 39 84 36
       -5.2626383e-06 3.616835e-07 1.5580734e-05 3.940608e-06
0003e0 b8 5a 4b 37 40 7a 98 37 7b 5b d8 b5 2f 7c d3 35
       1.2120865e-05 1.817674e-05 -1.6119878e-06 1.5756867e-06
0003f0 61 bd 78 b9 c9 a7 4d 3a fd 94 a7 b8 65 4b ff 3a
       -0.00023721672 0.00078451313 -7.990932e-05 0.0019477425
