model_store/MLP_epoch1.pt (torch, 226219 bytes, 18 tensors)

time_mlp.1.weight f4 [108, 27]
00000000: d9b9 1bbc 1ff4 253d aacf ef3c 05e8 f03d
00000010: ad14 643d c4e7 8e3d c559 dc3d ceb2 c8bd
00000020: e6d3 3cbd ed25 80bc 2454 34be 688f 2b3e
00000030: 2333 143c 5a07 00be f99a e6bd fab4 7ebd
00000040: f03c 263d 70a7 b9bd 608a e5bd 4007 91b9
00000050: 21d7 813d 16a9 953d ffd4 923d 1a11 1f3e
00000060: 421f 0fbe 6957 b5bd d23e 12be 5439 61bd
00000070: bef6 f8bd e430 bf3d 4928 e0bd 41d1 c93c
00000080: 6c79 a73c 790c 21bd d04d 103e ba9a 243e
00000090: ea7d dabd 1479 c7bd da52 01be a867 2dbe
000000a0: 72f6 3fbd 0c46 3a3d f502 56bd 7913 ce3d
000000b0: c9ab 49bd e1db 5dbd 9be8 22be 3703 0fbd
000000c0: 5915 303e c9ca 97bd d9c1 673d e0fe f43d
000000d0: 4687 19be 2805 01be cb5e 003e e800 8a3d
000000e0: 3a32 adbd 5baf 2a3e bd93 90bd 4f86 f33c
000000f0: ef9e 4cbd d1e3 63bc f5db 843d bd12 523e
00000100: 3861 213d 9aaa 133d 3cdf 353e 8086 25be
00000110: 49bb 8e3d 94ea a13d 37ef 193e 8f2c 83bd
00000120: 5d6f 693d 6212 953d ddcb d0bd 0706 47be
00000130: bafc 9cbd 6753 a3bd a2d8 75bd 9b9c a63d
00000140: cc71 58bd 6b1b 803d b81d 03be 063c 7cbd
00000150: 3d18 7b3d 3c11 1b3e 8baf d1bd 7b23 203e
00000160: 8200 c4bd 6511 903d 2f97 723d 0287 aabd
00000170: 2fd6 163e 6284 a13d 8a73 323a 2721 c43d
00000180: f1d2 593d 243b 6ebd e8ef bebd d5ea c3bd
00000190: 30ba a83d 1519 a73b 85f9 4bbe 2082 e5b9
000001a0: 623f 24be 6cc8 1cbe 074c 24be a09e b5bb
000001b0: 62cd 07bd 21b9 ee3d bd81 cdbd bc44 5dbd
000001c0: e0e0 8c3d cbc2 9dbd a4b1 f73d c805 2f3e
000001d0: f559 12bd 8e76 9b3d 397b 25be a859 db3d
000001e0: 0906 45bd 44ec dc3c 4b25 b53d b327 f2bd
000001f0: 7e2b fb3b c40c a33d db05 cfbd 2300 933d
00000200: e2b2 9cbd f3c0 efbd c735 e1bd 50de 74be
00000210: 455c 84bd 517e f1bd 6ee1 b43d c3f8 0ebe
00000220: 0899 2b3e 2295 543d dffb a93d 7115 843d
00000230: 4cc6 a53d 2689 17bd e0bb 0e3e 1658 6ebd
00000240: f53a 383e b8c0 873c 3f08 323e a535 1cbe
00000250: b757 24bd f5b4 06be e94d dbbd 91b4 61bd
00000260: c7f0 99bd e6da 74bd 2887 e83d 8844 e5bd
00000270: 6dd3 60bd afb6 b23d ff4d 81bd 1d39 08bd
00000280: 205b ed3c 1b2c 033e 4453 a6bd 8c3d adbd
00000290: 3e73 b7bd 5417 babd 1d05 86bd fa4f 38bc
000002a0: b26b 03be 570c 5fbe b722 acbc dd5b 263e
000002b0: 5472 fcbd 710e 303e 6917 04be 5cd1 253e
000002c0: 755b 9b3d d451 d4bd 9678 7abd c040 b8bc
000002d0: 78f2 0b3e 551e cabd c96e 413e ce00 2ebd
000002e0: e179 3fbe b52c 9f3d 327f 77bd fef4 2fbe
000002f0: 5370 243e 42fb 5d3c bb2f 093d 2ee8 153c
00000300: 1abe c1bd c73b 5bbc ddf6 29ba 6676 873d
00000310: 1f76 0dbe 728b 80bd 3d04 1d3e d9e8 79bd
00000320: 4a84 8bbd b48f 523e 51f2 e43d ce7d 15bd
00000330: 904d 6abd 444a 463d e770 a4bd eaf8 0abe
00000340: ec1d 33be 060a ecbd 24b0 153e 5740 653b
00000350: 62dd 093d 0c43 313e 32a5 1d3e 843c 4a3d
00000360: 79c2 483b c549 79bc 6a1c 033e dd7a b13d
00000370: a622 a6bd 884b f13d 7f68 933d a388 c53d
00000380: 3d05 7ebd 657c 513d 224d 4d3e f7af a23d
00000390: 8b42 a1bd 08a3 a6bb f443 52bc 1d65 8ebc
000003a0: 4fd4 623d 8c4e 643d 18f9 9f3d 7abd 083d
000003b0: e26e 4d3d be45 2c3e 2545 43bd b5a5 f43c
000003c0: 7e61 513e cd80 763e 3998 1b3e 8a08 89bc
000003d0: 3fbd 1cbe b506 493e 9ed6 8bbc a5b5 16be
000003e0: 5ac0 1abe 05ed 243e f30c 6bbd ccf6 a33d
000003f0: 8029 35bd 2e9c c83d 7084 19bd 5395 233d
-0.009504759 0.040516015 0.029273827 0.11763004 0.05568378 0.069777995 0.1075931 -0.09799729
-0.04610052 -0.015643084 -0.17610222 0.16753924 0.009045395 -0.12502804 -0.112600274 -0.06218431
0.04058546 -0.09065139 -0.112080336 -0.00027661957 0.06339861 0.07307641 0.07169532 0.15533867
-0.13976768 -0.08854563 -0.14281777 -0.054986313 -0.12156437 0.09335497 -0.10945184 0.024635913
0.02044364 -0.039318535 0.14092183 0.16074648 -0.106685475 -0.09739891 -0.12629262 -0.16934073
-0.046865888 0.04547696 -0.052248914 0.10062308 -0.049236093 -0.05416477 -0.15909044 -0.034915175
0.17195643 -0.07411725 0.056581352 0.11962676 -0.14993009 -0.12599623 0.1253616 0.06738454
-0.084568456 0.16668455 -0.07059429 0.02972713 -0.04995626 -0.013909296 0.06487266 0.2051496
0.039399356 0.03605137 0.17760938 -0.16164589 0.069693156 0.0790607 0.1503266 -0.06404983
0.05699097 0.07278897 -0.10195134 -0.19435893 -0.07665391 -0.07974892 -0.06002105 0.08135339
-0.0528429 0.062552296 -0.12804306 -0.06158068 0.061302412 0.15143293 -0.1023856 0.15638535
-0.09570409 0.07034568 0.05922621 -0.08326532 0.14730142 0.07886578 0.0006807378 0.09576636
0.053179685 -0.05816187 -0.09323102 -0.09566275 0.082386374 0.0050994256 -0.19919403 -0.00043775234
-0.16039804 -0.1531083 -0.16044627 -0.005542591 -0.033154853 0.11656404 -0.10034511 -0.05402063
0.06878829 -0.077031694 0.12094429 0.17092049 -0.03573032 0.07590972 -0.16160287 0.1071046
-0.04810146 0.026968129 0.08845004 -0.11823978 0.007665097 0.07961419 -0.10108539 0.071777605
-0.07651307 -0.11706724 -0.10996585 -0.2391293 -0.064629115 -0.11791671 0.0883206 -0.13962083
0.16757596 0.051900037 0.08299994 0.06449402 0.08094463 -0.03699603 0.13938856 -0.058189474
0.1799124 0.016571388 0.17385958 -0.15254839 -0.040122714 -0.13154967 -0.107082196 -0.055103842
-0.07516628 -0.05977907 0.11353904 -0.11194712 -0.05488913 0.087262504 -0.06313705 -0.033257592
0.028974116 0.12809794 -0.081213504 -0.08459005 -0.089575276 -0.09086481 -0.06543944 -0.011249537
-0.12834051 -0.21782051 -0.021012647 0.1624598 -0.12326494 0.17193009 -0.12899555 0.16193146
0.075858034 -0.1036717 -0.061150156 -0.022491813 0.13666713 -0.098690666 0.18889917 -0.042481236
-0.18698837 0.07772199 -0.060424037 -0.17183301 0.16058473 0.013548674 0.033492785 0.009149594
-0.09460087 -0.013380951 -0.0006483624 0.066143796 -0.13814591 -0.06276597 0.15333648 -0.061013076
-0.068123415 0.20562631 0.11179031 -0.03649693 -0.057202876 0.04841067 -0.08029347 -0.13571516
-0.17491883 -0.11525349 0.14617974 0.0034980976 0.033658393 0.17310733 0.15395048 0.04937412
0.0030633493 -0.015215342 0.12803808 0.086660124 -0.081120774 0.117819846 0.071976654 0.09645202
-0.062016714 0.051144022 0.20048955 0.07943719 -0.0787402 -0.005085353 -0.012833584 -0.017382199
0.055378255 0.05573897 0.07811183 0.033383824 0.050154574 0.1682348 -0.047673363 0.029864172
0.20447347 0.24072571 0.15194787 -0.016727705 -0.15306567 0.19631465 -0.01707011 -0.1471773
-0.15112439 0.16106041 -0.057385396 0.08006057 -0.04422903 0.09795414 -0.037479818 0.03993733

time_mlp.1.bias f4 [108]
00000000: 9516 e13a 4409 1b3e d01a 6b3d 6238 10be
00000010: 78f4 ebbc a8c3 973d e9c6 eb3c 95b2 4dbd
00000020: b02e ac3d 22fb 913d 1391 4dbd 284f 47bd
00000030: e6bb 22be 65fe 80be 33dd a5bd de50 673b
00000040: b052 1d3e 7735 693e e005 d5bb dbe7 f5bc
00000050: 7078 0a3e 66d0 5abe 5238 c13d dca6 30be
00000060: 8e24 debd 0f65 34be b950 083e d8c4 693e
00000070: b8a5 f83b 10e7 80bc 580c a5bd 7a74 3fbd
00000080: 1b9a 8fbd 39de 873e ba4a bdbd 4497 133e
00000090: e85f 20bd 3052 f2bd c97a 283e fe70 84bd
000000a0: 6ffd 9dbc 1842 1dbe a8c9 44be e4b6 2cbe
000000b0: c5c8 be3d 01eb 883e 489b 20bd 3490 09bd
000000c0: b326 3ebe b773 84bd 9140 bcbd 049a 913d
000000d0: d8de 473e bf89 213e a0f5 14be a77d dfb9
000000e0: 3232 25bd f50b bebd eec3 5d3d 5d29 08be
000000f0: 7da3 f2bd dfa4 2f3e ad2b 3a3e 5851 40be
00000100: 8d9c 023e 206d 3c3e 66c4 583d 5556 5c3e
00000110: b8e4 02be 5241 773c 5830 6cbd 94f6 e9bd
00000120: deea 02be 0773 853e b2c6 17be 237c 4bbe
00000130: c4ea fdbd f24b d03b 0e48 dcbd 1ffe c43d
00000140: 6afd 44be 8dd1 ff3c c515 103e 077c 623d
00000150: 1e09 d9bd e8c9 f43b 4cdc 22ba 9b77 08be
00000160: 4c62 423c 19ab eabd 0138 e9bd b02c 313e
00000170: 90e7 d9bb 3652 263e c1f2 543d 93d1 05be
00000180: 9111 31be 229a 6e3e ee5c df39 eda6 96bd
00000190: 8f97 dcbd 8394 3dbd 5f7f a0bd f36a 28be
000001a0: da20 0fbe a140 d53d 0692 343e ff19 00be
0.0017172868 0.15140253 0.057398617 -0.14084008 -0.028803095 0.07410365 0.028781371 -0.050219137
0.084073424 0.07127978 -0.05018718 -0.048659474 -0.1589199 -0.25194088 -0.08098831 0.0035296003
0.15363574 0.22774301 -0.0065009445 -0.030017784 0.13522506 -0.2136856 0.0943457 -0.17251152
-0.10846816 -0.17616676 0.13312043 0.22828996 0.0075881146 -0.01573518 -0.08058995 -0.04674194
-0.07011815 0.2653673 -0.092427686 0.14413172 -0.039153963 -0.11832082 0.16453089 -0.06466864
-0.019285886 -0.15357244 -0.19217551 -0.16866642 0.093156375 0.26741794 -0.039210588 -0.03358479
-0.1856945 -0.06467383 -0.091920026 0.07109454 0.19518602 0.15775202 -0.14546824 -0.00042627493
-0.040331073 -0.092796244 0.05414193 -0.13297029 -0.11847589 0.17152737 0.18180723 -0.1878103
0.12755032 0.18401003 0.052921675 0.21517308 -0.12782562 0.015091257 -0.05766329 -0.11423984
-0.12784907 0.2606432 -0.1482189 -0.19871573 -0.123982936 0.0063567096 -0.10755931 0.09618782
-0.19237295 0.031227851 0.14070804 0.055294063 -0.10597442 0.007470358 -0.00062126364 -0.13326876
0.011864256 -0.114584155 -0.11387635 0.17302203 -0.006649919 0.16242298 0.05198932 -0.13068227
-0.17291857 0.23300985 0.00042603113 -0.07356057 -0.10771095 -0.04628421 -0.07836794 -0.16447048
-0.13977376 0.104127176 0.17633829 -0.12509917

time_mlp.3.weight f4 [108, 108]
00000000: 2926 27bd 3200 c5bb de12 8e3b 60af d8bc
00000010: 2c29 c43d 7170 7f3d f302 b83c 9243 3c3a
00000020: dee1 bebd eb68 213d 39b7 1f3c 8e34 dcba
00000030: aafe a03d 9e6a 903d 5c25 563d 8949 2dbd
00000040: dc95 99bd 15bf 4cbd 1de0 a6bc 37ba 91bd
00000050: 53f6 2e3c e658 ba3d 3b7b e8bd ef0f b03d
00000060: 1d6f c6bd 6e0a e8bc 2a01 1d3d 0a0e b8bd
00000070: 193c f93c c030 983d bd54 0bbd 2051 833d
00000080: e659 bc3d 4205 79bd ad35 dabc fd55 953d
00000090: 1d11 bbbd 1fa7 98bd 38ff d73c f8ec a8bc
000000a0: ab79 4bbc d719 283c 696f afbc 9a9f 9cbb
000000b0: 3fcb d5bd aa03 82bd 9223 4abd 0eeb 643c
000000c0: 50e7 af3c 4295 a1bc 622c 71bd 4690 763d
000000d0: 45c8 313c 770a 0cbd 155c 03bd bbc0 113d
000000e0: 405e 0a3d aa75 683c 0aef 0b3d 1e8a b6bc
000000f0: 48ec 72bd 0bf1 ce3b 2e45 3c3d 4cee f5bc
00000100: e072 89bd cbab fcbd cdb4 923d 8ef4 d1bd
00000110: aabc 95bd 3f9c 88bd ef46 8ebd f5ce 8c3c
00000120: c02a d23d 1593 ccbd c036 8f3d 1f7c 503d
00000130: bc44 0dbd 46ce 993d 7675 3f3d f694 98bd
00000140: 3834 89bc 6998 73bd ab60 19bd fc90 113d
00000150: a46c d2bd e77d 503d bbd7 793d 7531 cabc
00000160: 8072 56bd 88a9 963c 3fac 5f3d bcbe a5bd
00000170: 758d 65bd 5beb 5d39 f6ea 86bd f868 793d
00000180: 2f96 1ebd 49bf b7bd a413 ebbd 42a0 2bbc
00000190: fd7a ea3d 244f 94bd 0853 ffbb 2e41 93b9
000001a0: edc8 acbc 582c b03c 5943 d03c d688 e03d
000001b0: d5bd 533b d938 eabc 034b b4bd a289 593d
000001c0: feed 43bd 74ec 9dbd fd59 5d3d 6d48 9bbd
000001d0: 8077 0f3d 22c9 263d ba1f 7fbc c32f 143d
000001e0: 1adb d9bd b29b 35bc 56fe 43bb 1b37 7e3d
000001f0: 71dd 903d 9e34 fe3b b1de 78bd 8f9e 8dbd
00000200: 2893 943c f8a4 a8bc 0c1a bebc 0b32 e2bc
00000210: 8fbb 1f3c 0943 21bd 3ed7 823d ad44 ac3d
00000220: b9b3 9bbd 5249 ad3d c140 c6bb 5db3 e13c
00000230: a1ec 933d 6a1d ef3c fc6d 7ebd 528a 8a3d
00000240: 7d31 17bc fda9 08bd 361f a93d 4eb1 c23c
00000250: a35b b33d 3211 6d3c b93c 9abc b49c e63c
00000260: 92b1 9d3d 4f0f 64bd ed91 d43d fbb9 a13c
00000270: 4ba4 9c3d 3237 fcbc 07f8 2abd 9479 e239
00000280: 86df 64bb ebe2 75bc e330 86bd 9dc4 70bc
00000290: 9063 653d 0119 e43c 2956 b2bc 7618 2d3d
000002a0: 5305 b1bb 8dd4 5abb 7c3d 1cbd 535e 7a3d
000002b0: 3bba 933d badb 40bc 52b9 b6bc 2b79 873d
000002c0: c49c 873d c9c8 b8bd 4f51 95bd 1031 5ebd
000002d0: e353 a0bc 1566 263d f8b9 d73c 6881 963b
000002e0: acd9 2dbd 9242 b43d 8fcf 8f3d ea3d b5bd
000002f0: df29 9fbd 6958 62bd 8cbd 853c 38f8 9abd
00000300: 456c 453d 4186 123d 02cc 45bd 516a b4bd
00000310: a662 d9bd ab40 953d 291f fc3c 2b4c 9c3d
00000320: 605e 2cbd 8975 813d 5064 15bd 871d 5d3d
00000330: 0b06 5fbd e618 00bb bae6 e5bc 5c7b 80bd
00000340: eae8 c0bd 942b 4ebd 0e42 57b8 5e11 683c
00000350: 465b 7bbd 3592 033d 8ad5 403b 78fc d8bd
00000360: 3880 9abc a63a f8bc 8d6a bfbd 0307 2f3d
00000370: e473 013e fc36 e0bd ea6b e93b c2cf 1e3d
00000380: 438b 7cbd 1d55 33bc b6b4 663d 3992 1e3d
00000390: 8485 e43d db5d 41bd ef34 613d ae0e 58bd
000003a0: d45d 4e3c 8259 cfbd e741 8a3c 0c6a e33c
000003b0: 39d4 d5bd 9b3b f33d 9a16 babd 5676 3bbd
000003c0: 8ecc e53c 1d7d 1fbd 29a3 babd 7675 c1bd
000003d0: 6b75 053d 00d6 dfbd bcfb 603b 2961 8f3d
000003e0: 7580 dabc 3471 c03c b866 9a3c 127a 8fbd
000003f0: 145b 813d 9de9 7cbd 8082 b6bd a8f0 c13d
-0.040807877 -0.006011986 0.0043357452 -0.026450813 0.095781654 0.06236309 0.022462344 0.00071816996
-0.093204245 0.0394067 0.0097482735 -0.001680033 0.07861073 0.070515856 0.052281722 -0.042306457
-0.074992865 -0.049986918 -0.020370537 -0.07115596 0.010678845 0.09098987 -0.11351629 0.08596789
-0.09689162 -0.028325286 0.03833119 -0.08987053 0.030424165 0.07431173 -0.03401636 0.06411958
0.09196834 -0.06079603 -0.026636923 0.072917916 -0.091341235 -0.07453751 0.026366815 -0.020620808
-0.012419145 0.010260067 -0.02141543 -0.004779768 -0.10439157 -0.06348355 -0.04935033 0.013972057
0.021472603 -0.019724492 -0.058880217 0.060196184 0.010850971 -0.034189668 -0.03207024 0.035584193
0.03378129 0.01418821 0.034163512 -0.022282656 -0.059307367 0.0063153557 0.045964412 -0.030020855
-0.06711364 -0.123374544 0.07163391 -0.10251723 -0.073113754 -0.066704266 -0.06947123 0.017188529
0.1026206 -0.09988991 0.069928646 0.05089962 -0.03448938 0.07510047 0.04674288 -0.07450287
-0.016748533 -0.05947152 -0.037445705 0.03553866 -0.10274628 0.05090132 0.060996752 -0.024681786
-0.05235529 0.018391386 0.054607626 -0.0809302 -0.056043107 0.00021163879 -0.06587784 0.06089112
-0.038717445 -0.089720316 -0.114783555 -0.01047522 0.114492394 -0.072416574 -0.0077918805 -0.00028086588
-0.021091903 0.02150552 0.025422739 0.109635994 0.0032309194 -0.02859156 -0.0880337 0.053109773
-0.04783439 -0.077111155 0.054040898 -0.075821735 0.035026073 0.04071916 -0.015571529 0.03617836
-0.106374934 -0.011084484 -0.0029906235 0.06206427 0.070734866 0.0077577373 -0.06075925 -0.06915008
0.018136576 -0.020586476 -0.02320578 -0.027611753 0.009749307 -0.03937057 0.063887104 0.08411536
-0.07602639 0.0846125 -0.0060501997 0.027551347 0.07222868 0.02918883 -0.062116608 0.06764664
-0.0092281075 -0.03336524 0.08257906 0.023766186 0.08757713 0.014469432 -0.018827783 0.028150894
0.076998845 -0.055678662 0.10379396 0.019742003 0.07648524 -0.030788038 -0.041740444 0.00043196662
-0.003492327 -0.015007715 -0.06552293 -0.014695314 0.056003153 0.027843954 -0.0217696 0.042259656
-0.005402246 -0.003339085 -0.038144574 0.06112511 0.07213255 -0.011771137 -0.022305164 0.06614908
0.066216975 -0.09022672 -0.07290899 -0.05424601 -0.01957125 0.040624697 0.026333794 0.004593063
-0.042443916 0.0880176 0.070220105 -0.088497 -0.07771658 -0.055260096 0.016325735 -0.07566875
0.048198957 0.035772566 -0.04829026 -0.08809341 -0.10614519 0.07287725 0.030776577 0.076317154
-0.04208219 0.06321246 -0.03647262 0.053983238 -0.054449122 -0.001954609 -0.02806412 -0.06273529
-0.09419425 -0.050334528 -5.1321513e-05 0.014164297 -0.061366342 0.032121856 0.0029424154 -0.105950296
-0.018859968 -0.030301403 -0.09346495 0.042731296 0.12641865 -0.109479874 0.00712346 0.038772352
-0.061656248 -0.010945586 0.056324683 0.038713668 0.111582786 -0.04720865 0.054982122 -0.052748375
0.012595613 -0.10124494 0.016877128 0.027760528 -0.10440869 0.11876603 -0.09086342 -0.04576715
0.02805164 -0.038937677 -0.091131516 -0.09446232 0.03258268 -0.10929489 0.0034329733 0.07000954
-0.026672581 0.02349148 0.018847808 -0.07005705 0.063162 -0.06174623 -0.0891161 0.0946973

time_mlp.3.bias f4 [108]
00000000: ce73 27bd df3e 09bd a158 323c 49eb 0a3c
00000010: 8add 3fbd 8141 dbbd 2d1a b3bd eae4 43bc
00000020: 85e7 743d 37b4 8ebd fd03 253d 7da6 d4bd
00000030: 7ac8 ddbd 89e5 e7bd 6265 06bd a66a ccbd
00000040: 6777 3c3d b7bb 4c3d b51f c8bb 7501 403d
00000050: 2c2c 08be a8f3 1bbd 9c99 a23d 4a9b 0abd
00000060: d341 3bbc 9454 223e 52c3 f8bb 4257 43bd
00000070: ad85 86bc cbc9 513d a38b 78bd eb30 263d
00000080: 899d 8a3c e18a 7a3c 5054 84bd 7ad1 043e
00000090: 507c 113d 2c6f d63d 7e12 d2bd e2f0 efbd
000000a0: 5244 68bd a726 98bc 0d5a 6fbd 1dde 803d
000000b0: 7528 89bd d7b3 a7bd a31c 803d 7e59 023e
000000c0: cf0c b73d d7d1 da3d 106a 20bb d062 a8bd
000000d0: 436e c4bd ba25 e1bb e0b8 b7bd 52fb 7c3d
000000e0: 4423 61bd fd77 75bd 938c f33c 9ed7 ef3c
000000f0: 1ca0 ba3c 0388 ebbc dd49 803b d796 75bd
00000100: 5b5b a9bd b2e8 2fbd f995 063d beb6 743d
00000110: 4a5a b43d e42d 41bd fe5c 8d3d 561b afbd
00000120: 8e68 00bd eb77 d43d dfab 09be e9da 00bd
00000130: db62 d73c 6158 efbc dfc6 44bd e92b 463d
00000140: d2f0 c43c e6e5 273d 325e 44bd 3bc8 87bb
00000150: 2e0e b93c 429b 22bd 264b 15bd 699c 13bc
00000160: 615f b13c d59a 423d eb77 51bd 10f5 2e3d
00000170: b0af b2bb 5619 ee3d 049d 3f3b 14ea ac3d
00000180: 2d03 873d 1a2f 373d 9f8d 45bc c5e4 c3bc
00000190: 610b 583d 8f95 01bd 78f5 f53d a8e1 ea3c
000001a0: cc4a 9ebd e2e0 293d 30a2 e2bc 49cf 0fbe
-0.040881924 -0.033507224 0.010885389 0.008478948 -0.046842135 -0.10705853 -0.08745227 -0.011956433
0.059791107 -0.06967967 0.040287007 -0.103833176 -0.108292535 -0.11323077 -0.03281153 -0.09981279
0.04601231 0.049983706 -0.0061072954 0.04687639 -0.132981 -0.038074166 0.07939455 -0.0338395
-0.011429268 0.15852576 -0.0075916434 -0.047690637 -0.016421163 0.051217835 -0.060680043 0.040573996
0.016920822 0.0152919 -0.06461394 0.12970534 0.035518944 0.10470423 -0.10257433 -0.117158666
-0.05670578 -0.018573118 -0.05843549 0.06292365 -0.0669717 -0.081885986 0.06255462 0.12729451
0.0893799 0.10684555 -0.002447728 -0.08221972 -0.09591343 -0.0068709524 -0.08970809 0.061763115
-0.054965273 -0.059928883 0.029730117 0.029277619 0.022781424 -0.028751379 0.003915055 -0.059958305
-0.08269378 -0.042946525 0.03285787 0.05974459 0.08806284 -0.047162905 0.069025025 -0.08550136
-0.03134971 0.10374435 -0.1344447 -0.03145877 0.026292255 -0.029216947 -0.04804122 0.04838172
0.024040613 0.040990733 -0.047941394 -0.0041437424 0.02258977 -0.039698847 -0.03644862 -0.009009459
0.021651926 0.04751094 -0.051139753 0.04271418 -0.0054530725 0.11625926 0.0029237876 0.08443084
0.065924026 0.044722654 -0.012057691 -0.023912797 0.052745227 -0.03163677 0.1200971 0.028672054
-0.0772911 0.04147423 -0.027665228 -0.14043917

head.weight f4 [27, 128]
00000000: e928 4dbc 56ae e23d f943 6d39 fdab c3be
00000010: bce1 843e 2e32 a53d 9dcd a23d a01e c13d
00000020: ad2f ebbd 3a30 22bc faa4 ad3d 33f1 ee3c
00000030: 117f 5abd 6ec1 be3b b864 133e ecb4 5f3e
00000040: 0731 963e b367 153d 4077 083f 4428 263d
00000050: 778e 16bc 72d7 d23d 3432 b2bd 91d8 963d
00000060: 1a64 05be 51ce b9bc 36b4 303d b676 aabd
00000070: 177b 823e 27f5 3e3c b497 123c 338c ee3d
00000080: efb2 6fbe 5455 f9bd a86f 01bd 0271 0d3d
00000090: 6401 573c 2daa 6bbb 5820 483e ee91 0f3e
000000a0: a0f3 12be 168a 923b 128b 2f3e dce3 3fbe
000000b0: fb29 be3d 5ed9 8e3d 4c69 44bb ce92 0e3d
000000c0: 5596 8dbd 544a 9ebd f75c ecbd 118d 1cbd
000000d0: 85c1 e3bd 4694 363e eaec 5dbe 4599 103e
000000e0: 91d8 dbbc 0923 55bc 0e74 6ebe f99d 233b
000000f0: e06c b0bc f30a ec3d 3adb f2bd 6951 a7bd
00000100: d426 aa3c 029f a2be 0f7a 05be f9dd d03a
00000110: 3b7d 4c3c 5296 b9bd 1ec8 523d 7f4b 45bc
00000120: 160e f23c c41b bdbb 16ce 84be 2cdf 1fbe
00000130: df22 f33b e385 5b3e 1fa0 02be 98f3 8f3c
00000140: 89b5 823c 7673 a23d 9c9e f03d 1119 b2be
00000150: 2b93 d6bc ec64 1e3d a053 a03e 85fc 413d
00000160: 44dd 31bd a3f1 a1bd 59a1 a93e 4290 c5bd
00000170: 3bd3 113b aff2 433e 2c09 6fbd 09c2 a73e
00000180: 77a3 3dbd f429 943e 398b ce3c 5e97 56bd
00000190: 4eff c2be fab2 5cbe 7f1f 743d d3f6 9bb9
000001a0: 6703 04be e228 e63d 4e77 083d 7bd6 04bd
000001b0: b73a 02be ef0c babd 083a fcbd 2324 b9be
000001c0: b566 1bba c56e a5bd 4166 243e 2244 513e
000001d0: 3243 f33d 72bb 183e 2570 adbe fd78 33bd
000001e0: 2cb9 e9bd ccd6 e5bd c1df 21bd 1501 79bc
000001f0: cf87 44bc dd63 1e3e e89a 913c 137a 973d
00000200: 8bd1 2d3d 845d cb3d 879d 63bd 1499 82be
00000210: 8280 e2bd 056f 86bd 5c7e 713d dce4 cabd
00000220: 1268 b4be fce6 01be a8ce 663d 61a9 9abd
00000230: 4a9f b93d 33e7 25be 369b 58bd 0e63 92be
00000240: 52cf 2bbd bec6 1cbe 6cae 293e 706a 2dbc
00000250: 4b59 3cbe d977 cdbc 8b17 4cbc 8092 e93d
00000260: 1bc4 133e 4624 e4bd 3840 7ebc 08dc 52bd
00000270: e774 26bd f398 11bd fc5c fa3d 47e9 4a3e
00000280: c292 1d3e c4ad 813e c347 0bbe f514 f9bd
00000290: b49c 033e a080 41bd 1685 463e dfb6 343e
000002a0: 389b 33be 7dfb 6bbd d8b4 9fbc e72c 39be
000002b0: 0206 7ebd 130b 7f3d 2c62 6fbd 3792 9a3e
000002c0: fcf9 823e db6e 273d ed2e eebc 5b3e 773c
000002d0: 896a 0f3e c52a d9bd 98a8 cc3e 995a e4be
000002e0: 666f 163e 92c1 9abd e011 f2bc e4f8 4ebe
000002f0: caf6 4fbe a843 ee3e 574b 453e 9f92 323e
00000300: 072a 95bd 78d8 db3c 84a0 84bd 573c 3dbe
00000310: 141c 6dbd 6cb9 bd3d e1f8 ddbd 7554 af3d
00000320: 50a7 553e 153b b13e e704 1c3e 5af5 143e
00000330: 8458 52bb fd28 8f3e e344 893e 5080 2bbe
00000340: cae3 d43d 0a3e 543d f883 ba3d 22ec a0be
00000350: 7317 c5bd 76f5 003d cda6 553e 8339 acbe
00000360: b2a7 25bb 3898 293c 54a0 e4bc b253 ab3d
00000370: 61e2 a4bd 37f4 1c3e c6ad 8e3c 8874 05be
00000380: 2692 04be 263d 4ebe 651e fcbc 52e9 82bc
00000390: f34b 373d 42ba c7bd 67e3 fdbd dc97 90bc
000003a0: da68 03be 6343 3b3e 68d6 b63d 2664 653d
000003b0: bc9c 743e 5194 c8bd a22c 05bf 524c 43bd
000003c0: d6d9 123e d85c bb3e 63ef 983d 35a1 003c
000003d0: 4f5c 18bd 79fa c9bd c832 5dbe d6b2 06bc
000003e0: 0279 303e 7842 c43d dc7f 87bc c184 183a
000003f0: f37a cebc dfe0 9f3d 568b e23d e2d2 34bd
-0.012521961 0.11068408 0.00022627403 -0.38217154 0.25953472 0.08066212 0.07949374 0.094296694
-0.11483703 -0.009899193 0.084787324 0.029167747 -0.053343836 0.0058213985 0.1439389 0.2184636
0.2933428 0.03647585 0.5330696 0.040565744 -0.00918924 0.10294999 -0.08700982 0.073655255
-0.13026467 -0.022681387 0.043140613 -0.083234236 0.25484535 0.011655129 0.008947302 0.11647835
-0.23408101 -0.12174478 -0.031600624 0.0345316 0.01312289 -0.0035959587 0.19543588 0.14020512
-0.14350748 0.0044720275 0.17142895 -0.18739265 0.09285351 0.06975053 -0.0029969988 0.034807973
-0.06913439 -0.07729021 -0.11541169 -0.03822047 -0.11120895 0.1783 -0.21672407 0.14120968
-0.026836665 -0.013008841 -0.23286459 0.0024965985 -0.02153629 0.11525526 -0.118582204 -0.08169825
0.020770468 -0.31761938 -0.13034843 0.0015935294 0.012481029 -0.090618744 0.051460378 -0.012041925
0.029547732 -0.005771132 -0.2593848 -0.15612477 0.0074199284 0.21437792 -0.12756394 0.01757221
0.015955703 0.07932179 0.11749002 -0.3478475 -0.026193222 0.038670465 0.313138 0.047359962
-0.043423906 -0.07907417 0.3313091 -0.096466556 0.0022251147 0.19135545 -0.058358356 0.32765225
-0.04629847 0.28938258 0.02521287 -0.05239045 -0.38085407 -0.21552649 0.05960035 -0.00029747802
-0.12891923 0.112382665 0.033316903 -0.032431107 -0.1271771 -0.09084498 -0.12315756 -0.36160383
-0.00059280853 -0.08077768 0.16054632 0.20436147 0.11878051 0.14915255 -0.33874622 -0.043816555
-0.11412272 -0.1122261 -0.03952003 -0.015198012 -0.01199527 0.15467782 0.01777406 0.07396331
0.042436164 0.09929946 -0.05557015 -0.25507414 -0.11059667 -0.06564144 0.058958396 -0.09906933
-0.3523565 -0.1268577 0.056349427 -0.07551838 0.09063585 -0.16201477 -0.052882396 -0.28591198
-0.041945763 -0.15310189 0.16570443 -0.010584459 -0.18393438 -0.025081562 -0.012456785 0.11404896
0.14430277 -0.11139731 -0.015518241 -0.05147937 -0.04063883 -0.035546254 0.122247666 0.1981555
0.15388015 0.25327885 -0.13601594 -0.121622 0.12852746 -0.047241807 0.19386706 0.17647885
-0.1753968 -0.057612885 -0.019495413 -0.18083535 -0.06201745 0.06226642 -0.058443233 0.30189678
0.25581348 0.040877204 -0.02907511 0.01509055 0.14005484 -0.10603861 0.39972377 -0.4460037
0.14690933 -0.07556452 -0.02954954 -0.20212132 -0.20308986 0.46535993 0.19267021 0.17438744
-0.07283407 0.026836619 -0.064759284 -0.18480049 -0.057888106 0.09263882 -0.108384855 0.08561031
0.20864606 0.3461539 0.15236245 0.14546719 -0.0032096216 0.2796096 0.2681037 -0.16748166
0.1039501 0.051816978 0.09107202 -0.31430155 -0.09623613 0.03148409 0.2086441 -0.33637628
-0.0025276956 0.010351233 -0.027908482 0.08365573 -0.08050991 0.15327536 0.017416846 -0.13032734
-0.12946376 -0.20140514 -0.030776212 -0.015980396 0.044750165 -0.09752323 -0.12396889 -0.017650537
-0.12832966 0.18287425 0.089276135 0.056003712 0.23887914 -0.09793914 -0.5202123 -0.047680207
0.1434091 0.36594272 0.074675344 0.007850935 -0.037197407 -0.09862227 -0.21601403 -0.008221349
0.17233661 0.095829904 -0.01654046 0.0005818122 -0.025205111 0.07806563 0.110617325 -0.044146426

head.bias f4 [27]
00000000: 1324 01bd 2106 40bb cd48 3f3c a34c 98bd
00000010: 2d3c 7e3d c5be 35bd 5a40 4ebd 6e34 1f3d
00000020: 7483 9bbc 61c6 8cbd 1bd5 213d 1662 313d
00000030: 36f4 9fbd 309f 9cba e985 c6bd 4106 89bd
00000040: e6e1 ccbb 840d 993d d278 723d bfb3 693b
00000050: 88f2 12bd 84ec 68bd 812e e1bd 37fa b6bc
00000060: da43 0cbd 9eb3 1f3d 0567 b83c
-0.031528544 -0.0029300528 0.011675072 -0.07436492 0.062069107 -0.044371385 -0.05035434 0.03886836
-0.01898358 -0.06873775 0.039509874 0.043306433 -0.078102514 -0.0011949297 -0.0969351 -0.06690646
-0.006252515 0.07473281 0.059197254 0.0035660116 -0.035875827 -0.056866184 -0.10995198 -0.022336109
-0.034244396 0.038989656 0.022510061

exp_avg f4 [108, 27]
00000000: fe59 48b8 f976 bfb7 414d 73b8 7fd4 0ab7
00000010: 20e7 3738 5ae5 94b8 bd1d 0d35 6125 3ab8
00000020: 8087 5cb8 bbe5 04b8 8ca8 82b7 c59c f5b6
00000030: e59d 64b6 f6dc 4038 530e 8838 30da a5b7
00000040: 5c5a 2437 4edc 09b8 bfc9 16b8 59b5 1537
00000050: ca43 98b7 a42a 79b8 5ad7 b4b8 3f42 c4b8
00000060: 74c1 c7b8 7684 c8b8 0000 0000 8f49 1438
00000070: ad18 d537 9ae0 a4b7 a16d 7438 0e00 a7b8
00000080: 95bb dbb8 f415 8b38 0c35 1439 d986 3d38
00000090: 106d 7437 a8a4 c836 8ec8 3436 18b8 a635
000000a0: f88b ebb8 b8ad ea37 d0f1 d3b8 2a7f dab8
000000b0: a523 dbb7 6328 74b6 5615 95b8 36d3 ad38
000000c0: fc30 0939 7731 0039 9320 f938 9a62 f738
000000d0: 5b00 f738 0000 0000 32f6 2db6 e370 b0b8
000000e0: 5c6c 9cb8 f6ac ba36 7aa3 36b7 c93c 2937
000000f0: 8903 6b36 d493 81b7 d710 7638 9548 1d38
00000100: 7e57 9b37 a41a 1237 0a03 8836 62ac 50b7
00000110: 657a 9ab8 c653 6d38 5a0f 5f35 ccb2 20b7
00000120: bf23 7c38 0998 2638 373c b2b8 49d7 57b7
00000130: 8cb4 f937 450c 2a38 651b 3438 054a 3638
00000140: 0000 0000 fe0e 0db7 d322 2337 cf19 8cb6
00000150: b051 f8b7 b6ff 03b8 b591 d6b7 a939 adb6
00000160: 4c13 de37 2466 56b7 38a2 62b7 6c83 f1b6
00000170: 37b2 66b6 5d78 d7b5 d591 fa37 1250 5a38
00000180: dd34 1c37 fd1f d9b5 3555 95b7 3a4d beb6
00000190: 7967 bb37 d2f9 d936 8c83 7c37 8945 80b6
000001a0: 7d93 23b7 76a8 3ab7 cbb5 3fb7 0000 0000
000001b0: 3f0d f937 f075 1338 f298 d837 b37e 30b8
000001c0: 8951 c036 4cdf 3438 574b 5737 a952 6636
000001d0: b36a 5437 c667 f536 8ddd 6d36 64d7 de35
000001e0: 1046 4f35 25bd a7b7 f52a 05b7 5062 fc37
000001f0: 16c1 f4b6 940b 3238 a1c2 08b7 ff6e af37
00000200: 2b0c 59b7 474f 7f36 3df3 3737 b0c5 5437
00000210: 491e 5b37 f57d 5c37 0000 0000 5885 46b7
00000220: 64ec 7038 eb0e e7b6 7bd8 8338 9609 ab38
00000230: a32d fa37 75af b2b8 1a8e 7337 ca13 3a38
00000240: 48f7 dd37 e4e7 5837 db92 cb36 246d 3d36
00000250: 9ba6 ceb4 e028 6638 8216 8237 8ded 86b8
00000260: 2d4f 8438 1d37 9bb8 4ab2 2f37 70ac 73b8
00000270: 8c5c fa35 5fc1 f137 c519 1538 fa5f 1b38
00000280: 5ebc 1c38 0000 0000 7fd5 2038 27e2 1437
00000290: b9a6 03b8 52f0 3fb7 142e b437 0e87 6b38
000002a0: f7f5 85b6 fe7b 69b8 592e b237 1a63 d437
000002b0: 9f50 6537 829a db36 5e38 4d36 ae8c 06b8
000002c0: e7ab d4b7 75e7 0cb6 d62a 0a38 30d5 9437
000002d0: 4d4e 2037 0441 14b8 18d7 2033 015f cab7
000002e0: 6e41 5337 b4ef cc37 ad18 e437 a32b e937
000002f0: 0000 0000 6bf4 aab8 5b46 e4b7 d14e edb7
00000300: 2604 4038 6594 afb7 3d71 8735 ed60 7237
00000310: 83d1 b2b8 77d2 88b8 8e23 11b8 17fc 8ab7
00000320: 29e7 01b7 9b89 71b6 0ecd 2638 999b e735
00000330: 0c62 acb7 badb ef37 55e2 4c37 6d05 6e37
00000340: 0349 4eb8 8b49 22b7 5258 a9b8 81a4 dab8
00000350: 58e5 e6b8 2ca0 e9b8 d937 eab8 0000 0000
00000360: 3dfd 10b9 ac90 f8b8 fb60 cab7 468e 7039
00000370: a9a5 8338 67e4 9d37 a543 b937 d045 4fb8
00000380: c689 1238 6956 0e38 d44b 9637 754f 0f37
00000390: 4ccd 8536 3821 a738 7d75 9f38 bebb 1fb8
000003a0: 477e 4fb8 a54c be37 16ee 9e38 90b6 8bb8
000003b0: 7375 3038 2106 a937 7603 8738 421e a438
000003c0: 06df aa38 5d59 ac38 0000 0000 e9b6 0538
000003d0: 50eb b7b4 ae21 16b8 3ba2 0937 9a4a 08b8
000003e0: 43e4 a1b8 9e99 acb8 83ac 1b37 b8af 32b7
000003f0: 6020 34b7 1492 bfb6 7af1 36b6 57dc aab5
-4.7767528e-05 -2.2824375e-05 -5.8007663e-05 -8.274917e-06 4.3845852e-05 -7.09991e-05 5.256987e-07 -4.4380668e-05
-5.257828e-05 -3.1685206e-05 -1.5575693e-05 -7.3198194e-06 -3.4066554e-06 4.5982153e-05 6.4876534e-05 -1.9771134e-05
9.7962e-06 -3.286852e-05 -3.5950678e-05 8.923315e-06 -1.8151379e-05 -5.940594e-05 -8.623181e-05 -9.3583476e-05
-9.525093e-05 -9.561416e-05 0.0 3.5354456e-05 2.540307e-05 -1.9654912e-05 5.8276233e-05 -7.963191e-05
-0.00010477674 6.6321256e-05 0.00014134141 4.5186698e-05 1.4568926e-05 5.979633e-06 2.6938828e-06 1.2421542e-06
-0.000112317444 2.7975868e-05 -0.00010106305 -0.00010418736 -2.6123433e-05 -3.6382341e-06 -7.108848e-05 8.288624e-05
0.00013083586 0.00012225458 0.00011879313 0.00011796244 0.00011777944 0.0 -2.5922313e-06 -8.413361e-05
-7.458843e-05 5.5633673e-06 -1.0886108e-05 1.0087338e-05 3.5019787e-06 -1.5446836e-05 5.8666654e-05 3.7499314e-05
1.8518182e-05 8.708481e-06 4.0534696e-06 -1.2437902e-05 -7.36609e-05 5.6583223e-05 8.3096313e-07 -9.578373e-06
6.0114773e-05 3.9719078e-05 -8.498917e-05 -1.2865124e-05 2.9767187e-05 4.0542585e-05 4.2940857e-05 4.3461117e-05
0.0 -8.407746e-06 9.723665e-06 -4.1753297e-06 -2.9601943e-05 -3.1470983e-05 -2.5578638e-05 -5.1625143e-06
2.6473448e-05 -1.2779175e-05 -1.3508419e-05 -7.197659e-06 -3.4376405e-06 -1.6053779e-06 2.987023e-05 5.204982e-05
9.310633e-06 -1.617707e-06 -1.7801862e-05 -5.6714316e-06 2.234032e-05 6.496187e-06 1.5050999e-05 -3.822792e-06
-9.749897e-06 -1.1125687e-05 -1.1426814e-05 0.0 2.9689281e-05 3.515737e-05 2.5820427e-05 -4.2079668e-05
5.731538e-06 4.3123306e-05 1.283254e-05 3.4320785e-06 1.26610275e-05 7.31365e-06 3.5444712e-06 1.6602976e-06
7.7215464e-07 -1.9996029e-05 -7.9374195e-06 3.0086521e-05 -7.294245e-06 4.244929e-05 -8.151547e-06 2.0913312e-05
-1.2937041e-05 3.8044107e-06 1.0964283e-05 1.2682212e-05 1.30604685e-05 1.31423485e-05 0.0 -1.1832766e-05
5.7440615e-05 -6.886073e-06 6.2868894e-05 8.155701e-05 2.9823574e-05 -8.520383e-05 1.4517014e-05 4.4364286e-05
2.6460402e-05 1.29285945e-05 6.0669677e-06 2.8226723e-06 -3.8491712e-07 5.487434e-05 1.5507689e-05 -6.433865e-05
6.308998e-05 -7.4012416e-05 1.0472324e-05 -5.809631e-05 1.8653386e-06 2.8819484e-05 3.5548368e-05 3.7044265e-05
3.736873e-05 0.0 3.8345806e-05 8.874143e-06 -3.1388106e-05 -1.1440441e-05 2.1479129e-05 5.6154146e-05
-3.992343e-06 -5.5667006e-05 2.1240836e-05 2.5318517e-05 1.3668235e-05 6.5446957e-06 3.058019e-06 -3.2079108e-05
-2.5352418e-05 -2.0996351e-06 3.2941658e-05 1.7742248e-05 9.554974e-06 -3.53465e-05 3.744853e-08 -2.4124516e-05
1.2591814e-05 2.4430316e-05 2.7191209e-05 2.7796084e-05 0.0 -8.151758e-05 -2.721248e-05 -2.8289303e-05
4.578023e-05 -2.0930727e-05 1.009124e-06 1.4446891e-05 -8.526726e-05 -6.5241875e-05 -3.4603807e-05 -1.656827e-05
-7.74282e-06 -3.5991895e-06 3.9768456e-05 1.7256126e-06 -2.0549654e-05 2.8593338e-05 1.2212045e-05 1.4187169e-05
-4.9182225e-05 -9.6730755e-06 -8.074999e-05 -0.00010425691 -0.00011009973 -0.0001114014 -0.00011168392 0.0
-0.00013827249 -0.00011852509 -2.4125437e-05 0.00022941185 6.2774234e-05 1.8822217e-05 2.2085218e-05 -4.9417664e-05
3.4937424e-05 3.3935914e-05 1.7916704e-05 8.541964e-06 3.9876086e-06 7.969368e-05 7.603595e-05 -3.8083403e-05
-4.947025e-05 2.2685455e-05 7.578374e-05 -6.6620414e-05 4.2071053e-05 2.0149224e-05 6.437946e-05 7.825765e-05
8.147773e-05 8.218244e-05 0.0 3.188002e-05 -3.425762e-07 -3.5794154e-05 8.203609e-06 -3.2494405e-05
-7.719595e-05 -8.2302126e-05 9.278886e-06 -1.06505395e-05 -1.0736374e-05 -5.7092493e-06 -2.7260671e-06 -1.2730114e-06

exp_avg_sq f4 [108, 27]
00000000: 825b 2932 3256 3732 0e82 2f32 738e 2432
00000010: 5599 1532 52ff 3032 41b6 2d32 2a00 2c32
00000020: 1c73 4a32 19e8 ae31 2f23 af30 11e0 9b2f
00000030: db43 872e 7dc4 2c32 3f09 3232 1c69 2532
00000040: e42e 2d32 a41c 2b32 6398 2b32 a75c 2432
00000050: 3a92 3f32 c654 4d32 5717 a932 9e13 cc32
00000060: 9013 d532 e916 d732 0000 0000 16dc 0b33
00000070: 8338 0133 e2f7 0433 1f2d f032 300a ff32
00000080: 4466 0333 c49a 0e33 ccab 2733 7f1d 3833
00000090: e9a0 9032 a276 8e31 42be 7c30 3f2b 5b2f
000000a0: 43df 0233 d4c6 f632 7228 0333 c8e5 0b33
000000b0: 1610 0633 d0f6 fd32 1c78 0633 375b e832
000000c0: 2405 fe32 7bc1 7933 5e7b 9933 f2b5 a033
000000d0: 8052 a233 0000 0000 dc43 bb32 ebf1 c132
000000e0: 56db b832 649a bc32 0bcf cf32 b73c cb32
000000f0: d486 af32 29d9 b432 91de 5633 ea7a c632
00000100: 5753 c831 1a8f b230 6bff 9a2f bbb0 d432
00000110: 4c8a af32 dd1e df32 9fa9 be32 6654 ad32
00000120: 0abf a232 834f d332 32a0 1033 a269 3932
00000130: 747a 2833 ba19 7433 2fef 8333 e626 8633
00000140: 0000 0000 a0bd 9331 2936 9a31 17ed 8031
00000150: 5f39 9d31 4d26 9331 019f 4d31 6005 b831
00000160: 71c2 5031 0d3a fa31 ad36 8231 50da 8530
00000170: 9a7f 6f2f 260f 502e a7bf 8331 7fb2 9631
00000180: 7935 a031 0312 7731 3be9 8131 c15e b431
00000190: bd2e 6031 051a b731 1e78 d130 9e1a b231
000001a0: 0d19 0a32 f63b 1732 0332 1a32 0000 0000
000001b0: c181 8531 3737 8231 4d79 7631 c293 8131
000001c0: 9540 6631 8e96 5c31 e7f1 a231 9c04 4731
000001d0: c9d4 bb31 76e8 1631 6d3c 1430 7460 032f
000001e0: c2cd e32d 39d8 6731 001a 6131 4d17 8231
000001f0: d472 7d31 86fd 7f31 d072 8f31 70dc 1831
00000200: c4a1 9131 d9b1 3a31 ee40 da31 7414 0b32
00000210: b69e 1232 814c 1432 0000 0000 b3f1 c332
00000220: 2fe7 de32 f64f b832 7999 cc32 1dce d932
00000230: 3373 b632 ea33 cc32 282e c632 f9a6 3e33
00000240: cdf8 a232 1677 a231 8d73 9030 0fa6 7a2f
00000250: 2e67 bf32 a1a4 b732 7a6f c432 14e7 b832
00000260: e597 b832 5a17 ca32 d82e c832 2986 0133
00000270: fb55 9632 dff6 4333 daec 8133 731e 8a33
00000280: 50f3 8b33 0000 0000 3c67 0032 e1a8 1532
00000290: 254e 1232 deaf 1332 52c2 1132 7502 1f32
000002a0: 9f53 c131 573a 4332 3f2f 6c32 414f 0b32
000002b0: 80da 1231 9b13 0430 aabc e52e 881d 1a32
000002c0: 04af 1a32 d99d 0e32 bdc5 0832 1715 ec31
000002d0: 28c7 fa31 f588 4c32 d01b da31 eaf9 c531
000002e0: 7b92 4e32 b7d8 9b32 5c5a aa32 98a4 ad32
000002f0: 0000 0000 bd8d 2733 3b11 2f33 51c8 3033
00000300: 46aa 2b33 ca9c 2033 e481 2433 05ea 2033
00000310: 91d3 3433 d3a8 8733 d6d5 f832 9e8d fb31
00000320: 8151 e030 fcbc c22f c8bc 1c33 2338 3833
00000330: 781c 3433 523f 2933 7ad5 1e33 3d2a 1a33
00000340: 8f6c 2133 91f2 2633 1562 0433 12ce 9333
00000350: 6a22 c433 91c0 d033 3995 d333 0000 0000
00000360: b646 6f33 debb 8533 c47a 7933 de3b 8033
00000370: 702d 6933 8da5 6733 5f46 6b33 e689 7633
00000380: d4de ab33 ed57 1233 dbf8 1132 dace 0131
00000390: 723f e12f 5a5a 5533 19b6 6833 c8f4 6633
000003a0: 4ca3 6b33 08f3 7733 639f 5e33 29d3 6b33
000003b0: f211 8f33 0d6e 5c33 26a0 d633 8679 0734
000003c0: 7fb9 0e34 b758 1034 0000 0000 6e7a 0d32
000003d0: 447b 1c32 fb73 1032 24ae 0432 aab3 0132
000003e0: 96c7 2832 c9c4 1c32 7374 0332 5f60 6e32
000003f0: 46c5 eb31 0d8d f030 6ee1 d62f e69c ba2e
9.857901e-09 1.06716005e-08 1.0215912e-08 9.578446e-09 8.707805e-09 1.0302601e-08 1.0111365e-08 1.0011755e-08
1.178412e-08 5.090453e-09 1.2742926e-09 2.8353545e-10 6.151143e-11 1.0056394e-08 1.0363066e-08 9.628163e-09
1.0080587e-08 9.960022e-09 9.988159e-09 9.567123e-09 1.1150911e-08 1.1951846e-08 1.9684803e-08 2.3757647e-08
2.480536e-08 2.5039713e-08 0.0 3.2563626e-08 3.008655e-08 3.0959093e-08 2.7960196e-08 2.969054e-08
3.0593824e-08 3.320271e-08 3.9038966e-08 4.2867665e-08 1.683698e-08 4.146231e-09 9.194744e-10 1.9933298e-10
3.047104e-08 2.8728586e-08 3.05376e-08 3.2572444e-08 3.1213936e-08 2.9565314e-08 3.1308545e-08 2.7049834e-08
2.957183e-08 5.81508e-08 7.147058e-08 7.483676e-08 7.5587195e-08 0.0 2.1800524e-08 2.2578169e-08
2.1520162e-08 2.195629e-08 2.4192124e-08 2.365992e-08 2.0433994e-08 2.1053511e-08 5.002818e-08 2.3106129e-08
5.8302407e-09 1.2991876e-09 2.8193922e-10 2.4760416e-08 2.0435571e-08 2.5974652e-08 2.2196046e-08 2.017823e-08
1.8946157e-08 2.459979e-08 3.367331e-08 1.0792435e-08 3.922692e-08 5.6834075e-08 6.14367e-08 6.246937e-08
0.0 4.299821e-09 4.488147e-09 3.7522443e-09 4.5758237e-09 4.2826174e-09 2.992181e-09 5.355716e-09
3.037851e-09 7.2825572e-09 3.789714e-09 9.739072e-10 2.1782257e-10 4.730718e-11 3.83439e-09 4.3858672e-09
4.662692e-09 3.595347e-09 3.7809094e-09 5.2494618e-09 3.2622858e-09 5.328959e-09 1.5240891e-09 5.183508e-09
8.038353e-09 8.80299e-09 8.975351e-09 0.0 3.8855608e-09 3.789775e-09 3.5866663e-09 3.7711922e-09
3.3506116e-09 3.2099794e-09 4.7423216e-09 2.8960931e-09 5.466607e-09 2.1960012e-09 5.3927957e-10 1.1948648e-10
2.5898287e-11 3.3737833e-09 3.2756589e-09 3.786147e-09 3.6881618e-09 3.7251495e-09 4.1749004e-09 2.2244215e-09
4.238446e-09 2.7167657e-09 6.3520167e-09 8.095515e-09 8.534405e-09 8.632129e-09 0.0 2.28109e-08
2.5949332e-08 2.1456781e-08 2.3818517e-08 2.5355854e-08 2.1239975e-08 2.3772333e-08 2.3071223e-08 4.4389683e-08
1.8972424e-08 4.728359e-09 1.051022e-09 2.2796363e-10 2.2282247e-08 2.1378868e-08 2.2868097e-08 2.1525501e-08
2.1489493e-08 2.3526514e-08 2.3304366e-08 3.015717e-08 1.7501398e-08 4.5626503e-08 6.050114e-08 6.4316644e-08
6.51695e-08 0.0 7.474053e-09 8.71134e-09 8.5160865e-09 8.596514e-09 8.484294e-09 9.255577e-09
5.626546e-09 1.1363759e-08 1.37477505e-08 8.108885e-09 2.137e-09 4.804918e-10 1.0447228e-10 8.970694e-09
9.003774e-09 8.301378e-09 7.961202e-09 6.8709016e-09 7.298599e-09 1.1905503e-08 6.347797e-09 5.7618665e-09
1.2024084e-08 1.8142925e-08 1.9831695e-08 2.02147e-08 0.0 3.9011628e-08 4.0761034e-08 4.116038e-08
3.9968903e-08 3.7395502e-08 3.830236e-08 3.7465743e-08 4.2101934e-08 6.317136e-08 2.8968241e-08 7.3211615e-09
1.632131e-09 3.5422676e-10 3.6493276e-08 4.2891894e-08 4.1935408e-08 3.940597e-08 3.6981397e-08 3.5894335e-08
3.7584467e-08 3.88705e-08 3.082285e-08 6.882705e-08 9.133221e-08 9.7207824e-08 9.8525966e-08 0.0
5.5710835e-08 6.227468e-08 5.8086485e-08 5.971354e-08 5.4290865e-08 5.3934446e-08 5.4779203e-08 5.7401756e-08
8.00334e-08 3.4073242e-08 8.496694e-09 1.8889552e-09 4.0972342e-10 4.96751e-08 5.4182326e-08 5.3773675e-08
5.486372e-08 5.7730205e-08 5.1833364e-08 5.490725e-08 6.6622206e-08 5.1322832e-08 9.9942824e-08 1.2617065e-07
1.3292264e-07 1.344332e-07 0.0 8.2351175e-09 9.1084225e-09 8.408274e-09 7.723006e-09 7.549639e-09
9.824268e-09 9.125139e-09 7.651681e-09 1.38753355e-08 6.8618276e-09 1.7502387e-09 3.908655e-10 8.4861715e-11

exp_avg f4 [108]
00000000: 25ba c8b8 3be5 f638 a8e3 3638 361a 41b7
00000010: 99de 5c37 2b1c 1d38 b291 ea37 9461 eab8
00000020: a1c1 ac38 cee7 5cb8 a126 1c38 7c4f 4ab8
00000030: 2a02 8638 ac8e 8d38 6671 4f38 803c d438
00000040: 4cbf cfb8 35fb 35b9 b3b5 9c37 1332 7637
00000050: ab1a 0538 7e3e ef37 77e8 72b8 c7a7 5138
00000060: 9e7d 5db8 b66c 0238 b897 5ab9 8a83 2138
00000070: e097 7438 bf1d ddb8 c222 19b8 be58 17b8
00000080: 025d c2b7 2ca1 b638 0867 55b8 ed7a 1a37
00000090: 649e 8b38 2479 a0b8 7c5d 7eb9 1d85 24b6
000000a0: fb8f a7b8 7521 00b7 138a d037 7211 8eb6
000000b0: 998a 0db8 60c6 f837 a9d0 32b8 7492 80b8
000000c0: 27ba 9937 ec1e ae38 c4a5 5138 c562 7138
000000d0: 42a1 43b9 0c39 2b39 7379 ca36 bc9e d937
000000e0: 72a9 8638 ced5 eeb7 48fb a138 ae72 9036
000000f0: 0bb6 2a36 f24e 9538 3633 0238 6452 04b8
00000100: e067 1839 761d 8f38 ab19 b2b8 0f79 59b8
00000110: f66e 9db8 e7f1 b7b6 9a1c 6d38 3449 1837
00000120: 3cf0 5c37 3ab3 14b9 475a 3637 c238 8eb8
00000130: 5364 48b8 93cf 82b8 7a1c ab36 75a3 15b7
00000140: 26cf ad35 fc2d 9a36 82f7 d637 1da6 2339
00000150: 8cff 0ab8 3806 3638 c958 7e36 0b71 75b8
00000160: fb15 e6b7 dc29 e0b4 368d 37b8 ccbf 05b8
00000170: 1fe6 d9b8 900b 4238 45f6 31b7 859e f435
00000180: 8183 bf38 3a23 de38 62fb 2f39 23c3 7237
00000190: c728 3936 dba8 ea38 cbcb 1f38 d9cb ac38
000001a0: 05db 6b37 d5bf 1937 6475 d9b7 14ed 43b8
-9.571415e-05 0.000117728916 4.3604203e-05 -1.1509799e-05 1.3164849e-05 3.745795e-05 2.7962818e-05 -0.00011176165
8.237665e-05 -5.2667972e-05 3.7229274e-05 -4.823458e-05 6.390021e-05 6.749979e-05 4.9458256e-05 0.00010120217
-9.906161e-05 -0.00017355087 1.868126e-05 1.4674401e-05 3.1734508e-05 2.852012e-05 -5.7913796e-05 4.9985738e-05
-5.2807496e-05 3.109566e-05 -0.0002084662 3.8507897e-05 5.8315578e-05 -0.00010543642 -3.6510413e-05 -3.6083853e-05
-2.3169912e-05 8.708457e-05 -5.0879113e-05 9.207736e-06 6.657539e-05 -7.651959e-05 -0.00024258153 -2.4515386e-06
-7.989999e-05 -7.637184e-06 2.4859828e-05 -4.2339607e-06 -3.37461e-05 2.965628e-05 -4.2632837e-05 -6.130795e-05
1.8325705e-05 8.302726e-05 4.9983864e-05 5.7550864e-05 -0.00018656722 0.00016329082 6.0342077e-06 2.5942332e-05
6.4211796e-05 -2.8471371e-05 7.723883e-05 4.304885e-06 2.5437937e-06 7.1195784e-05 3.104211e-05 -3.1547985e-05
0.00014534546 6.824259e-05 -8.4924824e-05 -5.1849576e-05 -7.5070115e-05 -5.481986e-06 5.653184e-05 9.07695e-06
1.3168956e-05 -0.00014181147 1.0869065e-05 -6.7816596e-05 -4.777715e-05 -6.237547e-05 5.0995122e-06 -8.91915e-06
1.2949793e-06 4.594911e-06 2.5626043e-05 0.00015606773 -3.313976e-05 4.3397973e-05 3.790063e-06 -5.851783e-05
-2.7428372e-05 -4.1753708e-07 -4.3762113e-05 -3.1888296e-05 -0.0001039023 4.6263973e-05 -1.0607361e-05 1.8225552e-06
9.132084e-05 0.000105923464 0.00016782948 1.4469758e-05 2.7590884e-06 0.00011189441 3.809835e-05 8.239569e-05
1.4058086e-05 9.164175e-06 -2.592308e-05 -4.671242e-05

exp_avg_sq f4 [108]
00000000: a7a5 d732 a3c4 a233 39c4 8633 5804 1b32
00000010: 65c3 1432 3175 8c33 8a8e ae32 105e d433
00000020: b2cb 1034 343a b732 ba3c 9132 b7da 3433
00000030: c0fc d632 ae33 0632 9284 ea32 0e2f cd33
00000040: 44c3 5534 6137 1334 9be0 1e32 9ac7 cd32
00000050: 8dcd 3d33 dafc e131 bc16 4534 0983 c331
00000060: 763f dd33 4a74 4a33 5da0 2a34 5a9d b134
00000070: 2979 8832 d84d 4c34 6e8e 2433 749b 4232
00000080: b7bb 1532 cdcb 3134 89e0 1a33 ed3f 9533
00000090: 0ed4 ef32 4ba2 c732 290e 0d34 b212 0932
000000a0: 4a46 3f33 8080 ac31 694e 9932 b860 2c33
000000b0: b016 4d34 9595 8134 3c7b b932 06ec 3b34
000000c0: cdf4 1631 1511 fc31 3703 6932 2256 0133
000000d0: e282 5334 864b 1e34 9e3b 1031 a616 5e32
000000e0: 6352 cc32 ba44 eb31 a03a 3833 5295 b431
000000f0: 2a0a 1b32 5366 9a33 1184 0e34 aa96 4333
00000100: 55cd 9634 71f6 0c34 cfb6 d233 3a2b 1234
00000110: d4b3 5a33 cc03 2a33 2474 b032 ef71 0433
00000120: 4d62 7431 697c 7a34 0681 7f32 360e 2033
00000130: 6cff 7332 a633 9a33 8903 3631 9e88 2f34
00000140: d308 9931 439c 8531 272a 0f34 567a 0234
00000150: f4ac 3034 6dcd 4f33 1a99 db32 44fb 4334
00000160: 6050 9432 93d4 a531 c0fd cd32 4ce2 5733
00000170: 4b45 3d34 0c94 d832 1870 3934 1db8 9033
00000180: e2c3 8332 65e4 4534 8bb1 c733 bc7d ff30
00000190: 4196 3331 4204 0334 ad75 2832 6b85 a932
000001a0: 5e91 f531 55ab 0f34 df28 b233 2261 2032
2.5104624e-08 7.579481e-08 6.275554e-08 9.023175e-09 8.659161e-09 6.540575e-08 2.0321085e-08 9.889129e-08
1.3485149e-07 2.1330472e-08 1.6907837e-08 4.2108436e-08 2.5027816e-08 7.811577e-09 2.7301471e-08 9.5546156e-08
1.9908208e-07 1.3710589e-07 9.24788e-09 2.395591e-08 4.419194e-08 6.5771077e-09 1.8355325e-07 5.690144e-09
1.0302658e-07 4.7137554e-08 1.5890824e-07 3.3083307e-07 1.5887581e-08 1.90273e-07 3.8313765e-08 1.1327632e-08
8.715623e-09 1.6558552e-07 3.6060133e-08 6.949981e-08 2.7919693e-08 2.3240451e-08 1.31368e-07 7.9787e-09
4.453458e-08 5.0204676e-09 1.7847201e-08 4.0134836e-08 1.9100366e-07 2.4136958e-07 2.1592875e-08 1.7501597e-07
2.1967026e-09 7.3361073e-09 1.3563116e-08 3.011349e-08 1.9698521e-07 1.4742372e-07 2.0988646e-09 1.292725e-08
2.378619e-08 6.8472135e-09 4.2894158e-08 5.2556652e-09 9.0244985e-09 7.1897965e-08 1.3272826e-07 4.5539004e-08
2.8089076e-07 1.3128171e-07 9.81214e-08 1.3613035e-07 5.0920633e-08 3.9584663e-08 2.0541911e-08 3.0837267e-08
3.556255e-09 2.3328325e-07 1.487229e-08 3.7265828e-08 1.4202538e-08 7.1805786e-08 2.6486495e-09 1.6347846e-07
4.4538893e-09 3.8885744e-09 1.3333248e-07 1.2151699e-07 1.6454197e-07 4.8382777e-08 2.5564578e-08 1.82522e-07
1.7266018e-08 4.826299e-09 2.3980533e-08 5.0264404e-08 1.7627205e-07 2.5213033e-08 1.7270247e-07 6.7390125e-08
1.5339484e-08 1.8430144e-07 9.2989545e-08 1.8589428e-09 2.6133338e-09 1.2201875e-07 9.805643e-09 1.973486e-08
7.146965e-09 1.3380243e-07 8.296205e-08 9.335311e-09
