model_store/ResNet_epoch1.pt (torch, 279026 bytes, 32 tensors)

first_layer.weight f4 [128, 27]
00000000: 0380 3dbe 41d8 48be 69ca ed3d 805d 31be
00000010: 3956 46bc c82c 713e 0f72 69be a53d a7bd
00000020: 13f1 cc3e 0fd6 36bc c304 34be ad62 39be
00000030: 72e6 9c3d 07fc ec3d 666f fd3d 9010 083e
00000040: 77f3 0bbc 2936 893e aee2 2dbe 514f 8e3d
00000050: 8650 823e 7e3e 2f3e 4679 50be 0d59 70be
00000060: b421 a2bd 4233 93be a1f7 023d a757 ba3e
00000070: 372c 01be b904 05be 968c f83b 181a 033e
00000080: 6deb 26be c8e9 4ebd 2737 31be 3cb8 08bd
00000090: 7e2d 91bd fd49 fe3d 7776 31bd e12d 8e3e
000000a0: 9bbe 9c3e 1012 c9be ed72 8f3e 2347 4abd
000000b0: 4138 1b3e 7169 be3d 1614 b9bd f304 6eb9
000000c0: 23b2 8dbc 63f9 cb3c 6dd8 f53d e69f 3ebe
000000d0: e8e0 0fbe bc28 473e c7db d0bd 0400 093e
000000e0: a3ba 8a3e a0a7 2c3c 5b61 013e baf3 15bd
000000f0: 9a13 8cbe 391a 83bd 7f09 693e 5201 913e
00000100: 3748 b0bd ea19 813e 42a3 38be ab0e b03d
00000110: 659a a4bc f795 61be 3d40 0cbd 069a bc3e
00000120: 1b83 15be d5b7 71bd 97e8 323e 3bb4 71be
00000130: 9e93 b7bd 1e9a 68bd af83 1b3e 7100 643e
00000140: 3fd8 5fbe d31e 05bd 86d0 74bd a59e b43b
00000150: f1be 273e 7d6a 88be 0fd8 a43c a8b3 2b3e
00000160: 8c13 393e 08b5 843e 6622 81be 76fd 1cbe
00000170: 8703 623c 4605 81be 89d5 4c3e d0a2 1f3e
00000180: 5be8 edbd 6215 75be 4263 503c 472b fabd
00000190: 6dc7 7c3d 19a3 303a c38c f53d 2aba 8a3d
000001a0: 6048 233e ae83 80be 7407 1fbd b095 7bbd
000001b0: 2c24 81bd 42ef 95bc db06 66be d59a 7f3d
000001c0: e353 34be af8a 09be 2ab7 8ebd 36af 82be
000001d0: 3d02 9dbc 8022 ea3d af84 8b3d c5df 63bc
000001e0: 2be6 803e a25f ef3d 80b9 903d 6e3b ba3d
000001f0: 13ca 2d3e 8062 a0bd d412 59be 9d94 9d3e
00000200: 0175 3abe 734d 43be 2f90 313d d76e aebe
00000210: c3db 6ebe 2ea3 13bd 6488 843d 20e8 4c3d
00000220: 6362 2f3d da49 fd3d ca90 b13e 007d 3fbe
00000230: c1f6 163e 9700 133e 764e 7abe 3f9e b33e
00000240: 9847 27bd 4ae6 7d3e 99bf 633e 1eb0 c43d
00000250: 6c81 7c3e b661 663e 3919 8abd 4912 a7bc
00000260: 8d0a 293e 1a33 3cbd ffa3 3a3d 40e2 23be
00000270: 7b57 5b3e 0c3f 3bbe f334 043e f0d7 263d
00000280: fd59 c03a 6f8f 1fbe 739c 073e 96ae d1ba
00000290: ef60 d3bd 4658 f33c 8a38 5b3e 5b65 b63d
000002a0: c604 ea3d 8287 c2bd 0dbc 333e 1f77 893e
000002b0: 21fd 423e 4e32 40be 0210 d23e 49e1 8fbe
000002c0: 4a1e 8c3e bc1f 70be e4a4 f03d 3b58 3bbe
000002d0: 94de d43d 2ed6 893e 5429 233d bab3 0eba
000002e0: bce7 83ba 4146 433b 4d87 fd3d 020e a4bd
000002f0: 98e4 a7bd 13ae b93d 65f5 a8bd b3f2 a73d
00000300: 63b0 be3d f47e 913e 7f9f 9dbe 4b23 273e
00000310: 51ce f8bb bbde 733e 074c d53d d159 eebc
00000320: 82b0 c8bd bd40 783e c138 bdbd 9f4e 8fbd
00000330: 5c61 533d 2bf8 b93d 4a00 c63d 13f0 1b3e
00000340: e0dd 39be 266c 9c3e c868 033e d44d 043e
00000350: 5aaa b43e b471 4e3e 5dac 30bd 9b07 99be
00000360: 2bb3 e9bd 6237 7ebe 0796 65be 101b 533d
00000370: b166 ebbd 6fce b43e 16d5 8a3d 5f22 8b3c
00000380: 0ff9 9ebd b736 083e 75c4 2c3e 04ff 0d3c
00000390: 5c59 883d 28cd 8f3e dcb6 4fbe 84d0 493e
000003a0: 189c 08be db70 fbbd e1ba 533e a12f 70be
000003b0: 6c41 06bd caeb a5bd 77bd 4b3e 8311 7cbb
000003c0: 5f13 223e 0cc5 ebbd 2901 74be f6a7 8a3d
000003d0: 4493 93bd 36f3 17be a0da 0c3e 89eb 543e
000003e0: 9b23 65bd 45fb dcbd 4453 6bbd 441a fabd
000003f0: 5287 123e b56b 8d3e 457a 1fbd 0727 01be
-0.18505864 -0.19613744 0.11610872 -0.17320824 -0.012105518 0.23552239 -0.22797416 -0.08166055
0.40027675 -0.011159434 -0.17579941 -0.18104048 0.076611415 0.11571508 0.12374763 0.13287568
-0.008541933 0.26799133 -0.16981003 0.06948722 0.2545206 0.17113683 -0.20358762 -0.2347147
-0.079165846 -0.28750044 0.03197444 0.36394998 -0.12614523 -0.12990083 0.0075851185 0.12802923
-0.16300745 -0.05051592 -0.17306195 -0.033378825 -0.07088755 0.12416456 -0.043325868 0.27769378
0.3061417 -0.39271593 0.2801737 -0.049384248 0.15158178 0.09297455 -0.09037034 -0.00022699292
-0.017296856 0.02489919 0.120041706 -0.18615684 -0.14050639 0.19449133 -0.10198169 0.13378912
0.27095518 0.010538012 0.12634794 -0.03660939 -0.27358705 -0.06401486 0.22757529 0.2832132
-0.08607524 0.25215083 -0.18031028 0.08596548 -0.020093152 -0.22029863 -0.03424095 0.3683626
-0.14600794 -0.059013207 0.17471538 -0.23603909 -0.089637026 -0.056787603 0.15186952 0.22265793
-0.21859835 -0.0325001 -0.059769176 0.005512076 0.16381432 -0.26643744 0.020122556 0.16767752
0.18073863 0.25919366 -0.25221556 -0.15331063 0.013794786 -0.25199336 0.20003332 0.15589452
-0.11616584 -0.23933938 0.012718977 -0.12215286 0.061713625 0.00067381706 0.11989739 0.06773789
0.15945578 -0.25100464 -0.038825467 -0.06142205 -0.06305727 -0.018302564 -0.22463553 0.06240352
-0.17610125 -0.1343181 -0.069685295 -0.255243 -0.019166106 0.114323616 0.06812417 -0.013908331
0.25175604 0.116881624 0.07066631 0.090933666 0.16971616 -0.078312874 -0.21198589 0.30777445
-0.18208696 -0.19072513 0.043350395 -0.3406894 -0.2332602 -0.036044292 0.06471327 0.05002606
0.04281844 0.12367602 0.34680778 -0.18700027 0.14742567 0.14355694 -0.24443993 0.3508167
-0.04083976 0.2479488 0.22241057 0.09603904 0.24658746 0.22498211 -0.06743092 -0.020394461
0.16507931 -0.04594717 0.045566555 -0.16004276 0.2142009 -0.18285769 0.12910824 0.040733278
0.0014675256 -0.1558206 0.13243274 -0.0015997465 -0.10321223 0.029705178 0.21408287 0.08906051
0.11426692 -0.09498502 0.17552204 0.26848695 0.19041874 -0.1876919 0.41027838 -0.28101566
0.2736686 -0.23449606 0.117502004 -0.18295376 0.10394016 0.2692122 0.039834335 -0.00054436515
-0.0010063569 0.0029796513 0.12379322 -0.08010484 -0.08197898 0.09066405 -0.0824993 0.08200588
0.09310987 0.2841717 -0.30785748 0.16322057 -0.007592954 0.23815434 0.10414892 -0.029095562
-0.09799291 0.24243446 -0.092393406 -0.06997418 0.05160652 0.090805374 0.09668024 0.152283
-0.18151045 0.3055126 0.1283294 0.12920314 0.35286218 0.20160562 -0.04313313 -0.29888615
-0.11411127 -0.24825814 -0.22420512 0.05153948 -0.11494196 0.35313746 0.06778924 0.016984163
-0.07762348 0.13302122 0.16871817 0.0086667575 0.06657669 0.2808621 -0.20284599 0.19708449
-0.13340795 -0.12277385 0.20676757 -0.23455669 -0.032777235 -0.08101614 0.19896494 -0.0038462586
0.15827702 -0.11512193 -0.23828568 0.06770317 -0.07205823 -0.14838871 0.13755274 0.20792975
-0.05594216 -0.10790113 -0.057452455 -0.12212041 0.14309433 0.27621236 -0.038934965 -0.12612544

first_layer.bias f4 [128]
00000000: 7204 dcbd 59f9 a13d 48bd 353e 2bb1 0b3c
00000010: f757 2fbd 65ab e5bd 90a8 123e 1075 febd
00000020: 9583 f4bd 67c4 053e b5fc 3a3e 69fd e73d
00000030: d4fb 2e3c 302b 253e 8e96 f4bd 1153 283e
00000040: 3f00 913d b929 5abd fdea ddbc af27 883d
00000050: 0f10 61bd 21f0 1c3e 7d34 2e3e 09d3 8a3c
00000060: 6170 183e edcc 37be 6f01 5c3d 4d21 b3bd
00000070: 02a2 283e f464 fabc 6e56 e3bb dd83 0c3d
00000080: dfb5 2b3e bfb5 423e 6bb3 613c e439 76bd
00000090: 16e8 d03d 3ced 273e 16c1 37be 6044 95bd
000000a0: 20be 223e 0e44 5e3d 2aa7 3ebe 85ef e1bc
000000b0: 480a 20be f413 f6bd 192d 923d 198c 1fbc
000000c0: e381 d53b 2017 1dbd 87d2 293e 1d4f 93bc
000000d0: 6bde 06be b9c9 dd3b abf6 f4bd 6c3c b23b
000000e0: 3936 debd 8c58 43be 93f8 363d f917 203d
000000f0: 417a 2c3e c9ad babd 7fc2 99bd c0f0 793c
00000100: 26f9 1b3e 7db4 843d 9874 04be cb5b a4bd
00000110: 23a0 293e 4d40 2abe 1207 8c3d 91e6 9f3d
00000120: a170 783c 8b0a 0ebc 3915 bd3d d5cb 103e
00000130: bbd3 ff3c 0e02 f4bd 4fdd bcbd b445 c43d
00000140: 0792 413e 4ed6 1f3e f196 d2bd d16a dd3a
00000150: 2629 3639 ac03 ad3d b806 8dbd deee 8bbd
00000160: 7dd2 37bd 69d3 193e bf60 93bc cffe d8bd
00000170: f26f 193e 5934 cbbd e02b 583d a929 e43d
00000180: 6302 7e3d 032e 02be cc1d 3cbe 5d63 a63b
00000190: 8528 373e db30 94bd 26ce cebd 4abf 423e
000001a0: d9c0 aebd 0bd7 063e 5974 293d af32 003e
000001b0: 11c0 1f3e 8321 863d 5624 d2bd 0d56 9fbc
000001c0: 69d4 bb3d 7da9 acbd 11e9 293e 22c4 93bd
000001d0: c347 053e 06ec 2bbe 6763 2bbe c853 0c3d
000001e0: 5497 473d 7c43 2a3e a401 c83d f2ac 85bd
000001f0: 021e 0a3e fa2b a73d 30cb 23be cc17 283d
-0.107430354 0.079088874 0.17747986 0.008526127 -0.0428085 -0.112143315 0.14322114 -0.12424672
-0.1193916 0.13063203 0.18260463 0.11327631 0.010680158 0.16129756 -0.119427785 0.16437937
0.07080125 -0.053262446 -0.02708959 0.06648194 -0.054946955 0.15325977 0.1701221 0.016946333
0.14886619 -0.17949267 0.053712305 -0.08746586 0.16468051 -0.030565716 -0.0069377935 0.034305442
0.16768597 0.19014643 0.013775687 -0.060113803 0.10200517 0.16399091 -0.1794475 -0.07288432
0.1589284 0.05426412 -0.18618456 -0.027580032 -0.15628922 -0.120155245 0.07137508 -0.009737992
0.006515728 -0.03835213 0.16584216 -0.01798206 -0.13170783 0.006768432 -0.11961111 0.0054393318
-0.10850186 -0.19076747 0.044670653 0.039085362 0.16843511 -0.09115178 -0.075078 0.015255153
0.15231761 0.06479738 -0.12935102 -0.080253206 0.16564994 -0.16626091 0.06837286 0.07807649
0.015163572 -0.008669506 0.092325635 0.14140256 0.03122889 -0.119144544 -0.09221899 0.09583607
0.18903361 0.15609095 -0.10282696 0.0016892796 0.00017372202 0.08447966 -0.06886047 -0.0683267
-0.04487847 0.15022053 -0.017990468 -0.10595476 0.1498411 -0.09922094 0.052776217 0.111407585
0.062013995 -0.12712865 -0.18370742 0.005077763 0.1788655 -0.07235881 -0.100979134 0.19018283
-0.085328765 0.1316797 0.041370723 0.12519334 0.15600611 0.065493606 -0.10260837 -0.019450212
0.091713734 -0.08430765 0.16592814 -0.07215144 0.13015656 -0.16789255 -0.16737138 0.034259588
0.048728302 0.16627306 0.09765938 -0.06527127 0.1348801 0.08162685 -0.15995479 0.04103832

time_mlp.1.weight f4 [108, 27]
00000000: 8da1 0bbe 025b 033e 838f 03bd 477e 24bd
00000010: f3be febc 9155 f83d 81ab 153e 1672 863e
00000020: ac6d 4bbe d228 5fbd 631f d3bd fced cabc
00000030: fbcc 92bd 1c46 04be b66c 443d 42d6 c73d
00000040: 0c4b 1e3e 9cb6 c23b ee82 11bd 3301 603d
00000050: dd75 4d3e d999 363e eacd 5f3e 39a0 16be
00000060: 65aa b33d 69b1 3e3e e51a 0d3e 02e3 093c
00000070: 1337 6b3d a46d 643d bb1a 9dbd bcb4 b53d
00000080: dad1 f93b a88f 22be 30c3 803d ea75 56be
00000090: 9842 0e3e f0ae cfbd 6c22 1ebe d094 873d
000000a0: 84a7 27be 5fde fe3c 41ba f7bd 1e90 2c3d
000000b0: 75cb 703d 4fc0 113e 99c2 5d3e 7be7 413e
000000c0: 8afa 403e dbca 533e 2f79 de3c 4e5e 2fbe
000000d0: 46a9 20bd 9949 44be 91cf a2bd 6c55 b539
000000e0: 563b 00bd b458 6d3d b52d b63d 9cf4 2cbe
000000f0: 0ab6 53be 9493 97bd cc5b 88bd 112f 423d
00000100: f914 b33d b80a 4e3d 07bb 23be 6049 c83d
00000110: 9f20 833d ff13 21be d735 2ebd 969a 7bba
00000120: a1ab ffbd 8a16 323e b155 9ebc 3e9d 20bd
00000130: e61f 213e 1288 663e 1525 293e 7772 6ebc
00000140: 2bf5 05be b583 b5ba cb14 12bd 3013 283d
00000150: fa11 d03d e2bf e43b 6b3d 67bc fb00 b3bd
00000160: 32e7 b9bd 96ab e2bd 704f 53bd d51c 0fbd
00000170: 54a6 123e e8e4 02be 00b9 b33d e3a0 37bc
00000180: b1f9 483b 8373 2abe 09d8 1c3e bf6d 48bd
00000190: 49df cbbd 73e8 03be 5b05 e3bd 8ef0 273d
000001a0: 7cd8 bbbc 2831 9bbd 9113 04be aa4e 3f3e
000001b0: a4f6 b1bd 6d91 21bd b769 ba3d 466a ce3d
000001c0: 1f88 033e 10f6 8bbd f7e7 d9bd 005f 8e3e
000001d0: bfee bb3d 54bb 33be 8883 ed3d 74dc 41be
000001e0: e6c4 d13d 6f93 043d bc06 fa3c 883e 5cbc
000001f0: 8e94 053d 5081 fe3d ff50 a03d 64ca 4b3d
00000200: faa0 8d3d 9c0d 6a3d b792 d73d 974b 5bbd
00000210: 4785 8c3d e219 113e 9171 29bd c393 153e
00000220: 781d 343e 4bbd 1abe 9995 22be 30be 02be
00000230: b212 f53d 3077 a33d 8f0b 873d b0c2 343d
00000240: b533 ff3d c6c1 debd 70ed 12be ba6a 353d
00000250: 7516 553b d2bd 25be 941a e9bc 3e53 b5bc
00000260: ce6a afbc e48d 9bbc 3e55 0b3e 11ca 31bd
00000270: 3cb6 28be 9e9e a93d 72c0 59be fe70 b9bc
00000280: 3ea8 53be d0c9 0e3e d0e0 e73c 29d2 7e3d
00000290: 5052 863c 278b 0a3e 1bb5 0c3e a7c3 8f3b
000002a0: a959 9fbd 125c fa3d f84e 193d 48a7 49be
000002b0: 5aab db3d ffcf 3ebe e4e7 5ebe 780c 213e
000002c0: 40be e5bd 7517 3e3d 63bb 1a3d be2c 3c3e
000002d0: 5c81 cbbd af45 953d 99f9 40be 53fb 5c3e
000002e0: dcf4 453c 56c2 ac3d 5bd2 12be d1c4 1f3e
000002f0: 6b27 eebd fe79 623d 16c5 0bbe a2ab 03be
00000300: 94e8 dd3d 8786 5f3d 97c6 56bd 25a9 c7bc
00000310: c110 b93e 3997 cabd 87e1 76bd a61b b93d
00000320: b323 e33d adf2 f7bd 66b9 86bc a50e 5b3d
00000330: 0446 653c ea7b 733d d696 2bbd 193a d8bd
00000340: 505a c7be 047e 503e 15c7 713e b2f5 93bd
00000350: bdc6 a9bc 8529 223e 2305 be3c 62ad 14be
00000360: e081 16be 23da a93d 4a17 8ebd e225 493c
00000370: d6f1 a8bd 2f04 2b3d 972d 0f3c dd7a 413e
00000380: f962 0f3e c631 393d 77cf 533d 3576 50be
00000390: a2ba 28be e2f5 09be 69fe e9bd 85a1 c73d
000003a0: 819d 0abd 657f ca3d dcd2 4ebd 3e50 8bbe
000003b0: ec37 623e 83c3 a13d 4abf 9c3b d0cb be3d
000003c0: 1239 87bd 3d03 143e 460c 9ebc 2efe 0c3e
000003d0: 1758 ce3d dc2e 5c3c 33a4 253d ff0b 8c3d
000003e0: e3c4 d63d 32f6 5e3e e03c 443e f4bf 953d
000003f0: 651b 363d b49d 49be 0f74 4bbe abd7 91be
-0.13635845 0.12827685 -0.032119285 -0.04015949 -0.031096911 0.121256955 0.14616205 0.26258916
-0.19866055 -0.05448229 -0.10308721 -0.024771683 -0.07168003 -0.1291737 0.047955237 0.09757663
0.15458316 0.005942179 -0.035525255 0.054688644 0.20064493 0.17832126 0.21855894 -0.14709558
0.087727346 0.18622364 0.1377979 0.008415939 0.05742557 0.055768624 -0.07671114 0.08872363
0.007623893 -0.15875113 0.06287229 -0.20943418 0.13892591 -0.101407886 -0.15442818 0.066201806
-0.16372496 0.031111894 -0.12096072 0.04212963 0.05878778 0.14233516 0.21656264 0.18935959
0.18845573 0.20682852 0.027157394 -0.17125818 -0.03922393 -0.191687 -0.079497464 0.00034586655
-0.031306587 0.057945922 0.08895437 -0.16890186 -0.20674911 -0.07401195 -0.06658134 0.047408167
0.087442346 0.05030319 -0.15989314 0.0977962 0.06402706 -0.15730284 -0.042531814 -0.0009597925
-0.124839075 0.1739141 -0.01932797 -0.039212458 0.15734825 0.22512844 0.16518052 -0.014553658
-0.13081805 -0.0013848456 -0.03566436 0.041033924 0.10159679 0.006980882 -0.014113764 -0.087404214
-0.090773 -0.11067884 -0.05158943 -0.034939606 0.14321262 -0.12782633 0.0877552 -0.011207792
0.0030666406 -0.16645627 0.15316786 -0.048932787 -0.09954698 -0.12881641 -0.11085006 0.041000895
-0.022930376 -0.07577735 -0.12898089 0.18682352 -0.08689621 -0.03944533 0.09102195 0.10078864
0.12844895 -0.06834042 -0.10639947 0.27806854 0.091763966 -0.17551929 0.11597353 -0.18931752
0.102426335 0.032367166 0.03052079 -0.013442643 0.032612376 0.12427008 0.07827949 0.04975356
0.069154695 0.057141885 0.105260305 -0.053538885 0.06861358 0.1417003 -0.04136807 0.14607148
0.17589366 -0.15111272 -0.1587738 -0.12767863 0.119664565 0.079817176 0.065940015 0.04413098
0.12461034 -0.10876803 -0.14348388 0.044291236 0.0032514606 -0.16185692 -0.028455056 -0.02213442
-0.021413233 -0.018988557 0.13606736 -0.043405596 -0.16475767 0.08282207 -0.21264818 -0.022636887
-0.20669648 0.13944173 0.028305441 0.062212143 0.016396672 0.13529645 0.13740961 0.0043873372
-0.07780773 0.12224592 0.037428826 -0.19692719 0.10726042 -0.18634032 -0.21768147 0.15727413
-0.11217928 0.04640909 0.037776362 0.18376443 -0.09936783 0.07288682 -0.18845214 0.21580248
0.012082305 0.08435504 -0.14338057 0.15602423 -0.11628612 0.055292122 -0.13649401 -0.12858441
0.108353764 0.054571655 -0.052435484 -0.024372647 0.36145595 -0.09892125 -0.060273673 0.09038477
0.110907935 -0.121068336 -0.016445827 0.053480763 0.013993744 0.059444346 -0.041891895 -0.10557956
-0.3893609 0.20360571 0.236111 -0.07224597 -0.020724649 0.15836151 0.023195809 -0.14519265
-0.14697981 0.082935594 -0.06938036 0.012277098 -0.082492515 0.041752037 0.008738897 0.18894525
0.14002599 0.045213483 0.051711526 -0.20357592 -0.16477445 -0.13472703 -0.11425478 0.09747604
-0.033841614 0.0988758 -0.05049406 -0.27209657 0.22091645 0.07898619 0.0047835456 0.09316218
-0.06602682 0.1445436 -0.019292962 0.13768837 0.100753956 0.0134389065 0.040439796 0.068382256
0.10486772 0.21773604 0.19163847 0.07312003 0.04445972 -0.19689065 -0.19868492 -0.28484854

time_mlp.1.bias f4 [108]
00000000: 4f24 193e 7946 0cbc ec29 e63d 941c 5bbe
00000010: 66d5 7d3d 0026 24be ae7d 483d fd6a 74bc
00000020: 6615 473e e5f4 8bbc a1af 53be 6f78 a93c
00000030: 4091 b03d ce70 403e 01f6 fe3d 7826 213e
00000040: 2300 4a3c 9b97 c2bd f53f 473e 970e f53d
00000050: 6233 653e c5bb ef3d d3c2 b53c 4311 adbd
00000060: 4429 ac3d 6815 dc3d 82b8 53bc c564 243e
00000070: c9f5 66bc 03da d8bd adda f1bc adaf 2d3c
00000080: a52a 4fbb db3d a2bd ecb3 3bbe 0280 39be
00000090: 94af e7bc ab25 dabc b1b6 783d 9a1d 96bd
000000a0: 5fdc 4e3e 25ae 383e 313a 24be a6c9 613e
000000b0: fa42 af3b 561c af3d 1c51 343d aa88 44be
000000c0: 5338 ddbd 143c cfbd 2174 703d 8553 303e
000000d0: 6938 f1bd 9fcc 13be b285 5e3e 2731 6d3d
000000e0: 60ca aebd 62d5 3fbd bc41 3f3d 699d efbc
000000f0: 7a16 02be b4db 3f3d 1051 9d3c 10ab 00be
00000100: 6850 3f3e 3b1e e43c eef7 44be bc07 db3c
00000110: 7936 0f3d 694f ef3d b2df 46bc 5bf0 7c3d
00000120: 8d96 543d cdbc 3f3e 9680 433e b14f f2bc
00000130: 6125 e13d cd60 853c 2544 04be d832 edbd
00000140: 051d 3c3e a059 733e 84c2 173c 76f3 fbbd
00000150: 2bd5 56bd 73bc 783e ce1f f5ba 601a 003e
00000160: 0bdc 103e 359d 553d 2859 493e 069c e3bd
00000170: 89c6 9238 17f2 223e f1db 10be b84a fe3a
00000180: 240e 79bd 3f3f 17be b0f5 82bd 7e8d 9a3d
00000190: a408 103e d252 953d dc34 28be 2c54 3a3d
000001a0: 469c de3d b754 0c3e f68a 40be 04ba fe3c
0.14955257 -0.008561724 0.11238465 -0.2139762 0.06197109 -0.16030121 0.048947982 -0.014918086
0.19441757 -0.017084548 -0.20672466 0.02068731 0.08621454 0.18793032 0.12449265 0.15737331
0.012329134 -0.09501573 0.19457991 0.119656734 0.22382882 0.11705736 0.022187626 -0.08450558
0.08406308 0.107462704 -0.012922408 0.16054066 -0.014096686 -0.105884574 -0.029523218 0.010600966
-0.0031611111 -0.07921954 -0.18330353 -0.18115237 -0.028281964 -0.02662929 0.060721103 -0.07329865
0.20201252 0.18035181 -0.16037823 0.22049579 0.0053485604 0.085503265 0.044022664 -0.19192758
-0.108017586 -0.10118881 0.0587045 0.1721936 -0.117783375 -0.14433526 0.21730688 0.057908203
-0.08534694 -0.046834357 0.04669355 -0.029249864 -0.12703887 0.046840385 0.019203693 -0.12565255
0.18683016 0.027846446 -0.19235203 0.026737086 0.03496406 0.11685068 -0.012138294 0.06175266
0.05190139 0.18724366 0.1909202 -0.029579015 0.109934576 0.01628151 -0.1291662 -0.11581963
0.18370445 0.23764658 0.009262685 -0.12302296 -0.052449387 0.24290638 -0.0018701495 0.12510061
0.1414644 0.052151877 0.19662917 -0.111137435 6.9988026e-05 0.15912662 -0.14146401 0.001940093
-0.0608045 -0.1477022 -0.063945174 0.07546519 0.14065796 0.07291187 -0.16426414 0.04549043
0.108696505 0.13704191 -0.1880301 0.031094559

time_mlp.3.weight f4 [108, 108]
00000000: ce61 ad3d a3ce 503d d400 fd3c 5ba5 a43c
00000010: ba97 e33d bc22 8bbd 1fe1 de3b 5b1e d53d
00000020: 551d 233d 87d6 80bd 2227 bebd 4bc5 4c3d
00000030: 7fc8 423d fb4e f33a a079 ebbc 58c7 673b
00000040: e17c 803d 9be0 7dbd 6b98 30bd 2438 933d
00000050: b207 7bbd 7bc1 803d 8399 6abd 1907 893a
00000060: e30a 843d 817f 9bbc a453 ca3c ef3b bb3c
00000070: e84c 91bb fcde 77bd 6e44 203b a219 963d
00000080: 9523 aabd 8ebd 653c eb0f 6abd 7920 133c
00000090: ef7d 823c 8501 c43d 3268 19ba c2fd b53d
000000a0: 04ae cbbc 4a24 b03d 8c42 ab3c ba96 293d
000000b0: cc0d 2dbd 8293 39bc dac7 01bd 1d8f 743d
000000c0: 3934 cfbd c8ac f33c e8a5 c8bc d696 8dbd
000000d0: fd92 373d 36f8 653d ad99 503b bd1b adbd
000000e0: 8200 cb3c 3ece ed3b 25a2 67bd 20ff 89bd
000000f0: 9a5b 043d 1e14 043b b5be 47bb 2642 7bbd
00000100: e062 673d 5e7d 46bb 32ee 533d c0f5 9cbd
00000110: e19b e63c d14f f3bc 3e16 79bd 3ea8 753c
00000120: 83a5 23bd c10d 26bd 0c75 84bd 48b7 843c
00000130: 90e8 973d e113 c53c 384a b23c 9235 8cbd
00000140: 7d34 a63c 7dae 21bc b718 8a3d 7a30 223d
00000150: f773 0e3c 1b2a 143c fc0b 95bc d1b6 9ebc
00000160: 7fe2 6f3d fd2d a63d 0891 513d 373a 97bd
00000170: 3a46 03bd 08d4 8bbd e44a 81bd bd8f 7cbd
00000180: 67aa 96bd 06b2 0cbd a7cd 33bd 97b0 dfbc
00000190: 534b df3b af1a 12bd 498c 3abd 9c94 453c
000001a0: f12a 3b3d 7a1f 063c d29b 5bbc 93bb 88bd
000001b0: 2def 293d f676 29bd 8674 97bd cadd fc3d
000001c0: d968 83bd 0232 c8bc 3aa7 67bd a6a9 7d3d
000001d0: df3f b6bd 4957 963d d078 b93d 05d5 59bd
000001e0: bc36 37bd 99d1 89bc ee64 33bd 8b0a 323c
000001f0: 7eef 0a3d 4b01 043c 52b1 133d c40e 0a3d
00000200: 3b81 47bc 120d 9c3c 3a93 ec3c 9b8c dbbd
00000210: 900d f7bd 6fad 54bc e851 c5bc 4414 a43d
00000220: 22a1 4e3a 1ba6 b3bd 1b8c 57bd b2c9 953d
00000230: 3388 0c39 7146 743d 3aec a63c 23e0 213d
00000240: 0424 01be 7a9e b63c 7a99 923b 4b73 cebd
00000250: 757c 28bd 0362 083e 0808 c4bc 7dde c93d
00000260: 2626 cdbd 5877 92bd c02d 093e d9ed 133d
00000270: 134d 23bd a0b4 0b3d 4a6d e2bd 7278 4bbd
00000280: e006 1e3d 7683 993d 1096 b1bd 8fe7 94bd
00000290: 63c4 2c3e b7bf 823d 8f18 f73d 3106 a93a
000002a0: 0c7b ddbc a6d5 22bd b7e8 7abd f24a b53c
000002b0: 5d45 70bd 4b3b 84bd 664d cf3d 28e1 fc3c
000002c0: 82ff e1bd 7592 f63b 9a0f a03c bc4d 7abb
000002d0: a97d 81bd 9301 84bd 7e2c 6fbb 51cd 8cbd
000002e0: ffbc 633d a4a7 e5bd 62be cf3d 7c6d 673d
000002f0: b219 84bd 79a2 2bbd cc4b 8b3d a12e f9bc
00000300: a1bd 0dbe 7666 acbb 4fd5 1abd e1f5 f9bd
00000310: 5e6d a2ba d170 f2bd 73f3 c53c d81e 16be
00000320: 9dc6 89bd 8622 4ebd 708a 36bb 8e26 00bd
00000330: 6c93 b63b 8d03 063e 39d2 6b3d c295 70bd
00000340: c021 28bd 9c60 a3bc ca07 32bc 2ff7 89bd
00000350: 3acd 443d 3b88 d63b 653a 8c3d 2d06 0d3e
00000360: 1376 5dbd 6e8b 36be d5c5 b93a d943 543d
00000370: 3915 0abd 59f4 01bd 7ccb 46bd 756e 85bd
00000380: 7ef2 8dbd c8f4 89bd 1a96 e0bc f9cb 0fbd
00000390: 6cc7 9dbc 39ca 273d 6477 82bd 3dc0 0abd
000003a0: e9c7 bcbd b753 aebd 841a 853c 4bdf 113d
000003b0: 0686 cb3d fda3 443e a0fa 113d 1ffe b0bb
000003c0: 0f76 033e 64f6 ddbd ca37 3c3c e984 63bd
000003d0: 3471 193e 3085 5e3c 81b6 4ebe 0845 b5bd
000003e0: be48 bfbc f9e4 b3bd 98fe 5abd 2230 bf3c
000003f0: fce9 393e b6b8 bebd edac 0b3d 62da 64bd
0.084659204 0.050978314 0.030884184 0.020098379 0.11112924 -0.067937344 0.006801739 0.104061805
0.039822895 -0.06290918 -0.09284808 0.04999284 0.04755449 0.0018562967 -0.028744519 0.003536662
0.06273819 -0.06198178 -0.043114107 0.07188442 -0.061286636 0.062869035 -0.057275306 0.0010454386
0.06447389 -0.018981697 0.024698086 0.022855727 -0.004434217 -0.06051539 0.002445485 0.07329108
-0.08307568 0.014022244 -0.057144087 0.00897991 0.01592919 0.09570602 -0.0005852013 0.08886291
-0.02486325 0.086006716 0.020905755 0.04140351 -0.042249486 -0.0113266725 -0.031684734 0.059706796
-0.101173826 0.029745474 -0.024493173 -0.06913535 0.044817913 0.056144916 0.003182988 -0.08452556
0.024780516 0.007257252 -0.056551117 -0.06738114 0.03231392 0.0020153592 -0.003047866 -0.06134238
0.05649078 -0.0030287127 0.051740833 -0.076640606 0.0281505 -0.029701145 -0.060812227 0.014993725
-0.039952766 -0.04054046 -0.064676374 0.016200677 0.07417405 0.02405733 0.021763906 -0.06846155
0.0202887 -0.009868261 0.06742995 0.039597012 0.00869464 0.009043242 -0.018194191 -0.019374283
0.058565613 0.0811424 0.051163703 -0.073841505 -0.032049395 -0.06827551 -0.063131124 -0.061660517
-0.073567204 -0.034349464 -0.043897297 -0.027305884 0.0068143993 -0.03566998 -0.045543943 0.012059357
0.04569525 0.008186216 -0.01340385 -0.06676402 0.04148786 -0.041373216 -0.07395272 0.123469904
-0.064164825 -0.024437908 -0.056555964 0.061929367 -0.08898901 0.07340867 0.09056246 -0.053181667
-0.044729933 -0.016823577 -0.043797426 0.010866771 0.033919804 0.008056949 0.036057778 0.033705488
-0.012176807 0.019049201 0.028878797 -0.10720178 -0.12063134 -0.012980803 -0.024086908 0.08011678
0.0007882287 -0.087719165 -0.05262385 0.07313861 0.00013402179 0.05963749 0.020376313 0.039520394
-0.12611395 0.022292364 0.0044738622 -0.10080584 -0.041134316 0.13318639 -0.02392961 0.098568894
-0.10017042 -0.07151669 0.13396358 0.0361155 -0.039868426 0.034107804 -0.110560015 -0.049675412
0.038580775 0.07495777 -0.086712 -0.07270729 0.1687179 0.06384223 0.12065231 0.0012895522
-0.027036212 -0.039754532 -0.06125709 0.022130463 -0.0586599 -0.06456622 0.101221845 0.030869082
-0.110350624 0.0075247833 0.01953869 -0.0038193306 -0.06322796 -0.06445613 -0.0036495025 -0.068750985
0.055600163 -0.112136155 0.101437345 0.056500897 -0.064502135 -0.041902993 0.068015665 -0.030417742
-0.13841869 -0.0052612377 -0.037801083 -0.12205101 -0.0012392213 -0.11837924 0.024163937 -0.14660203
-0.067273356 -0.050325893 -0.0027853511 -0.03128677 0.0055717733 0.13087292 0.05757353 -0.05873657
-0.04104781 -0.019943528 -0.010866115 -0.067366 0.04804728 0.0065470017 0.068470754 0.13771887
-0.054067682 -0.17826626 0.0014173338 0.051822517 -0.033711646 -0.03172717 -0.0485339 -0.06515209
-0.06931017 -0.067361414 -0.027415324 -0.035106633 -0.01926013 0.04096434 -0.06370428 -0.03387474
-0.09217817 -0.08512061 0.016247995 0.03561334 0.09937672 0.19203182 0.035639405 -0.0054013873
0.12838005 -0.10838011 0.0114879105 -0.055546675 0.1498459 0.013581559 -0.20186807 -0.08851057
-0.023350116 -0.087839074 -0.053465456 0.023338381 0.18155664 -0.093125746 0.03410046 -0.05587233

time_mlp.3.bias f4 [108]
00000000: 069e cb3c 0f9c c83c b55b 183d 1aba 0dbe
00000010: c128 2c3d f1f6 e7bd 5a0a 563c 27bf e6bc
00000020: d68e 1fbe 2def be3d 8380 d9bd 3e2e a4bd
00000030: 871f 6a3d a225 933c baf5 943d eb3c 113d
00000040: 7c13 673d dfec 453d 52e3 2bbe 0d32 15be
00000050: 13a7 a1bd 58c9 ddbd cc5f a8bd 44a2 a93d
00000060: 5087 893b 246f 0bbe 4a96 e13d 1c82 25bd
00000070: 4d8f 10bc ca94 483d c09d b23d 1690 603d
00000080: 5864 fa3c b1a8 6cbb 4640 e7bd f1c2 083d
00000090: 5516 94bd 00c6 9abd a917 76bb 634b 09bd
000000a0: a980 543d 1627 92bd f44b 0bbd 8951 573d
000000b0: dbff b03d d623 463b b4cc 50bc 09bc c03d
000000c0: 8be2 233d 850f c63d c090 9a3c 497a 04bd
000000d0: 0362 99bc 45fc 38bb e945 2a3d dd5c d8bd
000000e0: a1db 313c ed7c cf3d 234a 5cbb 5bd1 61bd
000000f0: ae5e afbd 2c1f 673c fc2e cdbc 4467 8f3c
00000100: 1504 ad3d 2300 54bb 19b0 073e 3903 06bc
00000110: 373a abbd a0c8 343d 5a28 d4bd 5422 9b3d
00000120: 7ee2 b9bd 3d88 943d e2a2 2d3d be15 9cbc
00000130: 390d 723d b325 c33d ca1e 073d aa45 aebd
00000140: ffed 47bd b643 9dbd 4720 4c3c 278e f13c
00000150: 66a0 a13a a678 dfbd 6c76 14bd 0a5d 283c
00000160: 436e b33b 21ca e63c fc58 4dbd 7410 89bd
00000170: f467 74bd 3e81 be3d 06a1 b83c b91b 84bb
00000180: 8ccb edbc 05c4 c1bd 35e9 7abc 5dbd 9d3c
00000190: 09b2 133e 3b4c 43bd 681e 90bc cec4 e03b
000001a0: f001 52bd 46cc 05bd 93e5 4b39 8c80 55bd
0.024855625 0.024488477 0.037196834 -0.13840523 0.042031053 -0.11326397 0.013063991 -0.02816732
-0.15581831 0.09322963 -0.10620215 -0.080166325 0.057158973 0.01796228 0.07273431 0.035458487
0.056415066 0.0483216 -0.16785935 -0.14569874 -0.07893195 -0.10829419 -0.08221397 0.08282903
0.0041970387 -0.13616616 0.110149935 -0.040407285 -0.008823228 0.04897002 0.08721495 0.05482491
0.030565426 -0.003611129 -0.11291556 0.033389036 -0.07230822 -0.07557297 -0.0037550724 -0.03351916
0.051880512 -0.07136361 -0.03400798 0.052567992 0.086425506 0.0030233762 -0.0127441175 0.09410865
0.04001097 0.09670929 0.01886785 -0.032343183 -0.018723493 -0.0028226536 0.041570578 -0.10564587
0.010855586 0.101312496 -0.0033613525 -0.055131298 -0.085629806 0.014106553 -0.025046818 0.017505296
0.08448044 -0.0032348714 0.1325077 -0.008179479 -0.08360713 0.044136643 -0.10359259 0.07574907
-0.09076403 0.07252548 0.042391665 -0.019053336 0.05909464 0.09528675 0.032988347 -0.08509381
-0.048810955 -0.076789305 0.012458867 0.029486729 0.0012331128 -0.10911684 -0.03624575 0.0102760885
0.0054757907 0.028172554 -0.05013369 -0.06692591 -0.05966945 0.09301995 0.02253772 -0.004031625
-0.029027723 -0.09461216 -0.01531439 0.019255335 0.14423384 -0.04768012 -0.017592624 0.0068593984
-0.05127138 -0.032665513 0.00019445112 -0.052124545

head.normalization.weight f4 [128]
00000000: 3606 863f 45d6 873f dfef 7e3f a8ad 803f
00000010: df2f 743f 2141 883f b14c 6c3f 9e98 833f
00000020: 56e8 7e3f 2d91 7b3f 6d31 863f 00d0 8c3f
00000030: 19d1 843f f6c8 773f 3691 843f ef06 7c3f
00000040: 3007 883f f659 853f 9f3e 7a3f 3989 853f
00000050: ca03 783f 6966 843f 598d 823f 0c75 813f
00000060: 460b 623f 8cc6 703f fa0c 833f c1ed 743f
00000070: 459b 873f 46bf 813f 8e34 7e3f 62db 893f
00000080: da19 8f3f 1cf9 853f f391 803f 74d7 873f
00000090: d6ac 823f b833 813f 15d5 813f 33d2 883f
000000a0: 21e5 6c3f dbbd 7e3f 82e9 793f de32 783f
000000b0: d5a6 823f b17f 683f 3b68 873f 2396 763f
000000c0: 952d 7b3f 2f91 813f 4062 7e3f adb0 7a3f
000000d0: d410 833f b10f 8c3f e448 853f b11f 843f
000000e0: 255d 733f 3059 813f 1356 7d3f 8e52 813f
000000f0: 4272 823f 8c25 833f 10b4 803f bffa 803f
00000100: 8f4c 883f 3d2f 853f 560b 763f 4e5a 833f
00000110: 3e1b 853f 0cff 6a3f 3b40 843f e4af 763f
00000120: 1a34 7a3f 7a8f 833f 74c4 6e3f 3135 783f
00000130: ffc7 833f c2c6 843f 78db 843f 62aa 7d3f
00000140: d404 743f 8b30 853f 95ed 803f 5b19 7f3f
00000150: c541 853f be50 873f fda9 833f dca7 783f
00000160: 42a2 803f 734a 853f 3c8a 813f 8a21 843f
00000170: fee0 613f 1819 833f bb5a 7d3f dd1c 803f
00000180: 2394 863f c475 813f 426b 833f b3eb 833f
00000190: 2724 883f 8b74 833f f9bd 8e3f 4da6 833f
000001a0: 7ea5 7b3f 653e 7f3f 4106 7c3f 7dcd 833f
000001b0: b688 7c3f 8fa3 7e3f b0fb 843f a3f9 7b3f
000001c0: b289 7f3f b6ae 753f 6610 8e3f 7d5f 843f
000001d0: 0527 723f 1cbb 8f3f 1534 833f 76a8 823f
000001e0: dab4 783f 0c54 7c3f 9d2c 843f 61cb 773f
000001f0: 5715 7f3f d484 873f 2aad 7c3f 8e21 873f
1.0470645 1.0612265 0.99584764 1.0052996 0.95385545 1.0644876 0.9230452 1.028095
0.99573267 0.98268396 1.0483834 1.1000977 1.0376312 0.9679102 1.0356815 0.9844808
1.0627193 1.0418079 0.977518 1.0432502 0.9688078 1.0343753 1.0199386 1.0113845
0.8829845 0.9405296 1.0238335 0.95675284 1.059426 1.0136497 0.9929894 1.0770075
1.1179764 1.0466647 1.004454 1.0612626 1.0208995 1.0093908 1.0143152 1.0689148
0.9253712 0.99508446 0.9762193 0.9695262 1.0207163 0.9081984 1.0578684 0.9632284
0.9811643 1.0122432 0.9936867 0.97925836 1.023951 1.0942289 1.041287 1.0322171
0.95064 1.0105343 0.98959464 1.0103319 1.0191119 1.0245833 1.0054951 1.0076522
1.0648364 1.0405041 0.9611105 1.0261934 1.0398939 0.9179542 1.0332102 0.9636214
0.9773575 1.027816 0.93268514 0.96956164 1.0295409 1.0373156 1.0379477 0.9908811
0.9531987 1.0405439 1.0072504 0.99648064 1.0410696 1.0571516 1.0286251 0.97131133
1.0049517 1.0413345 1.0120311 1.0322735 0.88233936 1.0242033 0.9896657 1.0008808
1.0513958 1.0114064 1.0267107 1.0306305 1.0636033 1.0269941 1.1151725 1.0285126
0.98299396 0.9970458 0.9844704 1.0297085 0.98646104 0.9946832 1.0389309 0.9842779
0.9981948 0.9596971 1.1098754 1.0341641 0.9459079 1.1228976 1.0250269 1.020766
0.9715096 0.98565745 1.0326115 0.96794707 0.99641937 1.0587411 0.9870173 1.0557115

head.normalization.bias f4 [128]
00000000: 2f95 793e c77e 9f3e 1c2b 813e a8cd 8c3e
00000010: 8e56 a93e 9192 283e 953c 8b3e 7b75 7e3e
00000020: afe6 8c3e 5dc5 453e adf9 2a3e 32e3 833e
00000030: 24d5 623e 18f1 573e 432b 7a3e 0b1a 8c3e
00000040: 8507 123e 1658 8e3e f757 773e d1cd 4a3e
00000050: 099d 8c3e c812 583e 7949 7e3e 77c7 893e
00000060: bd43 313e 8838 633e 9729 753e 0918 543e
00000070: 48a4 613e 6b4a 8a3e d72d 5a3e ada6 983e
00000080: f046 063e 1c0c 703e f91f 8e3e c251 8c3e
00000090: 1bdb 903e 77f9 793e 453b 143e b655 383e
000000a0: 19dc 963e b9b4 a03e e8da b03e 78ce 513e
000000b0: 337c 3a3e f36c 373e 4ee6 6b3e f891 493e
000000c0: 89f2 5b3e 2719 603e e73d 1f3e 9488 8d3e
000000d0: fbe8 5b3e d5ba 233e be05 7f3e 099d a83e
000000e0: afbb 533e 8869 5f3e 0835 413e f173 233e
000000f0: f348 a63e eb05 683e 51a6 4a3e 6236 913e
00000100: dd49 573e e595 8d3e a43f 903e 2d6a 673e
00000110: b346 6b3e f00f 8b3e 540b 7d3e 4441 883e
00000120: 6d6e 7c3e 2a41 1a3e f84d 943e 8a36 af3e
00000130: 6f07 a93d 1568 713e ced6 563e d05b 943e
00000140: 2dbc 9a3e 645a 5c3e eada 493e 396e 3e3e
00000150: 159b 8e3e 0889 093e 36da 503e 3bdf 853e
00000160: ec43 9b3e ae8c 8e3e 78ba 773e ebeb 263e
00000170: 2758 943e cb29 833e 5df6 0d3e 807b 343e
00000180: 0ac3 813e cbf5 573e ec0c 7f3e 48e2 3c3e
00000190: 4b5b 6b3e de06 563e 379a 8e3e d89b 873e
000001a0: c104 8c3e 4554 923e b6f9 ac3e 3840 813e
000001b0: 6dff 583e 90ac a03e fbef 473e 2471 633e
000001c0: 2c3f a13e 3160 853e f9b7 153e af43 693e
000001d0: 1d1a 753e 6d59 303e 3871 533e 3099 853e
000001e0: 5b5c 823e 08a0 9a3e 8c90 8a3e 54ac 683e
000001f0: 8446 513e a6d8 493e 7adf 9b3e 98c4 7a3e
0.24373315 0.3115141 0.25228202 0.27500653 0.33073848 0.1646216 0.27194658 0.24849503
0.27519748 0.1931357 0.16696806 0.25759274 0.22151619 0.21088064 0.24430566 0.2736362
0.14260681 0.2780158 0.2415465 0.19805075 0.27463558 0.21100914 0.24832715 0.26909992
0.17310996 0.22189534 0.23941647 0.20712294 0.22035325 0.270099 0.21306549 0.29814664
0.13112998 0.2344212 0.27758768 0.27406126 0.28292164 0.2441157 0.14475735 0.18001446
0.29464796 0.3138788 0.34542012 0.20488918 0.1821144 0.17912655 0.23037073 0.19684589
0.21479239 0.21884595 0.15550958 0.27643263 0.21475594 0.1598924 0.24904534 0.32932308
0.20677064 0.218176 0.18867886 0.15962197 0.3247753 0.22658508 0.19790007 0.28361803
0.2102427 0.27653423 0.28173554 0.22599097 0.22976188 0.27160597 0.24711353 0.26612294
0.24651499 0.1506392 0.28965735 0.34221298 0.08253371 0.2357486 0.20980379 0.28976297
0.30221692 0.21518856 0.19712415 0.18596734 0.27852693 0.1343118 0.20395741 0.26146874
0.30325258 0.27841705 0.24192226 0.16300933 0.28973505 0.25617823 0.13863511 0.17625237
0.25344115 0.21089856 0.24907273 0.18445694 0.22984044 0.20901057 0.27852032 0.26486087
0.27347377 0.28579918 0.33784264 0.25244308 0.21191187 0.31381655 0.19525139 0.22211128
0.3149351 0.2604995 0.14620961 0.22779725 0.23935743 0.17221613 0.20648658 0.26093435
0.25461087 0.3020022 0.27063406 0.22721988 0.20437056 0.19711551 0.30443937 0.24489057

head.normalization.running_mean f4 [128]
00000000: 0a6e 3fbe 0813 933e 190c 073f 2e40 81bf
00000010: b5a8 4fbd 07d2 b03e 567c 123f 1374 e33e
00000020: b8c2 06be f63c 9b3e 75a6 eabd 7ba2 443e
00000030: 6149 29be f7c1 4e3f e5b0 823e 31a8 0dbe
00000040: e637 07bf 1ac1 93bc 8b83 973e 44a1 ebbd
00000050: 73e4 ac3e 7d0c 5d3f c99c 5a3f 34f5 b23e
00000060: 3b17 0d3e c496 073e 0f0c 1d3f d0ea cebc
00000070: 4a6d 133f c761 873e 4ee0 aa3e d1be 133e
00000080: e87a 173f 5438 1a3f e841 aebd a513 1f3e
00000090: f0cb c03e 2594 1e3e bff9 a8be 4f41 6b3d
000000a0: a582 393f 2671 ab3e a61c e3be fe4d abbd
000000b0: 1dca 753e 8ae4 46be a948 a43e 0f06 ddbe
000000c0: 7199 eebd 9a52 0e3f b51b 873e 085b 443f
000000d0: 35d3 28bd 072b d93e c297 e9be d48b 5b3f
000000e0: a002 03bf 6e44 1ebe 2d71 873e 45b8 113f
000000f0: 28c2 403e b7fb 853f c028 63be 1b56 9ebe
00000100: e1f1 773f 15b6 453f afb7 1a3e 88e4 97be
00000110: 6d34 dbbc dc0d ba3d 4968 173e c53d 093f
00000120: 2ddf d73e d762 1fbe a522 2b3e 1d9e ee3e
00000130: 0ca6 2a3f b03e d9bd 753a df3e 0dda 3c3e
00000140: 4f64 a03e 463f 493e ae0e 3bbf 2470 0f3e
00000150: 149b fbbe a6ae 3c3e 59e6 353e a7c5 2fbe
00000160: 2da9 3fbf 0e09 cf3e b312 303e f77a 603e
00000170: f476 143c f532 8f3e b8c3 673f a7be bb3e
00000180: e5a8 db3a 2332 3fbe eda5 8cbe df74 1b3e
00000190: d658 733d f42a 3abe f2c5 39bf 0604 e03e
000001a0: d3c8 1ebf ac05 f53e 7045 153e 0b81 183e
000001b0: e928 113f 3e03 a4bc 4d2f 94bd ec6c c63e
000001c0: 8156 40be 7f6d 693f cb76 843e e971 9a3e
000001d0: a3fd a33d b543 c93e 14eb cabe 1941 f9be
000001e0: c5c1 033e 4821 b03e e72e abbe 73a3 063f
000001f0: d854 fe3d e3ea 163f 9daa aabe fe4f 65be
-0.1869432 0.28725457 0.52752835 -1.0097711 -0.050698 0.34535238 0.5722097 0.44424495
-0.13160217 0.30319947 -0.114575304 0.19202606 -0.16531898 0.80764717 0.25525585 -0.13833691
-0.5281967 -0.018036414 0.29592547 -0.11505368 0.33768043 0.8634718 0.85395485 0.349527
0.13778393 0.13241106 0.61346525 -0.025258452 0.57588637 0.26441786 0.33374256 0.1442826
0.59171915 0.602422 -0.08508664 0.15534838 0.37655592 0.154862 -0.3300304 0.05743533
0.7246497 0.33484763 -0.44357795 -0.08364485 0.24002881 -0.19423118 0.32086685 -0.43168685
-0.116503604 0.5559479 0.26388326 0.767014 -0.041217048 0.4241564 -0.45623595 0.85760236
-0.5117588 -0.15455791 0.26453534 0.569218 0.18824065 1.0467442 -0.22183514 -0.30925068
0.9685345 0.7723096 0.15109132 -0.29666543 -0.026758397 0.09084675 0.14785875 0.5360988
0.42162457 -0.15565048 0.16712435 0.46605006 0.6665962 -0.1060766 0.43599287 0.18442555
0.3132653 0.19653043 -0.73069274 0.14007622 -0.49141753 0.18425998 0.17763652 -0.17165242
-0.74867517 0.40436596 0.17194633 0.21921907 0.009061564 0.27968565 0.9053302 0.36668894
0.0016758709 -0.1867147 -0.2747034 0.15181302 0.059410892 -0.18180448 -0.72567666 0.4375307
-0.62025183 0.4785589 0.1457727 0.14892976 0.5670305 -0.020021077 -0.072355844 0.38754976
-0.18782999 0.911827 0.25871882 0.30165032 0.08007362 0.3930947 -0.39632475 -0.48682478
0.12866886 0.34400392 -0.3343422 0.52593154 0.124185264 0.5895216 -0.33333293 -0.22393796

head.normalization.running_var f4 [128]
00000000: dc21 073f 87a2 373f 2487 203f d191 de3e
00000010: bcfa 293f 7d64 2f3f 7a27 263f 6056 273f
00000020: 8fae 243f 2486 e03e 390d 303f f757 353f
00000030: d301 243f 74ae fe3e 092a 203f 7448 133f
00000040: 8284 043f 8024 273f 25b8 dc3e e4ec 203f
00000050: 9aba d83e 5b30 1f3f 6c26 2d3f ce84 1a3f
00000060: 2d4c 0c3f f26a 013f f3cf 2f3f 557c d03e
00000070: b61e 2b3f c8c8 153f 5800 223f 1542 283f
00000080: 07f7 613f a4ac 1d3f 937d 1a3f c91c 163f
00000090: 70c7 3b3f ee23 0a3f 5719 fd3e 10ad 393f
000000a0: 7c83 163f 6642 003f ef96 073f 1594 df3e
000000b0: f579 1a3f 8325 013f 75bf 363f e621 033f
000000c0: cf11 f73e dd57 413f 29cf 2a3f f0ba 053f
000000d0: 0fcb 013f b271 443f b75d 173f c7fd 273f
000000e0: 1701 f93e 080d 1a3f 2cfe 073f 0c90 273f
000000f0: ca1a 113f 8fa0 123f 7de3 123f a284 f73e
00000100: a5bc 3b3f f093 463f 8de9 053f 082f fc3e
00000110: 1124 0a3f 69fb 0d3f e358 1d3f f896 173f
00000120: c97b 4a3f 8734 013f bd95 da3e f875 1e3f
00000130: 038a 223f 3cd5 213f 1e78 2f3f 261f e43e
00000140: 1411 363f f872 163f b699 de3e f71c 173f
00000150: 00a9 1e3f 83cf 273f aca4 1e3f d931 0c3f
00000160: 29a5 163f 8a8f 363f 0713 0f3f 5251 2c3f
00000170: 0c47 ea3e 231c 2b3f b17b 103f 02ef 143f
00000180: d2f3 493f f9fc 1c3f 32e0 203f 3dc2 183f
00000190: 4937 0f3f 36ea 123f 0a1b 153f 72a2 183f
000001a0: b6de f83e dd9a f73e 5302 113f 8a24 2d3f
000001b0: 7a62 f23e cbcd 173f b212 133f d916 143f
000001c0: 6d29 f33e 14ff 263f db7a 063f 55b7 253f
000001d0: 7ddb 093f 663e 593f 31da 0c3f 45e5 353f
000001e0: 8e5c 003f 9539 193f 0bcb 463f a38c 123f
000001f0: 52a1 033f f234 4c3f 7c5f 053f cd6d 1a3f
0.5278604 0.7173237 0.6270621 0.43470624 0.66398215 0.6851271 0.64903986 0.6536617
0.64328855 0.4385234 0.68770176 0.7083735 0.64065284 0.49742472 0.6256414 0.5753243
0.5176469 0.6529007 0.4310924 0.62861466 0.42329866 0.6218316 0.6763675 0.60358894
0.54803735 0.5055381 0.6867668 0.40719858 0.66843736 0.5850949 0.63281775 0.65725833
0.8826756 0.61591554 0.6034786 0.5863767 0.7335119 0.53961074 0.49433395 0.725297
0.5879438 0.50101316 0.5296468 0.43667665 0.6034234 0.50447863 0.7138589 0.512236
0.48255774 0.75524694 0.6672235 0.5223837 0.5070047 0.76735985 0.5912737 0.6562161
0.48633644 0.60176134 0.5312221 0.65454173 0.566815 0.5727624 0.5737837 0.48343378
0.73334724 0.77569485 0.52309495 0.49254632 0.5396128 0.55461746 0.61463755 0.59214735
0.7909513 0.50470775 0.42692366 0.61898756 0.6349184 0.63215995 0.6854266 0.44555014
0.7111981 0.5876918 0.43476647 0.5902857 0.61976624 0.6555101 0.6197002 0.5476356
0.58845764 0.71312773 0.5588841 0.67311585 0.4575733 0.6683981 0.5643874 0.58177197
0.78887665 0.61323506 0.62842095 0.59671384 0.55943733 0.5738863 0.58244383 0.5962287
0.48607415 0.4836034 0.5664417 0.6763388 0.47340757 0.5929839 0.574504 0.5784736
0.47492543 0.6523297 0.5253121 0.6473287 0.5385054 0.8486084 0.55020434 0.7105296
0.5014123 0.5985349 0.7765357 0.57245845 0.5141803 0.7976829 0.5209882 0.6032379

head.linear.weight f4 [27, 128]
00000000: e181 b6bd bc3b 3a3e 46ba 4fbd adc5 a9bc
00000010: 8573 1fbd e090 f03a 3ae9 6c3b 2a06 963c
00000020: 7349 7ebd 286d fe3c e6e2 343e 4f27 9abd
00000030: e007 093d 01ca 87bd 29a5 4cbd 34d2 943d
00000040: af09 b53c 1a99 373c e909 7cbb 779d 44bd
00000050: 208f 37bc 77b4 0ebe 14ce 87bd db77 0dbc
00000060: 44f2 853d 7c9b 463d dffb f7bc 51d8 7fbc
00000070: ed44 073d ed58 d3bd c047 b33d 531e f33d
00000080: 44a2 833d 15e3 f63d f0e4 483d 4af1 853c
00000090: a2e4 dc3c 780e 7abc 5b44 19be 9110 433d
000000a0: d3a9 95bb be27 523c 27b6 23be fee8 193d
000000b0: 9fe6 33bd 40b0 f33c 5332 9b3d 21bf 493d
000000c0: f6ac aa3d a0a5 67bc 262a 3cbd 24e9 ac3d
000000d0: e76b 813d 24ee c139 82aa 3fbd 03e7 d0bd
000000e0: a90c ae3d 9c46 e0bb 0a47 4cbd 7b19 09bd
000000f0: 0180 0f3d 46f1 c43d 7fb9 903d c50c 423d
00000100: a9a8 09bc ffdf 753a 4818 f4ba ba02 323d
00000110: a282 b9bd 5cd4 75bd 84ab 533d e7f1 0b3d
00000120: 07b3 94bd 8b56 433c e2bc 4bbd 2730 203d
00000130: 1b3c 253d e424 353d 23a2 a8bc f4f8 b03d
00000140: b525 85bc 3ed3 dfbd a2ff c4bd 7765 4abd
00000150: 3fbd 2bbd 8667 bdbd 0643 a7bd d1b3 a83c
00000160: 2a59 943c ad06 953d b139 fbbc 8e6c 513d
00000170: 08b8 72bd 344c a23d 18a4 a03d 7107 cfbb
00000180: 840a d93d abfd 29bd 0592 ae3c c78c e7bd
00000190: 49b0 9e3c 58cf dd3d dcd3 c7ba fd37 38be
000001a0: 6b76 8abd efdf 86bc 83b7 1fbe ab96 ed3d
000001b0: ce06 193c ae92 453d 8a78 dabb 3ecf a93d
000001c0: 64d1 60bd afe1 663d 7a98 8fbd cfb7 a03d
000001d0: adc2 17bd 3834 81bd d61f 333c 7738 7d3d
000001e0: 5ff1 733c 3223 45bc 2bc0 6bbd a555 0abd
000001f0: 87bb 5abd 16c3 1abe 3443 423d 390c af3c
00000200: 94ef f9bd 50b7 01be 39b2 483d eb6a 3ebd
00000210: 89a0 50bb e0a6 d53c 88ab 2b3d 5bd0 e5bc
00000220: a468 94bd 26ba 86bd 642a 473d 17ad 103e
00000230: fcea cfbd 8f69 c43d caf7 93bd 5bd8 77bd
00000240: de7e 8f3d 2f4d aebd 2026 bfbd 189f fe3c
00000250: 964e b33d a1fd 253d 2402 1f3d 9d1e 5b3c
00000260: bf98 9d3d 5cde ecbd 3329 07bd 5ce2 aa3d
00000270: 76ff 293d aa8a 8abd 138f a2bc fd90 84bd
00000280: 0084 67bd 896c a3bd 7457 11bc bb97 b43d
00000290: 7450 eebc 3109 01bd 6ff5 1b3d ddfc 9e3d
000002a0: e438 dcbc 73c9 10bd 16d1 2ebd 29ad 96bd
000002b0: 1ab8 cabc a9fd 29bc 309e c73d 1493 cfbd
000002c0: 2685 cb3d 3c0c 063c 933a aa3d b955 d73c
000002d0: cd57 a43c 00cb d93c 9665 4bbd e7ad e43d
000002e0: 247b 6a3c 79e9 1dbe a159 e33c 9385 e03b
000002f0: 3ec2 20be ce8e b53c eccd 11bb 88a2 bcbd
00000300: 69c1 b23c 1f7a 04bd 9578 49bc f40d 2dbc
00000310: 58f3 74bd 8fe7 933d 99b6 abbc 5ca9 d1bd
00000320: d0b3 90bd 8ca9 cd3d 7c48 b4bc e2b4 7dba
00000330: e241 98bd ad7d d43c 5b63 92bd c99f bfbd
00000340: f2df 0e3e 555a a6bd abf6 85bc 4dfa 0dbd
00000350: 626f ec3c 540c ad3d a663 123d e527 80bd
00000360: 6132 1aba f6b5 fc3d e70c cb3d e3df b53d
00000370: c58a 0abd ffc6 f03d c111 813d d9aa a6bd
00000380: 8dd4 b1bc f9d1 01be 03fb ba3d 00b6 26bd
00000390: 78a9 83bb 6162 8a3c 7a7b 963d 7692 9d3d
000003a0: 7881 d13c 68f5 41bb df89 babc eae5 8a3d
000003b0: ae67 813d b44f a53b 616b 573c 324f ca3d
000003c0: 165f fdbc 00cd dc3b c81a 253e 227b 713d
000003d0: 938a b6bc 2147 90bb 95b0 453d bb28 0abc
000003e0: de87 eabd 3c67 e5bc 8cbb d63c bd01 ac3d
000003f0: 534a a5bc b572 abbc 806c 95bc b3ff 353d
-0.08911491 0.1818685 -0.050714754 -0.020724142 -0.038928527 0.0018353723 0.0036149756 0.018313486
-0.062081765 0.03105791 0.1766468 -0.07527029 0.033454776 -0.06630326 -0.049962196 0.072666556
0.022099344 0.011205936 -0.0038458055 -0.048001733 -0.011203557 -0.1393603 -0.06631103 -0.008634533
0.06540349 0.048488125 -0.030271469 -0.015615539 0.033024717 -0.103196956 0.087539196 0.11871018
0.06427434 0.12055031 0.049046457 0.016350407 0.02696449 -0.015262239 -0.14967482 0.04762322
-0.0045673638 0.012826858 -0.15987454 0.037575714 -0.04392111 0.029747128 0.07577958 0.04925454
0.08333771 -0.014138609 -0.045938633 0.084429055 0.06319409 0.00036989257 -0.04679347 -0.10200312
0.084985085 -0.006844355 -0.049872436 -0.033471566 0.035034183 0.09616332 0.070666306 0.04737546
-0.008402028 0.00093793863 -0.0018622959 0.04345963 -0.09058119 -0.060016975 0.051677242 0.034166243
-0.07260709 0.011922489 -0.04974068 0.03910842 0.040340524 0.044224635 -0.020585125 0.08641234
-0.016253332 -0.10928963 -0.096190706 -0.04941317 -0.041928526 -0.09248261 -0.081670806 0.020593556
0.018108923 0.07276664 -0.030667158 0.051128916 -0.059257537 0.07924691 0.078437984 -0.0063180258
0.10597709 -0.041501682 0.021309862 -0.11306148 0.019371169 0.10830563 -0.0015245634 -0.17990108
-0.06760868 -0.016464202 -0.15597348 0.11601003 0.009340001 0.048235588 -0.0066672014 0.082914814
-0.05488719 0.056367572 -0.070115045 0.07847559 -0.03705089 -0.06308788 0.010932883 0.061821427
0.01488909 -0.012032317 -0.057556313 -0.033773083 -0.053401496 -0.15113482 0.04742737 0.021368133
-0.12203899 -0.12667584 0.04899809 -0.046488684 -0.0031833968 0.026080549 0.04191163 -0.028053453
-0.07246521 -0.06578474 0.04862441 0.14128529 -0.101522416 0.09590446 -0.072249964 -0.060509067
0.0700662 -0.08510815 -0.09333444 0.031081721 0.087552235 0.040525082 0.0388204 0.013373998
0.0769515 -0.11565849 -0.032998275 0.08343956 0.041503392 -0.06764729 -0.019843614 -0.06472967
-0.05652237 -0.07979686 -0.008870948 0.08818003 -0.029091097 -0.031502906 0.03807586 0.077630736
-0.026882596 -0.035348367 -0.04267987 -0.073572464 -0.02474599 -0.010375419 0.09746969 -0.10135475
0.099375054 0.008181628 0.083119534 0.026285993 0.020061398 0.026586056 -0.049657427 0.11165982
0.014311586 -0.15421094 0.0277527 0.006851861 -0.15699098 0.022162821 -0.0022247983 -0.09210688
0.02182074 -0.032343026 -0.012296815 -0.010562409 -0.059802383 0.07221901 -0.020961093 -0.10237381
-0.070655465 0.10042104 -0.02200722 -0.0009678138 -0.07434441 0.025938833 -0.07147857 -0.093566485
0.13952616 -0.08122698 -0.016352972 -0.034662534 0.028861705 0.08449617 0.035739563 -0.06257609
-0.0005882141 0.12339394 0.0991457 0.08880594 -0.033823747 0.117567055 0.063022144 -0.08138055
-0.021707797 -0.12677754 0.09129908 -0.040700912 -0.004018005 0.016892614 0.0734777 0.07693951
0.02557443 -0.0029595736 -0.02277082 0.06782134 0.063186035 0.0050449017 0.01314816 0.098783866
-0.03092913 0.006738305 0.16123497 0.05895532 -0.022282874 -0.0044030105 0.048264105 -0.008432562
-0.11451696 -0.028003328 0.026212476 0.08398769 -0.020177042 -0.02092872 -0.018240213 0.044433307

head.linear.bias f4 [27]
00000000: 8c41 313c 8233 06bb bfa1 90bd b58b a4bd
00000010: 5ea7 2e3c e828 8fbd 1d7e a33c 968f 613d
00000020: 4cc2 4f3c 1be5 babc 5a4b d8bc 421d 5ebd
00000030: 2332 24bd 5724 08bd 7b31 a6bd d684 65bd
00000040: 83c6 adbd 6494 d2bd 1998 07be 9bcb a23d
00000050: be3a 913c ab6f 9fbd 31ee 50bc 78f0 31bd
00000060: 974d 40bd 26d1 cf3a f1ae 0cbd
0.01081885 -0.0020477478 -0.070621006 -0.080344595 0.010660021 -0.06990224 0.019957596 0.055068575
0.012680601 -0.022814324 -0.026403118 -0.05422712 -0.040086877 -0.03323778 -0.081149064 -0.056034885
-0.08485129 -0.102822095 -0.13241614 0.07948991 0.017728206 -0.07784971 -0.012752102 -0.04344222
-0.046948995 0.0015855178 -0.034346525
