model_store/ResNet_epoch2.pt (torch, 66482 bytes, 32 tensors)

first_layer.weight f4 [128, 9]
0	0xbe0e01af	-0.1386783
1	0xbec7cb2e	-0.390222
2	0x3e33fcab	0.17576854
3	0xbe4b8695	-0.19875558
4	0xbd3ea439	-0.046543334
5	0x3e9eba69	0.31001595
6	0xbe671ec8	-0.22570336
7	0xbe915c35	-0.2839066
8	0x3ee78c7e	0.45224375
9	0xbd4c27c8	-0.049842626
10	0xbe6fbe4a	-0.23412433
11	0xbe12abb4	-0.14323312
12	0x3dad987c	0.0847635
13	0x3dc0f888	0.094224036
14	0x3e6b0e47	0.22954665
15	0x3e652359	0.22376765
16	0x3e55f170	0.20892882
17	0x3e9b6242	0.30348402
18	0xbe1b361c	-0.1515736
19	0xbd9be2c3	-0.07611611
20	0x3e9d14bc	0.30679882
21	0x3e40eda5	0.18840654
22	0xbe49aa7c	-0.19693941
23	0xbe30092b	-0.17190997
24	0xbe6315ed	-0.22176333
25	0xbe68019f	-0.22656868
26	0xbe5469ee	-0.20743534
27	0x3e98bc7c	0.29831302
28	0xbc9a4c25	-0.018835137
29	0x3a0e5810	0.00054299925
30	0x3ec7242b	0.3889478
31	0xbe0e0f68	-0.13873065
32	0xbd41ae0a	-0.047285117
33	0xbd07094d	-0.032967854
34	0xbea91d5a	-0.33030206
35	0xbdab6bda	-0.083701804
36	0xbea5f0f5	-0.32410398
37	0x3e280feb	0.16412322
38	0xbea05bc3	-0.3132001
39	0x3ec7a364	0.38991845
40	0x3e5a4aaa	0.21317545
41	0xbe862064	-0.26196587
42	0x3e62901a	0.22125283
43	0xbd926f71	-0.07150162
44	0x3d4a374b	0.049369138
45	0xbe200c85	-0.15629776
46	0x3e937165	0.2879745
47	0x3dd237c0	0.1026454
48	0xbd20613d	-0.039155234
49	0x3d932be7	0.07186108
50	0x3c1c265d	0.009530631
51	0xbcf97a7d	-0.030453915
52	0xbe74f43c	-0.23921293
53	0x3ec35e35	0.38157812
54	0x3d9d48d8	0.076799095
55	0x3ea97b01	0.33101657
56	0x3e21b7e6	0.15792808
57	0x3e1b4f49	0.15166964
58	0x3dbf9504	0.09354594
59	0xbe0e0ae1	-0.13871337
60	0xbedf26e8	-0.4358437
61	0xbe9f6fb9	-0.31139925
62	0x3ae9ba1d	0.0017831955
63	0x3e283351	0.16425826
64	0xbdfd77d6	-0.123763725
65	0x3e19d5c7	0.15022956
66	0xbe32d6b0	-0.1746471
67	0x3e1f58b8	0.15561187
68	0xbe9db9b6	-0.3080575
69	0xbecbf73e	-0.39837068
70	0x3d1fa01c	0.03897105
71	0x3ec2536f	0.3795428
72	0xbe73f2cd	-0.2382309
73	0x3dbe772a	0.093000725
74	0x3e582561	0.21108009
75	0xbe991898	-0.29901576
76	0xbe8f626f	-0.28004786
77	0xbe59dfd2	-0.21276787
78	0xbd8793c5	-0.06619982
79	0x3efeb4cd	0.49747315
80	0xbe9b44da	-0.30325967
81	0x3e0126ea	0.12612501
82	0xbe465237	-0.193673
83	0xbe4e0b4b	-0.20121495
84	0x3e22e444	0.15907389
85	0xbe9855fb	-0.29753098
86	0xbe2dc4a8	-0.1696955
87	0xba6edbf3	-0.00091117545
88	0xbe6d7b36	-0.23191532
89	0x3e5f6616	0.21816286
90	0xbe58653c	-0.21132368
91	0xbd4ed0a4	-0.050491944
92	0xbd0c06e1	-0.034186248
93	0xbe0d38db	-0.1379122
94	0x3e5455d3	0.20735864
95	0x3da8b939	0.082384534
96	0xbeba7f0f	-0.36425063
97	0xbe128162	-0.14307168
98	0x3e96ec42	0.29477125
99	0xbef37442	-0.47549635
100	0x3e65c9ea	0.22440305
101	0x3e3729f3	0.17887096
102	0x3e354681	0.17702676
103	0xbd8881aa	-0.066653565
104	0x3e110483	0.14161877
105	0x3b306fcb	0.0026922103
106	0x3e4d8915	0.20071824
107	0xbdd3a36b	-0.10333904
108	0xbe42cd69	-0.1902367
109	0xbe2af6ff	-0.16695784
110	0xbe84d1f5	-0.25941435
111	0xbe23d4c8	-0.15999138
112	0xbed2616c	-0.41089952
113	0xbe940b44	-0.28914845
114	0xbd33c911	-0.043892924
115	0xbe97c82a	-0.296449
116	0x3e1d6053	0.15368776
117	0x3e282b33	0.16422729
118	0x3d42115e	0.047379844
119	0x3d8c3a31	0.06847037
120	0x3ee51879	0.44745234
121	0x3e8c883d	0.27447692
122	0xbd84515a	-0.06460829
123	0x3e7122a9	0.23548378
124	0x3ea0c44d	0.31399766
125	0xbbcc3b93	-0.0062326877
126	0xbe20ba15	-0.15695985
127	0x3eaea448	0.34109712
128	0xbee21588	-0.44157052
129	0xbe35d6de	-0.17757747
130	0x3d845dc9	0.064632006
131	0xbe1cae16	-0.15300784
132	0xbe987af2	-0.297813
133	0x3dd983ad	0.10620818
134	0xbdaac8fb	-0.08339115
135	0x3edebfed	0.43505803
136	0x3e553dd5	0.20824368
137	0x3e13cd9f	0.14433907
138	0x3e16fd28	0.14745009
139	0x3e0d0ee3	0.1377521
140	0x3e6af388	0.22944462
141	0x3e8cbc99	0.2748764
142	0xbeb14aae	-0.3462729
143	0x3e306391	0.17225482
144	0x3d91398f	0.070910566
145	0x3e8f8992	0.28034645
146	0x3d9586c6	0.073010966
147	0xbdf859f1	-0.1212653
148	0x3ec0b326	0.3763668
149	0x3dfb1e01	0.12261582
150	0xbd40bb87	-0.04705384
151	0xbeafcd9b	-0.34336552
152	0xbd34d77e	-0.044150822
153	0xbe5c2268	-0.214975
154	0x3ec6c980	0.38825607
155	0xbe4dd7e3	-0.20101885
156	0x3e321237	0.17389761
157	0xbc921132	-0.017830465
158	0x3d76ee97	0.06028613
159	0x3e7f544b	0.24934499
160	0x3dd25711	0.10270513
161	0xbe3bd86b	-0.18344276
162	0x3deae254	0.1146895
163	0xbdc03f6c	-0.09387097
164	0xbba5397d	-0.0050422535
165	0xbe3cd60b	-0.18441026
166	0x3dd5961a	0.1042902
167	0x3ec98f87	0.39367315
168	0x3eb513b6	0.353666
169	0xbe5ea837	-0.21743856
170	0x3ecdfa80	0.4023018
171	0x3e254f6d	0.1614358
172	0xbb6ae0cf	-0.0035839563
173	0xbcd358bb	-0.025799146
174	0x3ecd7fd4	0.40136588
175	0xbed724a9	-0.42020157
176	0x3e8872ff	0.26650235
177	0xbe8543ae	-0.26028198
178	0x3de0e356	0.10980861
179	0x3dc3c7b0	0.09559572
180	0x3dc2b2a1	0.09506727
181	0x3ec4b889	0.3842204
182	0x3e470a36	0.19437489
183	0x3d7bf8f0	0.061516702
184	0xbbb02478	-0.005375441
185	0xbe10a640	-0.1412592
186	0x3e99dc30	0.30050802
187	0xbe1a751f	-0.1508374
188	0xbec1a029	-0.37817505
189	0x3db6714c	0.089083284
190	0x3b2e1579	0.0026563092
191	0x3e02b437	0.12764059
192	0xbd2e8522	-0.042607434
193	0x3e5a3b24	0.21311623
194	0xbeb57109	-0.354378
195	0x3e213e38	0.15746391
196	0x3e03c42a	0.128678
197	0x3e310d71	0.17290284
198	0x3e865319	0.26235273
199	0xbdc175e8	-0.09446317
200	0x3de88982	0.113543525
201	0x3e626f62	0.22112802
202	0xbe287e93	-0.16454534
203	0x3c41eeb1	0.011836694
204	0x3c464267	0.0121007925
205	0x3ea1058f	0.31449553
206	0x3ebbd1a3	0.36683378
207	0x3e878f6c	0.2647661
208	0xbe07b7ec	-0.13253754
209	0x3e9f64da	0.3113163
210	0x3e8292cf	0.2550263
211	0x3e77ec28	0.2421118
212	0x3e7e85d8	0.24855745
213	0x3e024bae	0.12724182
214	0xbd55d3aa	-0.05220381
215	0xbe8495bd	-0.2589549
216	0x3dc926a9	0.09821827
217	0xbe5530e6	-0.20819435
218	0xbe5852fe	-0.21125409
219	0x3e4f5283	0.2024632
220	0xbe6f256d	-0.2335412
221	0x3ec30252	0.38087708
222	0x3da2b79d	0.07945178
223	0xbe1c6532	-0.15272978
224	0xbc96755d	-0.01836651
225	0x3dad5371	0.08463181
226	0x3d7f9494	0.062397555
227	0xbe3fbe02	-0.18724826
228	0xbb8f84ab	-0.004379829
229	0x3e3fb7f2	0.18722513
230	0xbdfa6f4a	-0.12228258
231	0x3edb1f02	0.42797095
232	0xbd18d2db	-0.037310462
233	0xbde2ea6a	-0.11079867
234	0x3ee8fd54	0.45505774
235	0x3d54fad8	0.051997036
236	0x3e942438	0.28933883
237	0xbed4532e	-0.4146971
238	0x3e582326	0.21107158
239	0x3e015a1b	0.12632029
240	0x3dc497c9	0.09599263
241	0xbd42221e	-0.047395818
242	0xbe170271	-0.14747025
243	0x3e93f391	0.28896764
244	0xbd82b5b5	-0.06382314
245	0xbd2413f6	-0.0400581
246	0x3e333008	0.17498791
247	0x3e4c627f	0.19959448
248	0x3d298c0f	0.041393336
249	0xbe43f12f	-0.19134973
250	0xbe50ab9a	-0.20377961
251	0x3dc38104	0.09546092
252	0x3e9e410e	0.30909008
253	0x3edf1dec	0.43577516
254	0xbce83769	-0.028346734
255	0xbe2c4365	-0.16822584

first_layer.bias f4 [128]
0	0xbe3fbdf5	-0.18724807
1	0x3e0da913	0.13834028
2	0x3e9d21cd	0.3068985
3	0x3c6dcb7a	0.014513845
4	0xbd99c1c1	-0.07507659
5	0xbe46c707	-0.1941186
6	0x3e7f6905	0.24942406
7	0xbe5c9cde	-0.21544215
8	0xbe557620	-0.20845842
9	0x3e67e461	0.22645713
10	0x3ea25e13	0.31712398
11	0x3e48bab1	0.19602467
12	0x3c9dd0d0	0.019264609
13	0x3e8f6da0	0.28013325
14	0xbe53ca7c	-0.2068271
15	0x3e912dbe	0.2835521
16	0x3dfbddf3	0.12298193
17	0xbdbd940c	-0.09256753
18	0xbd47b83c	-0.048759684
19	0x3df099b0	0.117480636
20	0xbdc617c5	-0.096725024
21	0x3e8802d3	0.26564655
22	0x3e967ae6	0.2939064
23	0x3cef4131	0.02920589
24	0x3e84a9a1	0.25910667
25	0xbe9f2e8c	-0.310902
26	0x3dbeacb7	0.093102865
27	0xbe1b7325	-0.15180643
28	0x3e9222f4	0.28542292
29	0xbd609037	-0.054825034
30	0xbc4113af	-0.011784478
31	0x3d753e00	0.05987358
32	0x3e93f7ca	0.28899986
33	0x3ea94c64	0.33066094
34	0x3cb531ce	0.022118475
35	0xbdd81175	-0.10550205
36	0x3e34dda0	0.17662668
37	0x3e92cded	0.28672734
38	0xbe9eeefc	-0.31041706
39	0xbe027541	-0.12740041
40	0x3e8d9ff8	0.2766111
41	0x3dc3259f	0.0952866
42	0xbea5b7cf	-0.32366797
43	0xbd480e81	-0.048841957
44	0xbe8a140e	-0.26968426
45	0xbe54eb68	-0.20792925
46	0x3dfe9775	0.12431232
47	0xbc8dd5ef	-0.017313926
48	0x3c438c3b	0.011935289
49	0xbd87d828	-0.066330254
50	0x3e92dd61	0.28684524
51	0xbd02ad13	-0.031903338
52	0xbe69b43e	-0.22822663
53	0x3c37721a	0.0111966375
54	0xbe53a697	-0.20669018
55	0x3c2b0b6c	0.010439735
56	0xbe41b53a	-0.18916789
57	0xbea96990	-0.3308835
58	0x3d9c732c	0.07639155
59	0x3d8e4e0b	0.06948479
60	0x3e9522a8	0.29128003
61	0xbe21ec7f	-0.15812872
62	0xbe04ccb4	-0.12968713
63	0x3ccd4110	0.025055438
64	0x3e87c8f8	0.26520514
65	0x3de61ef3	0.11236372
66	0xbe6533de	-0.22383067
67	0xbe0e9f7e	-0.13928029
68	0x3e939bf8	0.28829932
69	0xbe92a686	-0.28642672
70	0x3df257fa	0.118331864
71	0x3e0a9f06	0.13537225
72	0x3cd8c498	0.02646093
73	0xbc4d4a69	-0.012529948
74	0x3e2352d3	0.15949564
75	0x3e7b747b	0.24556153
76	0x3d642153	0.055695843
77	0xbe54d82f	-0.20785592
78	0xbe222100	-0.15832901
79	0x3e2948f9	0.16531743
80	0x3ea6e82a	0.32599002
81	0x3e8a2026	0.26977652
82	0xbe36b22c	-0.17841405
83	0x3bad425f	0.005287453
84	0xbaa712ed	-0.0012746729
85	0x3e150ad0	0.14554906
86	0xbdf6a08d	-0.120423414
87	0xbdf4a76f	-0.11945998
88	0xbda2ecc9	-0.079553194
89	0x3e851415	0.25991884
90	0xbced4ec0	-0.028968215
91	0xbe3aa4f9	-0.18226995
92	0x3e8524c1	0.26004604
93	0xbe30125b	-0.17194502
94	0x3dbbc463	0.09168317
95	0x3e46efa5	0.19427355
96	0x3dd9eef6	0.10641281
97	0xbe60d626	-0.21956691
98	0xbea2f23d	-0.31825438
99	0x3c14a007	0.009071357
100	0x3e9ed7b0	0.31023932
101	0xbdfe6272	-0.12421121
102	0xbe32df0c	-0.17467898
103	0x3ea89201	0.32923892
104	0xbe1861b3	-0.1488102
105	0x3e6aa576	0.22914681
106	0x3d903894	0.070420414
107	0x3e5e702e	0.2172248
108	0x3e8a4554	0.27006018
109	0x3de93392	0.113867894
110	0xbe36486e	-0.17801067
111	0xbd08ccb4	-0.033398345
112	0x3e222ece	0.15838167
113	0xbe157a50	-0.1459744
114	0x3e933878	0.2875402
115	0xbe00efd3	-0.12591486
116	0x3e64e1c6	0.2235175
117	0xbe94a303	-0.29030618
118	0xbe9574a6	-0.29190558
119	0x3d71c83f	0.05902886
120	0x3dac8264	0.084233075
121	0x3e932810	0.28741503
122	0x3e2d3e11	0.16918208
123	0xbde6aa94	-0.11263004
124	0x3e6e400c	0.2326662
125	0x3e1103c7	0.14161597
126	0xbe8dc051	-0.27685788
127	0x3d8eb4c8	0.06968075

time_mlp.1.weight f4 [36, 9]
0	0xbe938ab5	-0.28816763
1	0x3e6e52b2	0.23273733
2	0x3d1909a0	0.037362695
3	0xbc8f8df5	-0.017523745
4	0xbdb74bc3	-0.08949997
5	0x3e3d2ffe	0.18475339
6	0x3e85e028	0.2614758
7	0x3ebcca55	0.36873117
8	0xbe6d5910	-0.23178506
9	0x3d84aac8	0.064778864
10	0xbd33d667	-0.043905642
11	0x3d5e10d2	0.05421526
12	0xbd8f2edc	-0.069913596
13	0xbe919535	-0.28434148
14	0x3dad23a5	0.08454064
15	0x3ee349b4	0.4439217
16	0x3eb94151	0.36182645
17	0x3afc66ab	0.0019256672
18	0xbe35d3e2	-0.17756608
19	0x3d583963	0.052789103
20	0xbcf947f6	-0.030429821
21	0xbe0fbb3b	-0.14036267
22	0x3e7fbd31	0.24974515
23	0xbe7f4540	-0.2492876
24	0x3ee0ac28	0.43881345
25	0x3e99dc06	0.30050677
26	0x3e7466b0	0.23867297
27	0x3da8ddde	0.08245443
28	0x3e46d9a3	0.1941896
29	0x3f10a2e4	0.5649855
30	0x3e6b23ac	0.22962826
31	0x3c8693d4	0.016427912
32	0x3bf93f01	0.0076063876
33	0xbf57f37c	-0.843559
34	0x3efe847d	0.49710456
35	0xbe8fadc8	-0.28062272
36	0x3ea72f08	0.3265307
37	0xbd55883f	-0.052131888
38	0xbdbf3c02	-0.093376175
39	0x3e9f2f68	0.31090856
40	0xbea5931c	-0.32338798
41	0x3d998f47	0.07498031
42	0xbeb67df1	-0.3564296
43	0x3d681788	0.056663066
44	0xbccd832b	-0.02508696
45	0x3e13d08b	0.14435022
46	0x3e80b5c1	0.25138667
47	0x3eab4b8a	0.3345607
48	0x3ec96e32	0.39341885
49	0x3e6f6463	0.23378138
50	0x3caad593	0.020853793
51	0xbf01227c	-0.50443244
52	0xbb389337	-0.0028163919
53	0xbea9fd6e	-0.33201164
54	0xbe369639	-0.17830743
55	0x3d069d65	0.032864947
56	0x3dfa2b6d	0.12215314
57	0x3eaabf56	0.33349103
58	0x3d236533	0.039891433
59	0xbe515966	-0.20444259
60	0xbf068c96	-0.5255827
61	0xbe5fceb2	-0.21856192
62	0xbe33f562	-0.17574075
63	0x3d53992e	0.051659755
64	0x3df55383	0.11978819
65	0xbc6f3466	-0.014599895
66	0xbec25345	-0.37954155
67	0x3e3e4abd	0.18583198
68	0x3da51666	0.08060913
69	0xbe81eab1	-0.25374368
70	0xbe810a7b	-0.25203308
71	0xbd1e0410	-0.038578093
72	0xbe552bb1	-0.20817448
73	0x3e6b584c	0.22982901
74	0xbd194d23	-0.03742708
75	0xbec012ef	-0.37514445
76	0x3e26987e	0.16269109
77	0x3e8b5bf9	0.27218607
78	0x3f12e4a1	0.5738011
79	0x3bc2974e	0.005938447
80	0xbe680583	-0.22658353
81	0xbb9637e3	-0.004584299
82	0xbd7e24a0	-0.062046647
83	0x3ee48759	0.44634512
84	0x3f1d4433	0.6143219
85	0xbd950fa1	-0.072783716
86	0xbd38b486	-0.045094036
87	0xbf362402	-0.71148694
88	0x3e94144d	0.28921738
89	0xbe1661fe	-0.14685819
90	0xbdb49b70	-0.0881871
91	0xbd5c3b9e	-0.053767793
92	0x3e35f16b	0.17767875
93	0xbe95d620	-0.29264927
94	0x3db98aa2	0.09059645
95	0xbd2f5cfd	-0.04281329
96	0xbd5973f1	-0.053089086
97	0xbec329eb	-0.38117918
98	0x3e96aea4	0.29430115
99	0xbd1be8a0	-0.038063645
100	0xbd7b0e81	-0.06129313
101	0xbebae156	-0.36500043
102	0xbde9411f	-0.11389374
103	0x3db966c1	0.09052802
104	0x3c03e35c	0.008049812
105	0xbe0755b1	-0.13216282
106	0xbe8e0be7	-0.27743456
107	0x3ea5ad4e	0.32358783
108	0xbe2e0c46	-0.1699687
109	0xbd8d285f	-0.06892466
110	0x3ecebafc	0.40377033
111	0x3eed6dc0	0.46372795
112	0x3e5ac0ce	0.21362612
113	0xbe226e1a	-0.15862313
114	0xbec58795	-0.38580003
115	0x3eb94ff4	0.36193812
116	0x3e17a318	0.14808309
117	0xbe80612c	-0.25074136
118	0x3e670f59	0.22564448
119	0xbeab2755	-0.33428445
120	0x3e25454b	0.16139714
121	0x3d97dc00	0.074150085
122	0xbba203f3	-0.0049443184
123	0x3ddc20ff	0.10748481
124	0x3d191371	0.037372056
125	0x3e2823b3	0.16419868
126	0x3dd288be	0.10279988
127	0x3d94c26b	0.07263645
128	0x3d92537f	0.07144832
129	0xbdab4793	-0.08363261
130	0x3d7702f4	0.06030555
131	0xbe25ba36	-0.16184315
132	0x3e435779	0.19076337
133	0x3e770aa8	0.24125159
134	0xbd92be13	-0.0716516
135	0x3e6a0bfa	0.22856131
136	0x3e7279cd	0.23679276
137	0xbe915abc	-0.28389537
138	0xbeb52bf9	-0.3538511
139	0xbe6080fc	-0.21924204
140	0x3e6bfe25	0.23046167
141	0x3eb1e9fe	0.34748834
142	0x3da38b4a	0.07985552
143	0x3df116cb	0.117719255
144	0x3e88c624	0.2671367
145	0xbe06c4fc	-0.13161081
146	0xbe09d871	-0.13461472
147	0x3e495957	0.19662987
148	0xbcc77889	-0.024349468
149	0xbe63eab8	-0.22257507
150	0xbe0e91d3	-0.13922815
151	0x3d900db7	0.07033866
152	0xbb964a00	-0.004586458
153	0xbd91c5a9	-0.07117779
154	0x3e73c708	0.23806393
155	0xbd81a0bc	-0.06329486
156	0xbe84182b	-0.2579969
157	0x3e32884e	0.17434809
158	0xbe9293f9	-0.2862852
159	0xbd630f70	-0.055434644
160	0xbea02b09	-0.31282833
161	0x3e775110	0.24152017
162	0x3db248bb	0.087052785
163	0x3d279f43	0.04092337
164	0x3e2de966	0.16983566
165	0x3ef7c476	0.48392075
166	0x3e86dd47	0.26340696
167	0x3ced72ac	0.028985344
168	0xbe919a86	-0.28438205
169	0x3cd38503	0.02582026
170	0x3d8d9120	0.06912446
171	0xbe81efe9	-0.2537835
172	0x3e4d02e3	0.20020632
173	0xbe917e1f	-0.28416535
174	0xbea2a879	-0.3176916
175	0x3e8e6c6b	0.2781709
176	0xbe5f7412	-0.21821621
177	0x3dd4e762	0.10395695
178	0x3d3bae95	0.04582079
179	0x3e991b16	0.29903477
180	0xbe230d5b	-0.15923063
181	0x3e0ba93a	0.13638774
182	0xbec4a854	-0.38409674
183	0x3e6f94b4	0.2339657
184	0xbd00dfb4	-0.03146334
185	0x3e0c1267	0.13678895
186	0xbea3f30f	-0.32021376
187	0x3e707e4e	0.23485681
188	0xbe4e3f56	-0.20141348
189	0x3db70d5b	0.08938094
190	0xbe7da6e3	-0.24770693
191	0xbea72608	-0.32646203
192	0x3e5d5f35	0.2161835
193	0x3d88a707	0.06672483
194	0xbe4509e6	-0.19242057
195	0xbe03b96f	-0.12863706
196	0x3e319c5d	0.17344804
197	0xbe3717dd	-0.17880197
198	0x3bc3e54d	0.0059782625
199	0x3e510422	0.20411733
200	0x3e833103	0.2562333
201	0xbe0f2494	-0.13978797
202	0xbd006c45	-0.031353254
203	0x3dcce55d	0.10004685
204	0x3dc7cdf7	0.097560816
205	0x3dba16e2	0.09086396
206	0xbdbb613e	-0.09149407
207	0xbe19866b	-0.14992683
208	0xbea9b8b4	-0.3314873
209	0x3d3ac3f6	0.04559704
210	0xbe1580df	-0.14599942
211	0xbe7efb6b	-0.24900596
212	0xbde53836	-0.11192362
213	0x3f14b63d	0.58090574
214	0x3d8c8fce	0.06863366
215	0xbe80c220	-0.25148106
216	0xbe75596f	-0.23959897
217	0x3e848da6	0.2588932
218	0x3d684389	0.05670503
219	0x3edb1930	0.42792654
220	0xbdf4b76b	-0.11949047
221	0x3d8026d9	0.062574096
222	0xbf07f418	-0.5310683
223	0x3ed816c4	0.4220487
224	0x3e91192b	0.28339514
225	0x3deff348	0.11716324
226	0x3cfa5bdb	0.030561378
227	0xbe5d1ac9	-0.21592249
228	0xbe92876e	-0.2861895
229	0xbe3b07d4	-0.18264705
230	0xbe8a8eff	-0.27062222
231	0x3efc01d4	0.49220145
232	0x3dab77d7	0.08372467
233	0x3e31b37b	0.17353623
234	0xbde6a29f	-0.11261486
235	0xbe78c9cb	-0.24295728
236	0x3f0319db	0.5121133
237	0x3ec16fc3	0.3778058
238	0xbd6e3b09	-0.05816177
239	0x3dfda7c0	0.123855114
240	0xbf0f5c95	-0.56000644
241	0x3eb6f78a	0.35735732
242	0xbd08dfa0	-0.03341639
243	0x3e5c7379	0.21528424
244	0x3e771f0a	0.24132934
245	0x3cfec9f6	0.031102162
246	0x3b6b2628	0.0035880897
247	0x3e3b2442	0.1827555
248	0x3e0adc36	0.13560566
249	0x3f03ed41	0.51533896
250	0x3e1b36a9	0.1515757
251	0x3e870d18	0.26377177
252	0x3e58cf22	0.21172765
253	0xbe48adc7	-0.19597541
254	0xbe2b945f	-0.16755818
255	0xbeddf58c	-0.433514

time_mlp.1.bias f4 [36]
0	0x3ea794bd	0.32730666
1	0x3c8292e5	0.015939185
2	0x3e1acfe1	0.15118362
3	0x3a774ab5	0.00094334345
4	0x3dd23354	0.10263696
5	0xbe0f1264	-0.13971859
6	0x3e3a8a95	0.18216927
7	0xbe5157e4	-0.20443684
8	0x3ecef752	0.40423065
9	0x3e52733d	0.20551772
10	0xbebf39ec	-0.37348878
11	0xbdbeccc4	-0.093164
12	0x3ea49b05	0.3214952
13	0x3e63deb8	0.22252929
14	0x3eaeb1f6	0.34120148
15	0x3e9aeb9d	0.30257884
16	0x3d9a4cc2	0.07534172
17	0xbe595707	-0.21224605
18	0x3e81655e	0.2527265
19	0x3e4e7945	0.20163448
20	0x3e80e066	0.25171202
21	0x3dc0a24a	0.09405954
22	0xbad4ac5d	-0.0016225685
23	0xbd80d0d7	-0.06289833
24	0x3e51c922	0.20486882
25	0x3ee4ac44	0.44662678
26	0x3e49f169	0.19720997
27	0x3e64acb8	0.22331512
28	0x3dca4848	0.09877068
29	0xbebfd2c1	-0.3746548
30	0xbe29d00a	-0.16583267
31	0x3c8e47f9	0.017368304
32	0x3da9b748	0.08286911
33	0x3d9907ed	0.07472215
34	0xbea33db3	-0.3188301
35	0xbe8e6ce8	-0.27817464

time_mlp.3.weight f4 [36, 36]
0	0x3d9e9f0e	0.07745181
1	0x3d2d0378	0.042239636
2	0xbd07b1ab	-0.03312842
3	0x3ed1b922	0.40961558
4	0x3e89c3eb	0.26907286
5	0x3dcf598e	0.10124503
6	0x3de959c0	0.113940716
7	0x3e3c593a	0.18393412
8	0xbdf5b835	-0.11998025
9	0x3e8c3266	0.273822
10	0xbe39aab1	-0.1813152
11	0x3c9ea771	0.019366952
12	0x3e8490ba	0.25891668
13	0xbde771d3	-0.11301007
14	0x3d30ee4e	0.043196015
15	0xbdeba4dd	-0.115060546
16	0x3e45a6e0	0.19301939
17	0xbe36b5e6	-0.17842826
18	0x3d895509	0.06705672
19	0x3a8bba33	0.001066035
20	0xbdba72ef	-0.09103953
21	0x3dfced55	0.12349955
22	0xbd9cdd12	-0.07659353
23	0xbe1f06ae	-0.15529892
24	0x3e8d4a15	0.27595583
25	0xbe159bd5	-0.14610226
26	0x3e909e36	0.28245705
27	0xbd15d04c	-0.0365756
28	0xbe3103ec	-0.17286652
29	0xbd6a1ec4	-0.057158247
30	0xbe21229a	-0.15735856
31	0x3a846aae	0.0010102594
32	0xbdeed2af	-0.116612785
33	0x3e73b633	0.23799972
34	0xbe12e90f	-0.14346717
35	0xbd224368	-0.039615065
36	0xbd8250ba	-0.063630536
37	0x3d86c7e2	0.06581093
38	0xbe070ebb	-0.13189213
39	0xbb8cb932	-0.004294538
40	0xbdb19717	-0.08671396
41	0x3e1f05a3	0.15529494
42	0x3e0a07b3	0.134795
43	0x3e12e6a7	0.143458
44	0xbd3c7247	-0.04600742
45	0xbe3d9ed8	-0.18517625
46	0xbaaa89fa	-0.0013011091
47	0x3e808c5d	0.2510709
48	0xbe89e6a5	-0.2693378
49	0x3daf9efb	0.08575245
50	0xbe29134d	-0.16511269
51	0xbdf11bd6	-0.117728874
52	0x3d872008	0.06597906
53	0x3e3277aa	0.1742846
54	0xbd66a516	-0.056309782
55	0xbe20bf67	-0.15698014
56	0xbcfd669c	-0.030932717
57	0x3c6b0c47	0.014346189
58	0xbde62f77	-0.11239522
59	0xbdbb7196	-0.09152524
60	0xbe008976	-0.12552437
61	0xbd3518c6	-0.04421308
62	0xbe006e91	-0.12542178
63	0xbe2e2a7f	-0.17008398
64	0x3d387837	0.04503652
65	0x3d3a6a37	0.04551145
66	0x3e52158f	0.20516036
67	0xbe2739cf	-0.16330646
68	0xbdd188ed	-0.10231195
69	0xbe0a4c53	-0.13505678
70	0xbd3b3931	-0.04570884
71	0x3de45368	0.11148721
72	0xbdcd1e72	-0.100155726
73	0xbdc31954	-0.09526315
74	0xbe34f5f4	-0.17671949
75	0x3e9bf152	0.3045755
76	0x3e7aa918	0.24478567
77	0x3e5ce721	0.21572544
78	0x3e5096a4	0.20369965
79	0xbe1b99e7	-0.15195428
80	0xbd838af3	-0.06422987
81	0x3e816e61	0.25279525
82	0x3d980a31	0.07423819
83	0x3cd81657	0.02637784
84	0x3e70c7d0	0.23513722
85	0xbbce3674	-0.0062931124
86	0x3c4c5893	0.01247229
87	0xbe08febe	-0.13378426
88	0x3da0ce66	0.078518674
89	0x3da4a434	0.08039132
90	0x3de00f1a	0.109403804
91	0xbe44634a	-0.19178501
92	0x3cd5e624	0.026110716
93	0xbe4bdd15	-0.19908555
94	0xbc5dd74d	-0.013540101
95	0xbe380cf2	-0.17973688
96	0x3cefae1d	0.029257828
97	0xbd923fca	-0.07141073
98	0x3e0fdb5c	0.14048523
99	0xbd9e3689	-0.077252455
100	0xbe21ff73	-0.15820102
101	0xbd4370aa	-0.047714867
102	0xbe1aa709	-0.15102781
103	0xbd8bea85	-0.068318404
104	0x3da5d082	0.0809641
105	0x3e4320a2	0.19055417
106	0xbcd1033b	-0.025514236
107	0xbe47fc04	-0.1952973
108	0x3ded92b4	0.11600247
109	0x3dbc9fed	0.09210191
110	0x3dc0e4a0	0.09418607
111	0xbe017164	-0.12640911
112	0xbdc7b2e8	-0.097509205
113	0xbe98ebd7	-0.29867432
114	0xbe39f434	-0.18159562
115	0xbd295083	-0.041336548
116	0xbcfdf76c	-0.031001769
117	0xbe9572ea	-0.29189235
118	0x3c8cae2b	0.017172894
119	0xbdd32f16	-0.10311715
120	0xbde38c73	-0.11110773
121	0x3e232103	0.15930562
122	0x3d03c791	0.032172743
123	0x3df73ae1	0.12071777
124	0x3d9c83c3	0.07642319
125	0xbe0e7b2c	-0.13914174
126	0x3d2c2ce7	0.04203501
127	0x3dcadff1	0.09905995
128	0x3d97f0b5	0.07418958
129	0x3e40979b	0.18807833
130	0x3e11accd	0.14226075
131	0x3d8ec2ac	0.069707245
132	0xbe299edf	-0.16564511
133	0x3d8e2ecd	0.0694252
134	0xbe2279a1	-0.1586671
135	0x3e678e2d	0.2261283
136	0x3e3c782d	0.18405218
137	0xbde88284	-0.11353019
138	0xbdd70130	-0.104982734
139	0x3e36e130	0.1785934
140	0x3d8688a9	0.065690346
141	0xbd8036ae	-0.06260429
142	0x3d2583ea	0.040409006
143	0x3ce56da4	0.028006382
144	0xbd83f3f0	-0.06443012
145	0x3cab9a30	0.020947546
146	0x3d810c76	0.06301205
147	0xbebcae7b	-0.36851868
148	0xbdd6f79a	-0.10496445
149	0x3d9cbb1f	0.07652878
150	0xbe41834c	-0.18897742
151	0x3de91e4c	0.11382732
152	0xbd356b49	-0.04429177
153	0xbe78b982	-0.24289516
154	0x3e044cc3	0.12919907
155	0xbd0293c3	-0.031879198
156	0xbe40af07	-0.18816768
157	0x3d9bb24c	0.07602367
158	0xbdfcca00	-0.12343216
159	0x3d0091b1	0.031388942
160	0x3c4e480d	0.01259042
161	0x3e200f75	0.15630896
162	0xbd5c1c11	-0.053737704
163	0x3bbc517b	0.005747018
164	0x3da82503	0.082101844
165	0x3dbe2c54	0.09285799
166	0x3dcfcdc2	0.10146667
167	0xbc6568ec	-0.014002066
168	0xbe2a29d8	-0.16617525
169	0x3d9c5268	0.07632905
170	0xbdcf4252	-0.101200715
171	0x3c380efa	0.011234039
172	0x3d51b833	0.051201057
173	0xbe1079c2	-0.14108947
174	0x3e23add7	0.15984283
175	0x3dc817df	0.09770178
176	0xbde03940	-0.109484196
177	0xbe620653	-0.22072725
178	0xbdcbe45a	-0.09955664
179	0x3dd48537	0.10376971
180	0xbd3239ca	-0.043512143
181	0xbe0416ed	-0.1289937
182	0x3c236035	0.009971668
183	0x3e7966c1	0.24355604
184	0x3e487c4a	0.19578663
185	0xbce8be0f	-0.02841094
186	0x3e48a75b	0.19595091
187	0x3d662305	0.05618574
188	0xbe6a599d	-0.22885747
189	0x3eafdfba	0.34350377
190	0x3d5fcf7f	0.054641243
191	0xbc41c548	-0.011826821
192	0xbd1962c4	-0.037447706
193	0x3e1d19e4	0.15341908
194	0x3cdd55f1	0.02701852
195	0xbe36cddd	-0.17851968
196	0xbdc2bcdd	-0.09508679
197	0xbe1e338c	-0.15449351
198	0x3e81f4a4	0.25381958
199	0xbe22642b	-0.15858524
200	0x3df1c64f	0.118054025
201	0xbd8245ef	-0.06360995
202	0xbd2c87f1	-0.04212183
203	0xbe23b146	-0.15985593
204	0x3e21cde2	0.15801194
205	0x3c8b6451	0.017015608
206	0x3e387229	0.18012299
207	0xbd5fe094	-0.054657534
208	0xbe2e341d	-0.17012067
209	0x3dbb9f53	0.09161248
210	0xbe017683	-0.12642865
211	0xbda273c6	-0.07932238
212	0x3defe92d	0.117143966
213	0x3e7b2c51	0.24528624
214	0x3cd92d1b	0.026510766
215	0x3d556c88	0.052105457
216	0x3da09bfd	0.078422524
217	0xbe11ee06	-0.14250955
218	0xbe24e2c5	-0.1610213
219	0x3efde62c	0.4958967
220	0x3d86101a	0.0654604
221	0x3e55fa6c	0.2089631
222	0xbb411eb6	-0.0029467768
223	0x39d20364	0.00040056848
224	0xbe4adece	-0.19811556
225	0x3ed2cb36	0.41170663
226	0x3cc78fd7	0.02436058
227	0xbd144c9b	-0.03620587
228	0x3e2088c5	0.15677173
229	0xbe25e42d	-0.16200323
230	0x3d0a5b74	0.033778623
231	0xbe4dd9d6	-0.20102629
232	0xbd17d229	-0.03706566
233	0x3b2113a7	0.0024578364
234	0xbcdf2c94	-0.027242936
235	0xbd811989	-0.063036986
236	0x3e21baf2	0.1579397
237	0x3e0afcb5	0.13572963
238	0x3d939a3f	0.072071545
239	0xbe3fdde9	-0.18736996
240	0x3e863a4b	0.2621635
241	0xbe2638b2	-0.16232565
242	0x3e8af01e	0.2713632
243	0xbd406149	-0.04696778
244	0x3ca1b6d6	0.019740503
245	0x3d2ed35a	0.04268203
246	0xbe741d44	-0.23839289
247	0xbdb79ddc	-0.08965656
248	0x3d42cce3	0.047558676
249	0x3e20d66c	0.15706795
250	0xbe70e925	-0.23526438
251	0xbd964cd9	-0.07338876
252	0x3ddc9b1c	0.10771772
253	0xbdbaf60f	-0.09128963
254	0xbc9cb7b5	-0.019130567
255	0x3bf33bb7	0.00742289

time_mlp.3.bias f4 [36]
0	0x3d4e9dda	0.050443508
1	0x3c7aaafc	0.015299555
2	0x3ce5a349	0.028031962
3	0xbcf73912	-0.03017858
4	0x3e1f69a9	0.1556765
5	0xbddaa638	-0.10676235
6	0x3d974fb3	0.07388248
7	0xbd914a68	-0.0709427
8	0xbe179c3f	-0.14805697
9	0x3e74ac79	0.23893918
10	0xbe5da721	-0.21645786
11	0xbc00960f	-0.007848277
12	0x3c7a8859	0.015291297
13	0x3d6b672d	0.057471443
14	0x3dfd0d7e	0.12356089
15	0x3dc47fd7	0.09594696
16	0x3d5f53e2	0.054523356
17	0x3dfacb5d	0.1224582
18	0xbe35d560	-0.17757177
19	0xbe8c5699	-0.2740982
20	0xbd9567e7	-0.072952084
21	0xbb58bf58	-0.0033073034
22	0xbddc1789	-0.107466765
23	0x3d9705fb	0.073741876
24	0x3dd0a558	0.10187787
25	0xbe11c6f4	-0.14236051
26	0x3d8b58ea	0.068040684
27	0xbc8bd2d5	-0.017068306
28	0xbdd0470c	-0.10169801
29	0x3dbbcb34	0.09169617
30	0x3e0c0916	0.13675341
31	0x3e1c2700	0.15249252
32	0x3dc53c07	0.0963059
33	0x3be1425f	0.006874367
34	0xbe26b30b	-0.16279237
35	0xbc7bb81c	-0.015363719

head.normalization.weight f4 [128]
0	0x3f7f0207	0.9961247
1	0x3f75ecf7	0.96064705
2	0x3f758ff5	0.95922786
3	0x3f74186d	0.9534977
4	0x3f7196c9	0.94370705
5	0x3f8152a3	1.0103344
6	0x3f71711a	0.94313204
7	0x3f76794e	0.96278846
8	0x3f80113e	1.0005262
9	0x3f849c5a	1.0360215
10	0x3f73d269	0.95242935
11	0x3f82268f	1.0168017
12	0x3f825152	1.0181067
13	0x3f80d9b4	1.0066438
14	0x3f852cc7	1.040429
15	0x3f7df97d	0.99208814
16	0x3f7ef53e	0.9959296
17	0x3f6b3c73	0.91889113
18	0x3f804cf1	1.0023481
19	0x3f7c74e5	0.98615867
20	0x3f84d9fa	1.0379021
21	0x3f711b4a	0.94182265
22	0x3f73340b	0.95001286
23	0x3f818338	1.011817
24	0x3f669425	0.900698
25	0x3f736800	0.95080566
26	0x3f7da15c	0.9907434
27	0x3f69e799	0.91369015
28	0x3f806e57	1.0033673
29	0x3f847293	1.0347465
30	0x3f80fdfe	1.0077512
31	0x3f77147c	0.9651563
32	0x3f831d42	1.0243304
33	0x3f78be3f	0.9716529
34	0x3f82d217	1.0220364
35	0x3f8554fa	1.0416558
36	0x3f815db8	1.0106726
37	0x3f827330	1.0191402
38	0x3f86f5fc	1.0543818
39	0x3f858ff9	1.0434562
40	0x3f816cd9	1.0111343
41	0x3f70027e	0.937538
42	0x3f7e5b51	0.9935809
43	0x3f840fbd	1.0317303
44	0x3f7b116e	0.9807347
45	0x3f6d595c	0.92714477
46	0x3f7f41b7	0.9970965
47	0x3f86e6b1	1.0539151
48	0x3f7cae94	0.98703885
49	0x3f7d1c06	0.98870885
50	0x3f71380c	0.94226146
51	0x3f7d54d8	0.98957586
52	0x3f88c9bd	1.0686566
53	0x3f86edc6	1.0541313
54	0x3f8bd8cc	1.0925536
55	0x3f6c9aad	0.92423517
56	0x3f823c35	1.0174624
57	0x3f7cda4c	0.98770595
58	0x3f731b47	0.94963497
59	0x3f87f2ca	1.0620968
60	0x3f8190c9	1.012231
61	0x3f801929	1.0007678
62	0x3f760338	0.9609866
63	0x3f816aca	1.0110714
64	0x3f84986c	1.0359015
65	0x3f836c87	1.0267495
66	0x3f7391d7	0.9514441
67	0x3f8230fd	1.01712
68	0x3f850206	1.0391243
69	0x3f7005e3	0.9375898
70	0x3f81f283	1.0152134
71	0x3f79e86e	0.97620285
72	0x3f817b30	1.0115719
73	0x3f73bbb7	0.95208305
74	0x3f6e2331	0.9302245
75	0x3f784eb8	0.96995115
76	0x3f83888c	1.0276046
77	0x3f8140d3	1.0097908
78	0x3f7d262b	0.98886365
79	0x3f7b73db	0.98223656
80	0x3f736eef	0.95091146
81	0x3f73dd9e	0.95260036
82	0x3f7dd10b	0.991471
83	0x3f833bb2	1.0252593
84	0x3f82b0d8	1.0210218
85	0x3f7d24ff	0.98884577
86	0x3f872f8c	1.0561385
87	0x3f808906	1.0041816
88	0x3f8106ee	1.008024
89	0x3f82d3c4	1.0220876
90	0x3f728dbc	0.9474752
91	0x3f72970e	0.9476174
92	0x3f84fdb6	1.0389926
93	0x3f862139	1.0478889
94	0x3f6b007f	0.9179763
95	0x3f78b972	0.9715797
96	0x3f73ce64	0.952368
97	0x3f812b23	1.0091289
98	0x3f73101b	0.9494645
99	0x3f869b50	1.0516148
100	0x3f85afb0	1.044424
101	0x3f7ef525	0.9959281
102	0x3f8b041b	1.0860628
103	0x3f83d6d8	1.029994
104	0x3f7f0afb	0.9962613
105	0x3f6f0ffb	0.9338376
106	0x3f6c3358	0.92265844
107	0x3f6de9df	0.92934984
108	0x3f783524	0.96956086
109	0x3f7dba84	0.99112725
110	0x3f89a472	1.075331
111	0x3f714f55	0.94261676
112	0x3f7e5e04	0.99362206
113	0x3f716124	0.9428885
114	0x3f820895	1.0158869
115	0x3f767c08	0.96283007
116	0x3f72ab34	0.94792485
117	0x3f72547a	0.9466015
118	0x3f84bb85	1.0369726
119	0x3f81df8f	1.014635
120	0x3f81d8d9	1.0144302
121	0x3f64a741	0.8931771
122	0x3f7eaebc	0.99485373
123	0x3f6c5b8d	0.92327195
124	0x3f860300	1.0469666
125	0x3f8154f5	1.0104052
126	0x3f6b2f02	0.91868603
127	0x3f6ccb11	0.92497355

head.normalization.bias f4 [128]
0	0x3e02db9a	0.12779084
1	0x3cb075c9	0.02154054
2	0x3e1716f8	0.14754856
3	0x3c11a9de	0.008890597
4	0x3dc40469	0.09571154
5	0x3e009832	0.12558058
6	0x3dcf6d50	0.101282716
7	0x3dc037d9	0.09385652
8	0x3e0cada3	0.13738112
9	0x3e0b6249	0.13611712
10	0xbc6fd5b3	-0.014638352
11	0x3dbdcb25	0.09267262
12	0x3e208324	0.15675026
13	0x3dfa79b4	0.12230244
14	0x3de6fbbb	0.112784825
15	0x3dac6c28	0.08419067
16	0x3c5d1eaf	0.013496085
17	0xbcaf2bef	-0.021383254
18	0x3deaab78	0.11458486
19	0x3d46b75d	0.048514713
20	0x3e024c44	0.12724406
21	0x3ce1f4e5	0.027582595
22	0x3e080785	0.13284118
23	0x3dfbe091	0.12298692
24	0x3db64e08	0.08901602
25	0x3c973a93	0.018460548
26	0x3df79162	0.120882764
27	0x3d7cb4c9	0.061695848
28	0x3daf6a40	0.085651875
29	0x3e323c4d	0.17405815
30	0x3deb5fcd	0.11492882
31	0x3e18da90	0.14927125
32	0x3e2a4bf4	0.16630536
33	0x3d4599fc	0.048242554
34	0x3dbea9f1	0.093097575
35	0x3e0132b4	0.12616998
36	0x3e2986a2	0.16555265
37	0x3e20a55d	0.15688081
38	0x3da8d483	0.082436584
39	0x3dde8803	0.10865786
40	0x3dc7c805	0.097549476
41	0x3e064454	0.13112003
42	0x3e1f33bf	0.15547083
43	0x3d336cd8	0.043804973
44	0x3dd7f27a	0.105442956
45	0x3df61bc3	0.12017014
46	0x3e21494e	0.1575062
47	0x3d617de3	0.055051696
48	0x3cf41acf	0.02979794
49	0x3e24ccd8	0.16093767
50	0x3c952e45	0.01821054
51	0x3de5eda1	0.11226965
52	0x3e206797	0.15664516
53	0x3e172e23	0.14763694
54	0x3de69661	0.11259151
55	0x3c84712c	0.016167246
56	0x3de4f8a2	0.111802354
57	0x3d7eab84	0.06217529
58	0x3d04e55d	0.0324453
59	0x3dac4b80	0.08412838
60	0x3e1fc354	0.15601856
61	0x3e0f08e0	0.1396823
62	0x3deb7679	0.11497206
63	0x3e126fb1	0.1430042
64	0x3dd1b55a	0.10239668
65	0x3e0b9ecd	0.13634796
66	0x3c7ce99a	0.015436554
67	0x3da2c5b2	0.07947864
68	0x3ddfb137	0.10922473
69	0x3e00b620	0.12569475
70	0x3e1b99dc	0.15195411
71	0x3db64da4	0.089015275
72	0x3e28a33f	0.16468523
73	0x3d401d80	0.046903133
74	0xbb06699e	-0.002050973
75	0x3df52024	0.11969021
76	0x3d97fd57	0.074213676
77	0x3e0d5f90	0.13805985
78	0x3d886fd2	0.06661953
79	0x3d7d4291	0.06183106
80	0x3d7bd9d0	0.06148702
81	0x3deb205a	0.1148078
82	0x3dd67547	0.10471588
83	0x3df614c9	0.12015683
84	0x3e3ebbf6	0.18626389
85	0x3cceb4b1	0.025232645
86	0x3e176bcc	0.14787215
87	0x3dbbbb3f	0.09166574
88	0x3e072e1b	0.13201182
89	0x3e2734f5	0.16328795
90	0xbd010859	-0.0315021
91	0x3e01c9f9	0.12674703
92	0x3decb9b6	0.11558859
93	0x3e1661e6	0.14685783
94	0xbbf297a6	-0.007403332
95	0x3da2db86	0.07952027
96	0x3df1d2d0	0.118077874
97	0x3d178b89	0.036998305
98	0xbcfdcf35	-0.030982593
99	0x3defabfc	0.11702725
100	0x3d49342e	0.049122028
101	0x3db765d9	0.08954973
102	0x3d53f797	0.051749792
103	0x3dc734d2	0.097268716
104	0x3aa5999a	0.0012634278
105	0x3d8a6445	0.06757406
106	0x3d97b091	0.07406724
107	0xbd748a8e	-0.05970245
108	0x3e46f429	0.19429077
109	0x3db1f2e6	0.08688907
110	0x3e10c4d2	0.14137581
111	0x3ca01636	0.019541841
112	0x3e033c13	0.12815885
113	0x3d2bb373	0.041919183
114	0x3de7b1c5	0.11313204
115	0x3dcf1d83	0.10113051
116	0x3b1ae37e	0.002363413
117	0x3d4fe73f	0.050757643
118	0x3d98d499	0.07462425
119	0x3e013d34	0.12621003
120	0x3e128d4b	0.14311711
121	0x3d455103	0.048172962
122	0x3d2f549f	0.04280531
123	0x3e10354d	0.14082833
124	0x3de9be85	0.11413292
125	0x3e06e54d	0.13173409
126	0x3d32a8b0	0.043617904
127	0x3d9060e7	0.07049733

head.normalization.running_mean f4 [128]
0	0xbeecd7c8	-0.46258378
1	0x3e36a43e	0.17836091
2	0x3e4da20e	0.2008135
3	0xbf52e525	-0.82380897
4	0x3e9e8c12	0.3096624
5	0xbd656e94	-0.05601366
6	0x3f139ee3	0.57664317
7	0xbcf9fcb3	-0.030516004
8	0xbe45d777	-0.19320475
9	0xbd58a674	-0.052893117
10	0xbe9f1375	-0.31069532
11	0x3d12b44c	0.035816476
12	0xbef5ba3a	-0.47993642
13	0x3ed1a4a0	0.4094591
14	0xbd19f67c	-0.03758858
15	0x3dcce240	0.10004091
16	0xbe9999d8	-0.30000186
17	0x3cacd233	0.021096325
18	0x3bbfbef4	0.005851621
19	0xbe3ad235	-0.1824425
20	0xbe06cdfc	-0.13164514
21	0x3eea07bd	0.4570903
22	0x3f6eb5a3	0.93245906
23	0x3e4127fc	0.18862909
24	0x3cd8f6aa	0.026484806
25	0xbe0e42de	-0.13892695
26	0x3dd52cf3	0.10408964
27	0xbdacdec8	-0.0844093
28	0x3f57c9b8	0.84292173
29	0xbe04bf76	-0.12963662
30	0x3e6f1466	0.23347625
31	0x3cec434e	0.028840687
32	0x3e7ad0e3	0.24493746
33	0x3e717a6b	0.23581855
34	0x3dc8139a	0.09769364
35	0xbe522d9d	-0.20525213
36	0x3da0adb6	0.07845633
37	0x3e8caad4	0.27474082
38	0xbed54925	-0.41657367
39	0xbeec633b	-0.46169457
40	0x3ee55d81	0.447979
41	0x3f043df4	0.5165703
42	0xbedfdf83	-0.43725213
43	0xbd37208a	-0.044708766
44	0x3cda5e8a	0.026656408
45	0xbe730665	-0.23732908
46	0x3ecbd435	0.3981034
47	0xbed293d4	-0.4112841
48	0xbd176643	-0.03696276
49	0x3de6fe22	0.11278941
50	0x3ec338a0	0.3812914
51	0x3ecbcbe6	0.39804
52	0x3e320499	0.17384566
53	0xbe724630	-0.23659587
54	0xbf1e402f	-0.61816686
55	0xbc5e343b	-0.013562257
56	0xbdc36f43	-0.09542706
57	0xbf242a6e	-0.6412724
58	0xbe08a5fe	-0.13344571
59	0xbe2b5f4d	-0.16735573
60	0x3f435198	0.7629638
61	0x3f11d74c	0.5696914
62	0xbf2e86db	-0.68174523
63	0xbe018e68	-0.1265198
64	0x3f452f1e	0.7702502
65	0x3e8a871d	0.27056208
66	0xbe449f3c	-0.19201368
67	0xbe410cd0	-0.18852544
68	0x3ded02a0	0.11572766
69	0xbe824527	-0.25443384
70	0xbe8e1026	-0.27746695
71	0x3ecf20f5	0.40454832
72	0xbc8ffcfa	-0.017576683
73	0xbf1c4372	-0.61040413
74	0x3eb52bd7	0.3538501
75	0x3c4aaecc	0.012370776
76	0xbe223fc9	-0.15844645
77	0x3e03b9d0	0.1286385
78	0xbe459c9d	-0.19298024
79	0xbcd74c88	-0.02628161
80	0x3c86c05c	0.016449146
81	0x3e4a786a	0.19772497
82	0xbf06bd32	-0.5263244
83	0xbe6e8ea7	-0.23296605
84	0xbe60d47e	-0.2195606
85	0xbe94e982	-0.29084402
86	0x3da064d7	0.07831734
87	0xbedf7f38	-0.43651748
88	0xbf46628e	-0.7749413
89	0x3e68e881	0.22744943
90	0xbd6ad22d	-0.057329345
91	0xbe2f3ef6	-0.17113861
92	0x3efd998c	0.4953121
93	0xbeff5d72	-0.4987598
94	0x3ee040ab	0.43799338
95	0x3eab11e2	0.3341208
96	0x3d3b8943	0.0457852
97	0xbf038530	-0.51375103
98	0xbe7168b1	-0.23575093
99	0xbd6abe57	-0.05731043
100	0x3d8c26fe	0.06843375
101	0x3d19a927	0.037514832
102	0xbf246dec	-0.6423023
103	0x3ec95eaf	0.3933005
104	0xbeeccbbb	-0.46249184
105	0x3e6c05c5	0.23049076
106	0x3e4e4833	0.2014473
107	0x3e0872d8	0.1332506
108	0x3ee92633	0.45536956
109	0x3e7b20ad	0.24524184
110	0xbef3a96e	-0.47590202
111	0x3cad0c7e	0.02112412
112	0xbde04d4d	-0.10952244
113	0x3ea15f2d	0.31517926
114	0x3d3a1787	0.045432594
115	0x3e2e42ed	0.17017718
116	0x3eefbce0	0.46823788
117	0xbdd4df89	-0.103941984
118	0xbed6e425	-0.41970935
119	0xbe4a22b2	-0.19739798
120	0xbddce20e	-0.10785304
121	0x3ee31e64	0.44359124
122	0xbddb1527	-0.10697394
123	0xba3cd892	-0.00072039024
124	0xbdd39945	-0.10331968
125	0x3ee2be12	0.44285637
126	0xbe2b7033	-0.1674202
127	0xbcc8a9f2	-0.024495099

head.normalization.running_var f4 [128]
0	0x3f1040a2	0.5634862
1	0x3e912f20	0.28356266
2	0x3ead89aa	0.33894092
3	0x3eb9ba01	0.36274722
4	0x3efdcca6	0.49570197
5	0x3ed26af2	0.41097218
6	0x3f1f2650	0.62167835
7	0x3ee50f09	0.44738033
8	0x3edff62a	0.43742496
9	0x3ecf86ec	0.40532625
10	0x3f0d1003	0.55102557
11	0x3f02529a	0.5090729
12	0x3ed95c60	0.4245329
13	0x3efb2b18	0.49056315
14	0x3ec6682c	0.38751352
15	0x3f2385d3	0.63876075
16	0x3ed8b1fa	0.42323285
17	0x3efb8ab7	0.4912927
18	0x3eed3af7	0.4633405
19	0x3eabb4fe	0.33536524
20	0x3f1a2777	0.6021647
21	0x3e9b328c	0.30312002
22	0x3eb20011	0.34765676
23	0x3e9eac80	0.30990982
24	0x3ee45295	0.44594255
25	0x3e979cec	0.2961191
26	0x3ecb4f89	0.39709118
27	0x3ea00ade	0.3125829
28	0x3ec6c939	0.38825396
29	0x3f09cc68	0.53827524
30	0x3ed84c49	0.422457
31	0x3eb99413	0.36245784
32	0x3ec7f928	0.3905728
33	0x3ec92a69	0.3929017
34	0x3f03d788	0.5150075
35	0x3eeed442	0.46646315
36	0x3f02e509	0.5113073
37	0x3e8a59a7	0.27021524
38	0x3ebd95f0	0.37028456
39	0x3eb6d42b	0.35708746
40	0x3ed1dd6f	0.40989253
41	0x3f09a2b3	0.53763884
42	0x3effa9d4	0.49934256
43	0x3edb1ed6	0.42796963
44	0x3ec658ef	0.38739726
45	0x3f283b5f	0.65715593
46	0x3eef71c9	0.467665
47	0x3ec28917	0.37995216
48	0x3ea9f8fd	0.33197775
49	0x3f1df454	0.6170094
50	0x3e7a7f95	0.24462731
51	0x3eb5b4f9	0.35489634
52	0x3ef84ae8	0.4849465
53	0x3f05ac91	0.5221644
54	0x3eb5deb0	0.3552146
55	0x3e9b513c	0.30335414
56	0x3f054cb6	0.52070177
57	0x3ec7fd51	0.39060453
58	0x3ec87920	0.3915491
59	0x3f04c023	0.5185568
60	0x3f162084	0.58643365
61	0x3efe83f8	0.4971006
62	0x3ea86974	0.32892954
63	0x3ecaa565	0.3957931
64	0x3f0f335c	0.55937743
65	0x3eab9cd2	0.33518082
66	0x3ed3585c	0.4127835
67	0x3f39e821	0.72619826
68	0x3eda94a9	0.42691544
69	0x3ec6f2a3	0.38856992
70	0x3f1b361d	0.60629445
71	0x3ed55ded	0.41673222
72	0x3ef64bbf	0.48104665
73	0x3ead69d0	0.3386979
74	0x3ec431ee	0.38319343
75	0x3efb20ab	0.4904836
76	0x3f020193	0.5078365
77	0x3efd0032	0.49414212
78	0x3ec0ab46	0.3763067
79	0x3f18cd80	0.5968857
80	0x3e327a1c	0.17429394
81	0x3ea9fe94	0.3320204
82	0x3eede005	0.46459976
83	0x3eb4ba26	0.3529827
84	0x3efad6c2	0.48991972
85	0x3ea4a18c	0.321545
86	0x3f12f908	0.5741124
87	0x3f187541	0.59553915
88	0x3e8e6279	0.27809504
89	0x3f0c3772	0.547721
90	0x3eca394f	0.39496848
91	0x3ec8b1b3	0.39198074
92	0x3ef526ec	0.47881258
93	0x3ec72376	0.38894242
94	0x3e7bdab0	0.24595141
95	0x3ee12972	0.43976933
96	0x3f224d60	0.63399315
97	0x3e9b127c	0.3028754
98	0x3efb9066	0.49133605
99	0x3eef10ad	0.4669241
100	0x3f10b3e9	0.5652452
101	0x3f00eae7	0.5035843
102	0x3f2948c2	0.66126645
103	0x3ee1a1a3	0.44068632
104	0x3ebca3bc	0.3684367
105	0x3ece751b	0.4032372
106	0x3e95a5ea	0.29228145
107	0x3f09a852	0.5377246
108	0x3ed05bdf	0.40695092
109	0x3f13fcaa	0.5780741
110	0x3f154a20	0.5831623
111	0x3f0058be	0.5013541
112	0x3f0b9178	0.5451884
113	0x3f04a1c0	0.5180931
114	0x3ea078df	0.31342217
115	0x3ed5151b	0.41617665
116	0x3ef622a7	0.48073313
117	0x3ec616a7	0.38689157
118	0x3f0c593a	0.5482365
119	0x3f0920eb	0.53565854
120	0x3ef2f6ac	0.4745382
121	0x3f02d26a	0.51102316
122	0x3eef3ff2	0.46728474
123	0x3ecf7a2c	0.40522897
124	0x3efe382b	0.49652228
125	0x3f1dd291	0.61649424
126	0x3e8e315e	0.2777204
127	0x3ec1235b	0.37722287

head.linear.weight f4 [9, 128]
0	0xbd20733c	-0.039172396
1	0x3d018e36	0.031629764
2	0x3bf784f7	0.0075536924
3	0x3d1bebc6	0.038066648
4	0xbc124e04	-0.008929733
5	0xbd8af233	-0.06784477
6	0xbbb610df	-0.0055562104
7	0x3c713516	0.014722129
8	0xbd0b4d1f	-0.034009095
9	0xbb85b980	-0.004080951
10	0xbc8e932b	-0.01740416
11	0xbe027764	-0.12740856
12	0xbd0b7a51	-0.034052197
13	0x3da3fcae	0.08007179
14	0xbc0f44ab	-0.008744399
15	0x3df4ac78	0.11946958
16	0x3d653138	0.05595514
17	0x3c44989c	0.011999276
18	0xbc4d2b15	-0.012522479
19	0xbd1411c6	-0.036149763
20	0x3d342552	0.043980904
21	0xbd54e14b	-0.05197267
22	0x3d280d9f	0.041028615
23	0x3da58eb8	0.08083862
24	0x3bd34524	0.006447451
25	0x3c94c740	0.018161416
26	0x3da45f6e	0.08026014
27	0x3d7c78f0	0.061638772
28	0x3d56f57f	0.052480217
29	0xbd894f6f	-0.06704604
30	0x3cb9c9bc	0.022679202
31	0x3d083519	0.033253763
32	0x3d4ca652	0.049963303
33	0x3db2169b	0.08695718
34	0x3d60584a	0.0547717
35	0x3c0717aa	0.008245388
36	0xbb891e3a	-0.0041845115
37	0x3cc48ee0	0.02399391
38	0xbe278413	-0.16358976
39	0xb748106b	-1.1924752e-05
40	0x3c4cc64a	0.012498448
41	0xbc74b263	-0.014935109
42	0xbdcf1fff	-0.10113525
43	0x3b68fd4d	0.003555137
44	0xbbf403e0	-0.007446751
45	0x3ce9f673	0.028559899
46	0x3d39d8d6	0.045372806
47	0xbd82ede6	-0.06393032
48	0xbc593b72	-0.013258802
49	0xbcf7470a	-0.030185241
50	0x3c1eee56	0.009700378
51	0x3d837415	0.06418625
52	0x3e144ae2	0.1448169
53	0x3a2b59ba	0.00065365026
54	0xbcec5e01	-0.028853418
55	0x3ccb9c9e	0.024854954
56	0xbb11ebd0	-0.00222658
57	0xbd165019	-0.03669748
58	0x3d88a212	0.066715375
59	0xbe12a86f	-0.14322065
60	0xbc4f8de1	-0.012668104
61	0xbb6c3b8f	-0.0036046242
62	0x3d25a31e	0.040438764
63	0xbdcaf02f	-0.09909093
64	0xbd0a0def	-0.033704694
65	0x3d65c33d	0.056094397
66	0xbd0723a9	-0.032992993
67	0x3dd7a11e	0.105287775
68	0xb8c9d13b	-9.623399e-05
69	0xbd1a042c	-0.037601635
70	0xbd0ac3f6	-0.03387829
71	0xbd142bab	-0.036174458
72	0x39ae3161	0.00033224656
73	0xbd4517f4	-0.048118547
74	0xbb127a12	-0.0022350592
75	0xbc524802	-0.012834551
76	0x3d24b0b7	0.04020759
77	0xbd0ee14b	-0.034882825
78	0x3b700ca9	0.003662864
79	0x3d3d928b	0.046282332
80	0xbc6082ec	-0.013703089
81	0xbd0c0e32	-0.034193225
82	0xbd3978ff	-0.045281406
83	0x3d4279aa	0.04747931
84	0x3d8c54ed	0.06852136
85	0x3d49528b	0.049150985
86	0x3d3932c8	0.045214444
87	0x3ca3790e	0.019955184
88	0xbbbf13ce	-0.0058312183
89	0xbb6ad63e	-0.0035833265
90	0xbb5414a9	-0.0032360947
91	0xbd9dc71b	-0.07703992
92	0x3d0a497e	0.033761494
93	0x3c167aea	0.009184578
94	0x3c4c70c5	0.012478058
95	0x3d5419ab	0.05178229
96	0x3c42856a	0.011872629
97	0xbcc1a766	-0.023639392
98	0xbd6852ae	-0.056719474
99	0x3dd0467f	0.10169696
100	0x3d7473a8	0.05968061
101	0x3d0e84eb	0.03479473
102	0x3ca6aa52	0.020344887
103	0xba9bf564	-0.0011898694
104	0x3db0d691	0.08634675
105	0xbad3390d	-0.0016115025
106	0xbcc3fc99	-0.023924159
107	0x3c6445e3	0.013932678
108	0xbd81f047	-0.063446574
109	0xbd6f959c	-0.058492288
110	0xbe1bf1ce	-0.1522896
111	0xbd746fd5	-0.059676964
112	0x3db233b1	0.087012656
113	0x3c92be59	0.01791303
114	0x3c8a9c22	0.016920153
115	0x3d04d193	0.032426428
116	0xbd4db9e8	-0.050226122
117	0xbce0506d	-0.0273821
118	0xbc604e14	-0.01369049
119	0xbde73b56	-0.11290614
120	0xbbd660b7	-0.006542291
121	0x3c9d6264	0.019211955
122	0x3cdda423	0.027055806
123	0xbd0ca5b3	-0.03433771
124	0xbdde4671	-0.108532794
125	0xbc1f3da0	-0.009719282
126	0xbd0c9805	-0.034324665
127	0x3a8a6aee	0.0010560432
128	0xbd76b50c	-0.060231254
129	0xbd5a8a86	-0.053354762
130	0xbd00d7d9	-0.03145585
131	0x3af6f568	0.0018841447
132	0x3dadef56	0.08492915
133	0x3d951702	0.07279779
134	0x3d9fa43b	0.07794996
135	0xbd2e6274	-0.04257436
136	0x3c15d897	0.009145877
137	0xbcfbcd35	-0.030737499
138	0xbc26d874	-0.010183442
139	0x3d416f95	0.047225554
140	0xbde04d2b	-0.109522186
141	0x3d3e8a8d	0.04651885
142	0x3da47d11	0.08031667
143	0x3da04b08	0.07826811
144	0x3d624fe0	0.055251956
145	0x3d05cc43	0.032665502
146	0xbd69f99f	-0.057122823
147	0x3b9efb12	0.0048517073
148	0x3d84472a	0.06458886
149	0xbce5135a	-0.02796333
150	0x3c3cdffc	0.011528011
151	0xbd348bc3	-0.0440786
152	0x3bc2663e	0.0059325984
153	0xbd17a469	-0.037022028
154	0xbc71a68f	-0.014749183
155	0x3ce22890	0.027607232
156	0x3dc95fec	0.09832749
157	0xbcf25bb4	-0.029584743
158	0x3daded1c	0.08492491
159	0xbd4b8362	-0.049685843
160	0xbd4dcf3c	-0.050246462
161	0x3c78e9a5	0.015192424
162	0x3ccb9a4a	0.024853844
163	0x3d72a2fb	0.05923746
164	0xbab0d11c	-0.0013490054
165	0xbd25f804	-0.04051973
166	0x3d09acde	0.033612125
167	0x3cd4ceab	0.025977453
168	0x3de9ec61	0.11422039
169	0x3c5cfdfb	0.013488288
170	0xbd1a10e3	-0.03761376
171	0x3d71daa3	0.0590464
172	0x3c92eb7e	0.017934557
173	0xbd142b01	-0.036173824
174	0x3d185557	0.03719076
175	0xbce7cba7	-0.028295351
176	0x3db87ffe	0.090087876
177	0xbd8af98a	-0.06785877
178	0xbd4963bc	-0.04916738
179	0xbc3039cb	-0.010755966
180	0xbc50b413	-0.012738246
181	0x3ceb11eb	0.028695067
182	0xbd2ddf51	-0.0424493
183	0x3a968713	0.0011484347
184	0x3e01a8a8	0.12661994
185	0xbd830030	-0.0639652
186	0xbc03e9ff	-0.0080513945
187	0xbdeef4bd	-0.11667774
188	0x3d236ba0	0.03989756
189	0x3db6a290	0.08917725
190	0xbc8181e8	-0.015809014
191	0xbd923530	-0.07139051
192	0x3d3d6e32	0.04624767
193	0xbd7aad92	-0.061200686
194	0x3c5c4369	0.013443806
195	0xbab1127b	-0.0013509536
196	0xbd8f1723	-0.06986835
197	0x3d3c3cc9	0.045956407
198	0xbd2f7966	-0.042840384
199	0xbcb3150d	-0.021860624
200	0xbd46928b	-0.048479598
201	0xbcf477ad	-0.029842222
202	0xbc913b51	-0.01772848
203	0x3c584205	0.013199334
204	0x3dae4f79	0.08511252
205	0x3d1608d2	0.036629505
206	0xbc3b78db	-0.011442388
207	0xbe10f2ad	-0.14155073
208	0xbcb7dd34	-0.022444345
209	0xbd3a671c	-0.04550849
210	0xbd7a0740	-0.06104207
211	0xbcee3d54	-0.029081978
212	0x3d8cf769	0.06883127
213	0xbdc1c8db	-0.09462138
214	0xbdd2aa1d	-0.10286353
215	0x3c607feb	0.013702373
216	0xbd2de015	-0.04245003
217	0x3d250e73	0.040296983
218	0x3d8fc1bc	0.07019374
219	0xbad87d29	-0.0016516793
220	0x3c4a150b	0.012334119
221	0x3b7fa487	0.0039007978
222	0x376df661	1.4183665e-05
223	0x3d8f8dc1	0.07009459
224	0xbb425721	-0.0029653984
225	0xbe0b6f6d	-0.13616724
226	0x3d8b67dc	0.06806919
227	0x3d7b5515	0.061360437
228	0x3d81175a	0.06303282
229	0xbdb5af3d	-0.08871315
230	0x3d8ccd86	0.06875138
231	0x3d5d3aca	0.054011144
232	0xbc6ceab8	-0.014460258
233	0x3d8a8d2b	0.06765207
234	0xbc936829	-0.017994003
235	0xbcf78fc0	-0.030219913
236	0x3cddf121	0.027092518
237	0x3d038997	0.032113638
238	0xbd816b7a	-0.06319328
239	0x3d8a43aa	0.06751187
240	0xbcf165a9	-0.02946742
241	0x3d44f44d	0.048084546
242	0xbd0f58c8	-0.034996778
243	0xbd3efc2e	-0.046627216
244	0x3c202656	0.009774765
245	0x3d9dd3a4	0.07706383
246	0xbcbed76f	-0.023296086
247	0x3da1aa52	0.07893814
248	0xbdf8d4f0	-0.121499896
249	0xbd55cabd	-0.0521953
250	0xbd9b966f	-0.07597052
251	0x3c136bf0	0.008997902
252	0xbc8fe067	-0.017563058
253	0xbcc87399	-0.024469184
254	0x3b8604bf	0.0040899212
255	0xbcc7da16	-0.024395984

head.linear.bias f4 [9]
0	0x3ac214be	0.0014807207
1	0x3c9f25be	0.019427177
2	0xbcffcb02	-0.031224731
3	0xbd41309d	-0.047165502
4	0x3d21c50d	0.039494563
5	0xbcedd911	-0.02903417
6	0xb9031307	-0.00012500222
7	0x3cf9a1bb	0.030472627
8	0x3c6c8c9f	0.014437824
